model/lenet5.pth (torch_old, 248640 bytes, 10 tensors)

layers.0.weight f4 [6, 1, 5, 5]
000000 e7 0d 6b 3b 32 9f 9d 3e 4f db b8 3e d0 f8 95 3d
       0.003586644 0.3078552 0.3610482 0.07322848
000010 c0 04 65 3e 53 85 8e 3e 2e fd 84 3e 5f 61 3d 3e
       0.22365093 0.27836093 0.2597441 0.18494175
000020 b4 9e d8 3d d1 0b 9c 3e c8 80 99 3d 3f 89 04 bd
       0.10577145 0.30477765 0.07495266 -0.03235745
000030 95 07 32 be e2 59 f6 bd 28 01 cb bd 98 ae 98 3d
       -0.17385705 -0.120288625 -0.0991233 0.07455176
000040 be e3 35 be 44 33 c9 bd fd 8f f8 bd 67 ea 7e be
       -0.17762658 -0.09824231 -0.121368386 -0.24894105
000050 5c f9 b2 be 3c f0 b5 be 8c 84 be be 5a 7e 7a 3c
       -0.3495587 -0.35534847 -0.372105 0.015288914
000060 05 ba 1b be 1a 21 af 3e 25 40 62 3e 73 79 30 bc
       -0.1520768 0.34204942 0.22094782 -0.010771143
000070 9f eb 28 3a 2e 9a 8b 3c 4c dd d8 3d 9d bc 5e bd
       0.00064438017 0.017041292 0.10589084 -0.054379094
000080 9f f2 81 be bc ca fb bd 45 e9 12 be 19 e6 c5 3d
       -0.25380418 -0.12294528 -0.14346798 0.09663028
000090 63 94 e0 bc fa 4d 3b be cc d2 8d bd b3 07 43 be
       -0.027414506 -0.18291464 -0.06924972 -0.19045906
0000a0 52 50 31 bd 8a 16 46 be 25 7d 6d be 00 db 68 be
       -0.04328949 -0.19344535 -0.2319227 -0.22739792
0000b0 3e b1 fc bc 6c 05 7c bc 09 10 aa bd c2 0d 15 be
       -0.030846234 -0.015382152 -0.0830384 -0.1455603
0000c0 0d 3f 8d bd 7e 42 28 be 5f cb 5e 3e 08 81 57 3e
       -0.068967916 -0.16431615 0.21757267 0.21045315
0000d0 fe ef 54 3e e0 6a 81 bd db 3d 7d be fe 89 6b 3c
       0.20794675 -0.06319213 -0.24730627 0.014376162
0000e0 1d e9 81 3e 1b e5 43 bd 76 b0 af be c0 14 9a be
       0.25373164 -0.047825914 -0.34314317 -0.30093956
0000f0 98 35 96 3e 81 ec 28 3e cc ea 0c 3e bf 28 19 be
       0.29337764 0.16496469 0.13761443 -0.1495695
000100 88 85 8c be 10 b4 48 3e df 5d 4a 3d ba 27 77 3d
       -0.27445626 0.19599938 0.04940593 0.06034062
000110 ea 0c c6 be 10 5b 55 be 68 35 ee 3d 51 4e 81 3e
       -0.38681728 -0.20835519 0.1163128 0.25255063
000120 83 06 9e 3d 05 48 0a 3e 7f 72 aa bd c1 7f 3c be
       0.07716086 0.13504036 -0.0832262 -0.18408109
000130 47 3c 20 be ad 12 95 be 73 8d 98 be c8 19 49 be
       -0.15647994 -0.2911581 -0.29795417 -0.19638741
000140 5a 11 22 3d 37 1d d7 3d 01 14 ae be 9e 69 96 be
       0.03956733 0.10503619 -0.33999637 -0.29377455
000150 ab 14 25 be 2d 8c c6 3d bb 3d 4b 3e bf 0e 01 bd
       -0.16121165 0.09694705 0.19847767 -0.031508204
000160 ed cc d1 bc 75 3b 0c be 26 f1 dc 3d cc b1 6d 3e
       -0.025610412 -0.13694556 0.10788183 0.23212355
000170 74 3a 8e 3e 0b f0 30 3e 36 29 10 bd be 80 06 3e
       0.2777897 0.17279069 -0.03519555 0.13135049
000180 7e 27 aa 3d 3c 54 a0 3e 53 c3 12 3e 33 96 38 3e
       0.08308314 0.31314266 0.14332323 0.18026046
000190 ab 0e 14 be a8 e6 72 bd 99 61 c6 bd 4e eb e5 bc
       -0.1445872 -0.059302002 -0.09686584 -0.028066304
0001a0 f4 6e 0d 3e 0f ff 85 bd a8 dd a7 be 3c df 38 be
       0.13811857 -0.06542789 -0.32786298 -0.18053907
0001b0 07 66 70 bd a1 43 97 3e 0a 74 b0 be 03 c1 5b be
       -0.05869105 0.29543784 -0.3446353 -0.21460347
0001c0 6f 32 81 3e f8 c2 55 3e 21 31 89 3e db 40 b6 3d
       0.2523379 0.20875156 0.26795295 0.08899089
0001d0 b3 d2 b3 3d 86 cc 0a 3e 4f dc b0 3e aa 68 1b be
       0.08780422 0.13554582 0.34543082 -0.15176645
0001e0 f4 95 6e 3e 0b 0d 27 3e b4 3a b6 3d 13 5a 1c 3e
       0.2329939 0.16313569 0.088979155 0.15268736
0001f0 b9 44 d7 be 7b f2 0e 3c 48 74 77 bd b1 94 8c be
       -0.4204462 0.008724804 -0.06041363 -0.27457193
000200 fd 84 4b bd b6 6f 09 bd f1 cc 22 be 14 9c 97 bd
       -0.049687374 -0.0335538 -0.15898491 -0.074028164
000210 4e 75 22 3c e4 02 2d be 0f b5 c4 bd 8e 02 55 bd
       0.009915663 -0.16895634 -0.09604847 -0.05200439
000220 c6 09 ac bd a0 75 fa bd 5a d2 81 be 9c 9f e1 3d
       -0.08400302 -0.122294664 -0.25355798 0.11016771
000230 8f f4 16 be af 14 69 be 09 6a eb 3c 37 99 35 bd
       -0.14741729 -0.22761796 0.028737085 -0.04433557
000240 fc f0 77 bd e0 89 a4 bd 96 01 58 3e 24 62 6d bd
       -0.060532555 -0.0803411 0.21094355 -0.057954922
000250 7f 49 94 3d 7f 7b 32 3e
       0.07240581 0.17429923

layers.0.bias f4 [6]
000000 2a bf 4d 3d 72 cb 9c 3d fb 23 d6 3d f5 c4 61 bd
       0.050231136 0.076559916 0.104560815 -0.055119473
000010 90 5a 17 3e 78 6f 52 3d
       0.1478064 0.051375836

layers.3.weight f4 [16, 6, 5, 5]
000000 0a 16 73 bd 63 80 bb 3d 08 d4 fc 3c 07 1b 55 3e
       -0.05934719 0.09155347 0.030862823 0.20811091
000010 76 f9 22 3e 62 e2 43 be 55 39 51 3c 41 78 72 bc
       0.15915474 -0.19129327 0.012770017 -0.014799179
000020 e2 21 47 3d 31 3e 35 3e f9 60 21 be 38 2b 1b bd
       0.048616298 0.17699505 -0.15759648 -0.037883013
000030 1e 23 a7 bd 2d 1f 03 bd 22 6f 22 bd 3b 45 15 be
       -0.08160995 -0.032012153 -0.039656766 -0.1457719
000040 f1 b7 9d bd 26 31 84 3d 92 b6 a8 bc 05 80 95 bd
       -0.077011 0.06454687 -0.020594869 -0.072998084
000050 f4 85 3d 3d e2 d5 de 3d 84 82 0b 3d a6 07 e3 bd
       0.046270326 0.10880639 0.034060016 -0.11085443
000060 78 68 25 be 8b dc c6 3d c3 e1 fb bc a3 d0 cf bd
       -0.16153133 0.09710034 -0.0307473 -0.10147216
000070 97 c3 69 bd 1c 2d a8 bc 03 75 65 bd 63 a1 b8 3d
       -0.057071295 -0.020529322 -0.056019794 0.09015157
000080 85 5b 84 3c be ac 65 3d c2 a1 5f 3d 5c f0 9a 3d
       0.016156921 0.056072943 0.054597624 0.07565376
000090 b8 d5 b5 3d b2 85 06 3d 0e cc 3e 3b a6 1e af 3d
       0.08878654 0.032842346 0.0029113325 0.085507676
0000a0 bb e9 22 3d f1 2d 91 3d 15 14 82 3d 76 16 ac 3d
       0.039773684 0.07088841 0.063514866 0.084027216
0000b0 0b d6 98 3d e6 03 82 bd be 14 36 3d 37 49 45 3d
       0.074627005 -0.063484 0.044453375 0.048165526
0000c0 79 32 52 bd 70 9e 92 3d a7 6b 0d 3e ac c3 18 be
       -0.051317666 0.07159126 0.13810597 -0.14918393
0000d0 81 93 2e be 43 70 b3 bd 58 c6 ff bd 31 b5 8b 3e
       -0.17048456 -0.087616466 -0.12489003 0.27286676
0000e0 48 50 de 3c 9f 85 ce bd 05 ee 50 bd f9 3d 10 bd
       0.02713789 -0.1008408 -0.051008243 -0.03521535
0000f0 24 78 2d 3e 9c 1c 43 3d a8 2b 18 be c3 5d fb 3c
       0.16940361 0.047634706 -0.14860404 0.030684358
000100 8c 65 d9 bd 18 52 db 3d 53 66 14 3e fb f5 04 be
       -0.10615072 0.107090175 0.14492159 -0.12984459
000110 b4 79 06 be 4a 96 01 be 32 b2 09 3e 1c 38 a4 3d
       -0.13132364 -0.12654987 0.13446882 0.080185145
000120 02 d9 0a be fc 7b 20 be c2 21 b5 3c 8d fc 97 bd
       -0.13559344 -0.15672296 0.022110824 -0.07421217
000130 73 a7 1c bd 78 a3 2b be 08 10 de bd 6a 1f 29 bd
       -0.03824563 -0.16761577 -0.108429015 -0.041289724
000140 2b e7 c1 3d dc da 93 bd ca d7 f6 bd 33 39 cb bd
       0.0946792 -0.072194785 -0.12052877 -0.09923019
000150 f6 cf 47 be 7f 22 8c bc 1e 5d e1 3c d8 5c 33 bc
       -0.19512925 -0.017106293 0.027510222 -0.010947429
000160 30 84 9a bd 0b 2a fb bd 20 2f 11 be ea 20 a6 bd
       -0.07544744 -0.122638784 -0.14178133 -0.081117466
000170 44 5f a2 bc c5 a9 7a bd 29 8e 0c be 78 69 72 be
       -0.019820817 -0.06119706 -0.13726105 -0.23673046
000180 2a 21 a5 bd 59 32 1c be 0a a3 49 bd a7 dc a9 3d
       -0.08062966 -0.15253581 -0.04922775 0.08294039
000190 83 46 95 bd 11 73 98 bd 92 30 3d 3d 4e e6 01 3d
       -0.0728884 -0.07443822 0.0461889 0.031713776
0001a0 77 a3 09 be 6c 4b 4d be b0 3d e1 bc f0 e6 cf 3c
       -0.13441263 -0.20048302 -0.027495235 0.025378674
0001b0 a7 0c 19 be 88 c9 a4 bd 60 4b 8a bd de 42 84 3d
       -0.14946233 -0.080462515 -0.06752658 0.064580664
0001c0 14 04 24 be 96 23 1f be 6b d4 a9 3d c5 f3 1b 3e
       -0.1601718 -0.15540919 0.08292469 0.1522971
0001d0 f9 97 a8 bc d7 e9 e4 bd cf c2 f4 bc 57 df dd bd
       -0.020580279 -0.11177414 -0.029878048 -0.10833614
0001e0 b6 9a 4d 3e 2c 34 4c bd 8a 5c 42 be 60 40 9d bd
       0.20078549 -0.049854442 -0.18980613 -0.07678294
0001f0 7d 94 b3 bc 5a a4 60 bd 31 de 66 bd 1b 36 71 bd
       -0.02192139 -0.054844238 -0.056364242 -0.05888949
000200 8a 56 11 be 6d 1c bc 3c 71 03 6c 3d bb b6 9e 3d
       -0.14193168 0.022962773 0.05762047 0.07749697
000210 50 bf 81 bb 13 98 9c bd 9b 12 89 3d e2 44 8d bd
       -0.003959574 -0.07646193 0.06693002 -0.06897904
000220 62 f4 7d bd 10 17 c7 3d f7 11 6f 3d 3d 24 c4 3d
       -0.06200064 0.09721196 0.058366742 0.095772244
000230 9c 4d e1 bc 8d 4d 54 bd 32 80 da 3d 66 30 99 3d
       -0.027502827 -0.05183177 0.106689826 0.074799344
000240 bc ec 4e bd 1e fd f9 bc 56 e3 fc bc 10 51 93 3d
       -0.050518736 -0.030516203 -0.030870121 0.07193196
000250 8f c0 91 3d 7f 7a 8e 3d 35 cd 86 be 7b 8a f9 3d
       0.07116806 0.06956958 -0.26328436 0.12184616
000260 a0 4f cf 3d 28 41 5f 3d e3 79 be 3d 60 1a 9f 3d
       0.10122609 0.054505497 0.09300592 0.077687025
000270 aa 0b 2b 3e 23 0d 2b 3e 42 b4 e3 bd 7d b8 37 be
       0.16703668 0.1670423 -0.11118366 -0.1794147
000280 34 a5 4a 3e 95 65 18 3e ae e3 13 be 81 20 7c be
       0.19789582 0.148825 -0.14442322 -0.24621774
000290 21 7f 90 bb e9 22 5a 3d 8d 26 c9 bd 8a 1d 6f be
       -0.004409686 0.05325595 -0.09821806 -0.23351112
0002a0 22 38 95 3d 29 b1 ac 3d 74 20 11 be aa ae 79 be
       0.07286097 0.08432228 -0.14172536 -0.24383035
0002b0 1d 53 a1 be 26 c2 08 be 6d 29 2a bd d7 b8 46 be
       -0.31508723 -0.13355312 -0.041543413 -0.19406448
0002c0 37 fc 26 3d 5e fb c0 3d 7a 7b 02 3e 6c 86 8d 3d
       0.040767875 0.094229445 0.12742415 0.069104046
0002d0 5e 7e b5 3c 98 98 b9 3d 07 64 0e 3e d9 f2 10 3e
       0.022154983 0.09062308 0.13905345 0.14155139
0002e0 3b a8 b9 3d c9 c1 8c 3d 2c c5 d8 3d e5 10 bb 3d
       0.090652905 0.06872899 0.105844826 0.09134082
0002f0 2c 38 0a bc f3 ca e5 bc 5c 55 88 3d 3d d8 10 bd
       -0.008436244 -0.028050875 0.06656906 -0.03536247
000300 06 60 a7 3c 5d 5c 3e be 6a ec 6e bc 00 5d 9b 3c
       0.02043153 -0.18589921 -0.014582733 0.018965244
000310 59 aa 11 be 1a c7 45 be 67 fd 3a bd a3 a3 01 3d
       -0.14225139 -0.19314232 -0.04565182 0.031650197
000320 b4 24 ea bd 18 12 30 3e 32 00 93 3d 48 a9 ca bc
       -0.11432782 0.17194402 0.07177772 -0.024738923
000330 40 20 29 bb c7 da e3 3d d9 a8 1f 3d db 8c 6e bd
       -0.0025806576 0.11125713 0.038979385 -0.0582398
000340 7f a4 84 be 07 94 f5 bd 7b 26 c1 3d 9f e4 88 bd
       -0.2590675 -0.119911246 0.09431168 -0.06684231
000350 b3 e4 45 be 23 53 7d be ff 55 63 bd 8a 8a 6e bd
       -0.19325523 -0.24738745 -0.055501934 -0.05823759
000360 02 df 02 be e7 22 59 be 51 54 82 3c d3 3b bb 3d
       -0.12780383 -0.2120472 0.015909346 0.0914227
000370 22 31 9f bd 0a df 37 be 37 aa a1 3d 3e f0 45 3e
       -0.07773043 -0.17956176 0.07893794 0.19329926
000380 e5 9a be 3d 06 41 44 be 15 23 b3 bd 1a 10 95 be
       0.093068875 -0.1916543 -0.08746926 -0.29113847
000390 91 fb 96 be a5 8d 65 be ea 07 35 be 75 87 3e be
       -0.29488805 -0.22417314 -0.176788 -0.1860636
0003a0 dc 2f b7 be ff 3e d8 bd 63 0d 12 3e ca ee 4f be
       -0.357787 -0.105588906 0.14262919 -0.20305935
0003b0 da e1 82 be 77 65 28 be 21 c6 e4 3c 14 1d 40 3e
       -0.25562936 -0.16444956 0.027926506 0.18761092
0003c0 a7 21 54 bd 51 7e 05 bd f8 9e aa 3b 1b f4 39 bd
       -0.051789906 -0.032591168 0.005206939 -0.045398813
0003d0 07 bc 42 3b b2 85 c1 3d 46 48 c3 3d 27 d5 85 bd
       0.0029714124 0.094493285 0.095352694 -0.06534796
0003e0 4e 83 4c bd 3e 42 d1 3c 64 f1 06 3d 90 11 79 3d
       -0.04992991 0.025544282 0.03294505 0.060807765
0003f0 01 18 98 3c be a0 c3 bd 1b 24 4a be 3f de ed 3d
       0.018566133 -0.095521435 -0.19740336 0.11614656

layers.3.bias f4 [16]
000000 e9 fa c4 3c 9f 9f c0 bd 66 70 c9 3c be ac 04 3d
       0.024045425 -0.09405445 0.024589729 0.032391302
000010 87 73 05 3d ed 7a a5 3d 03 53 26 3c 04 ef 54 bd
       0.03258088 0.08080087 0.0101516275 -0.051985756
000020 88 5c c2 3d ee e4 85 3d f6 19 ba 3d 2d 92 f6 bc
       0.09490305 0.065378055 0.09086983 -0.030098999
000030 0c 6f 95 bc 3f 52 e3 bc 8c 4d 07 3c 45 70 f5 ba
       -0.018241428 -0.027749179 0.008258235 -0.0018725476

layers.6.weight f4 [120, 16, 5, 5]
000000 b0 ce e9 bb 00 9a b0 3d 16 11 73 3d 0d 50 40 3d
       -0.007135235 0.08623123 0.059342466 0.046951342
000010 0c e1 1a 3d 32 fb fb bc 36 16 0f 3d 1b af eb 3c
       0.037812278 -0.030759428 0.03493329 0.02877002
000020 29 e0 2d 3d ce 3c 41 3d ec d7 0c 3c fd 76 08 3c
       0.042450104 0.04717713 0.008596402 0.00832915
000030 4b 00 00 bd 6e 6e b5 bc cf a3 76 bb 94 3f 20 bd
       -0.03125028 -0.022147384 -0.0037634259 -0.039123133
000040 33 7e dd 3c ce d0 26 bd 37 bb 3c bd 08 ae 46 bb
       0.027037716 -0.040726475 -0.04607698 -0.0030316133
000050 a4 e6 99 3b 49 27 a7 bb ab ab 80 b9 c8 d3 01 bc
       0.004696684 -0.0051011187 -0.00024541965 -0.007924028
000060 b1 09 86 3c ef f2 2f bd 9c ca 2c 3d a0 9f 11 3e
       0.016362043 -0.04295629 0.04218541 0.14221048
000070 7c 0a fc 3d 1a 01 ec 3d 54 e3 58 3c 93 3d 52 3d
       0.12306687 0.115236476 0.013237793 0.051328253
000080 89 4a ab 3d 1c f2 74 bc 09 68 57 bc 79 2a ea 3c
       0.08363826 -0.0149503015 -0.0131473625 0.028584706
000090 64 08 0d 3d c3 61 f9 3b 12 c0 0c bb 8a f9 05 3c
       0.03443183 0.007610531 -0.0021476788 0.0081771705
0000a0 bf 11 69 bd ce d3 e1 bc ad cf 2f 3c a8 12 84 3d
       -0.05690169 -0.027566817 0.010730666 0.06448871
0000b0 89 be 29 bc 7f b9 33 bd fa e0 94 bd 95 30 8c bd
       -0.0103603685 -0.043878075 -0.072694734 -0.06845204
0000c0 d0 76 e9 bd e9 80 c0 bd b3 cd 6e bc 64 91 b6 ba
       -0.11399615 -0.09399588 -0.01457541 -0.0013928828
0000d0 c6 e9 cb bb cc 16 6a bd 73 45 4f bc 7c 45 52 3c
       -0.0062229363 -0.057150647 -0.012650835 0.012833949
0000e0 c4 54 7a bd 81 cf 27 3d 45 95 36 3d 05 a0 0f 3b
       -0.061115995 0.040969376 0.04457595 0.0021915447
0000f0 47 05 04 3c 90 59 31 3c 28 5e 80 3d 15 61 84 bb
       0.008057899 0.010824576 0.06267959 -0.0040398934
000100 84 e9 73 bd 84 1b d0 3b 87 f0 5e bd 12 10 34 bc
       -0.05954887 0.0063509364 -0.054428604 -0.01099016
000110 66 f1 20 3d d9 9b 38 bd ed 1c 56 3d 18 a5 7f 3d
       0.039292715 -0.045070503 0.05227368 0.062413305
000120 ae 18 65 3d aa 30 73 3d 41 81 04 3b 76 52 8d bd
       0.05593174 0.05937258 0.0020218643 -0.06900494
000130 26 4a 2e bd a6 a8 a3 bd 36 c3 d1 bd 7b 74 6b bd
       -0.042551182 -0.079911515 -0.10242312 -0.05748413
000140 1f c2 1c bd d6 8e 00 bd 6d 69 9d bc 52 fc 7c bd
       -0.038271066 -0.03138622 -0.01921531 -0.06176407
000150 08 11 45 3d 38 8b a9 bc 17 b1 20 bd 6a b4 c6 3c
       0.048111945 -0.020696267 -0.039231386 0.02425595
000160 63 b5 b7 bc b6 08 21 bd 2e 37 06 3c 72 f9 d4 3b
       -0.02242536 -0.039314948 0.008191867 0.0064994628
000170 fb 8e 7b bc 82 45 7c 3c 0c 6c 23 3d b3 2a 72 3d
       -0.015353913 0.015397431 0.039897963 0.059122752
000180 6c 98 1d bb 4f 57 08 bd 30 81 41 3c 9f 9a 29 bd
       -0.002404715 -0.03328639 0.011810586 -0.041407224
000190 a2 61 1f bd 08 f8 f3 bd 31 a8 b7 bd c7 14 4b bd
       -0.03891147 -0.119125426 -0.08967627 -0.04958036
0001a0 52 d6 91 bb 70 80 23 3c 03 62 64 bd bd 6a 9e bc
       -0.004450598 0.009979352 -0.055757534 -0.019338006
0001b0 48 bb 47 bd 7e 4e 30 bd c1 a7 0c 3c f0 e3 b1 bd
       -0.04876259 -0.043043606 0.0085849175 -0.08686054
0001c0 e8 be 26 3b 01 23 c1 bd 7f 5e eb 3c 71 e1 0f bc
       0.002544338 -0.094305046 0.028731583 -0.008781777
0001d0 b2 c3 dd 3c 21 ac 43 bd e6 6e 41 bd bb 38 44 bd
       0.027070854 -0.047771577 -0.0472249 -0.047905665
0001e0 34 29 53 3d 9d c1 01 bd 42 4e 46 3c 75 69 b9 bb
       0.051552966 -0.031678785 0.012103619 -0.0056583234
0001f0 00 b8 c5 3d 91 1d 23 be 27 af 38 be f8 46 0d be
       0.09654236 -0.15929247 -0.18035565 -0.13796604
000200 21 9c c9 bd 4f 94 6b 3c 40 dd c1 bd 02 4b 63 bd
       -0.09844232 0.014378621 -0.09466028 -0.055491455
000210 10 b1 53 bc 12 c3 b7 bd b9 97 26 bd 97 3a 9e bd
       -0.012920633 -0.089727536 -0.040672038 -0.07726019
000220 51 ca cf 3b 2a d6 9e 3d ca 63 2d bc 92 d9 ce bd
       0.0063412567 0.07755692 -0.010582874 -0.10100092
000230 2a e8 91 3d 34 72 8f 3d 73 0b 08 3d b5 22 b0 3c
       0.0712436 0.070042044 0.033214044 0.021500925
000240 bf 4a aa 3b 65 65 6a 3d 4d 31 5d 3c 4e 36 28 3c
       0.0051968987 0.057225604 0.013500524 0.0102668535
000250 57 b1 8e 3d 62 e1 ba 3d 4e b6 bc bc 48 94 fb 3c
       0.06967419 0.091250196 -0.023036148 0.030710354
000260 6f c6 53 3d e5 53 c6 3c e6 35 94 bd f1 f9 93 3d
       0.051702913 0.024209926 -0.07236843 0.07225407
000270 70 e6 89 3c dc e5 e9 3d ec ea bc 3d 46 1f 49 3c
       0.016833514 0.11420795 0.09224495 0.012275523
000280 6f 7a 16 3d 59 26 c3 bc 03 3b 72 3c d4 07 1b 3c
       0.036737856 -0.023821997 0.014784577 0.009462316
000290 db 3a 84 bd 19 de 9e 3d 6d 87 b8 3b 1a fb f6 3d
       -0.06456538 0.077572055 0.0056313784 0.120596126
0002a0 9f 5d c7 3d f4 9d a2 bc d7 7a 12 3d be 27 94 3c
       0.09734654 -0.019850709 0.03576168 0.018085357
0002b0 0b 7e 06 3c c2 b2 6c bc aa df 95 3d e3 f7 b3 bd
       0.008208762 -0.014446916 0.07318051 -0.08787515
0002c0 2d 7e 17 bd 7c c2 b1 bc 87 9a 2c bc 64 8b 7b bc
       -0.036985565 -0.021699183 -0.010534889 -0.0153530575
0002d0 71 d1 ea bd d3 b3 1c bc 56 04 1a bd 80 a0 65 3b
       -0.11465729 -0.009564358 -0.03760179 0.0035038292
0002e0 83 02 57 3c 06 ab 0a bc 15 91 95 bc d6 97 74 bc
       0.013123157 -0.008463627 -0.018257657 -0.014928779
0002f0 5e a6 0e bd bf bf 06 bc 11 e3 f9 3c 00 f5 54 bd
       -0.03482663 -0.008224427 0.030503782 -0.051991463
000300 40 b0 47 bd 52 a3 78 39 87 a8 61 3d ea 26 fb 3d
       -0.04875207 0.00023711965 0.05509236 0.12263282
000310 fc 49 1e 3d c1 fa da 3d 33 20 a9 3d 91 f4 cb 3d
       0.038644776 0.10692359 0.08258095 0.09958757
000320 32 e2 fe 3d 8e 06 ee bc 7d 3d d6 bc ba 6e 17 bc
       0.12445487 -0.02905586 -0.026152367 -0.009242708
000330 b7 6d b6 bd 5d 55 c3 3d 97 b2 35 3c 20 7a b6 3c
       -0.08907645 0.09537766 0.011089942 0.02227503
000340 f5 0d 9e bd 70 70 d9 39 11 bf 9a 3c 17 60 3f 3d
       -0.07717506 0.00041473238 0.018889936 0.046722498
000350 67 86 49 3c 1a 17 b1 bd a5 10 07 3d 73 f7 54 3d
       0.01230011 -0.086469844 0.032974858 0.0519938
000360 bd 1a 95 3c 99 de c2 3c 3c e5 10 bd b9 3c 9e bd
       0.018201226 0.023787783 -0.035374865 -0.07726426
000370 59 32 ac 3d 54 d4 5f 3c e7 a1 3e 3d 49 04 68 3d
       0.084080406 0.013661463 0.04654112 0.05664471
000380 a6 7f aa 3d be 2e dc bc 30 74 f0 3c 65 c0 bc 3c
       0.08325128 -0.026877757 0.029352278 0.02304096
000390 74 0f c2 3b 87 71 83 3d a3 ff 94 bd 50 35 37 3d
       0.0059222523 0.06418138 -0.07275321 0.044728577
0003a0 60 6d fa ba 52 1c c9 3d 51 85 4d 3c f2 72 d7 bb
       -0.0019106083 0.09819855 0.012543992 -0.006574982
0003b0 eb c3 89 3d 55 f9 08 bd 2f 7a b0 3d 1c 0e 26 3c
       0.067268215 -0.033440907 0.08617055 0.0101352
0003c0 5f db 18 3e 0f 90 79 3d be 0b 9b 3d 22 5b 99 3c
       0.14927433 0.0609284 0.07570599 0.018720213
0003d0 ce 16 28 3d c3 70 d4 3d 9a b8 b5 3d 6d 8c 20 3d
       0.041037373 0.1037307 0.088731006 0.03919642
0003e0 dd 8c ab 3d 4f 65 d6 3a f5 f8 33 3d 3d 64 14 3e
       0.08376477 0.0016357097 0.043938596 0.14491363
0003f0 57 6d 58 3e ac 72 b4 3d ed e5 4c bd 83 dd 79 3d
       0.2113546 0.088109344 -0.05002396 0.061002266

layers.6.bias f4 [120]
000000 80 65 14 3a 2a 8c 7e 3d 46 b2 59 3d 8c ec 10 bd
       0.00056608766 0.06214539 0.05314853 -0.03538184
000010 7a e1 bc 3c 21 07 3c 3d c3 50 b2 bc fa 74 db bc
       0.023056734 0.045905236 -0.021767026 -0.026789177
000020 c7 b4 cd bc ac d8 8c bc 90 8b 57 bd c7 87 95 bd
       -0.025110615 -0.017193161 -0.05262333 -0.07301288
000030 a7 7c 10 3d 2d 34 bd 3c 5d d3 67 bc 83 4e 77 bc
       0.035275128 0.023096168 -0.014149514 -0.015094402
000040 4b db bd bc 7b df 52 3d 1a cf ab 3c 60 45 5f bd
       -0.023175856 0.05148266 0.020972777 -0.05450952
000050 77 a7 83 3d ee 61 56 3b 7c 5e 2c 3c 39 06 bf bc
       0.06428426 0.003271218 0.010520574 -0.023318397
000060 c7 d7 84 bd 07 e3 f7 bc c7 50 4c bd ad ca 25 3c
       -0.06486469 -0.030259622 -0.049881723 0.010119122
000070 cc de 51 3c 27 b6 16 bd 8e f6 95 bc 27 d2 d9 3b
       0.012809467 -0.036794808 -0.018306043 0.0066473666
000080 1a a6 d0 3c 61 8d 97 3d 14 69 26 3d 38 5d 83 bc
       0.025469828 0.07400013 0.040627554 -0.016035661
000090 45 a6 8e bb 02 ab da 3b 59 cb bf bc f3 25 2d bd
       -0.004353317 0.0066732178 -0.023412393 -0.04227252
0000a0 18 3d 23 bc 8e db b3 3c 5a c3 12 3d d9 e4 02 3d
       -0.009963296 0.021955278 0.035830833 0.031956527
0000b0 98 58 2b bd 12 39 85 3d a5 8c ff 3c 93 ca b4 bc
       -0.041832536 0.06505026 0.031194994 -0.022069251
0000c0 c1 1b 16 3d 3d 9a 98 ba d4 3a 07 bc 98 bd 12 bc
       0.036647562 -0.0011642646 -0.008253772 -0.0089563355
0000d0 fc 77 5f 3d 25 1b c6 3c 82 2f 97 3b 49 c2 91 bc
       0.054557785 0.024182865 0.0046138177 -0.017792838
0000e0 1c 17 a6 bc de 2f b8 39 74 2e 21 3b 3a dd 2a bd
       -0.020274691 0.0003513088 0.0024594339 -0.041714884
0000f0 4b 19 1f 3d 43 cb 18 bd ad 3f 32 bd b4 fb 1b bc
       0.03884248 -0.03730322 -0.043517757 -0.00952046
000100 8b 05 d7 bc 24 ad 94 ba d4 07 79 bb 8d 7e d9 3c
       -0.02624776 -0.0011343104 -0.003799905 0.026549602
000110 d6 0c 03 3c a1 e3 83 bc 53 fa 4f bd 7c ad 45 bc
       0.007998666 -0.016099753 -0.050775837 -0.012065288
000120 06 b4 5d 3d 91 e7 98 bb e2 47 1c 3d 37 27 e1 3b
       0.05412676 -0.0046662767 0.03815449 0.00687113
000130 e3 ac 31 3d 27 c3 bc 3c 2e b1 03 bb cd 34 45 bc
       0.04337777 0.023042275 -0.002009462 -0.0120365145
000140 4f d7 96 bc 66 a5 9f bc dd 03 9f 3d 67 46 68 3c
       -0.018413214 -0.019488048 0.07764409 0.0141769415
000150 d2 32 49 bc 96 44 42 3c e9 72 dc bc 08 39 44 3c
       -0.012280183 0.0118571725 -0.026910262 0.011976488
000160 12 78 4b 3d 26 dd 22 3c f1 08 6f bb ac bb 8b 3c
       0.049675055 0.009940421 -0.0036473835 0.017057262
000170 f8 5b dd bc a9 0e 02 3d df 9e b5 3c a8 72 2f 3d
       -0.027021393 0.031752262 0.022170482 0.042833954
000180 46 0f 77 3a 28 9f eb bc 47 13 1b bd d6 32 ad 3c
       0.0009424578 -0.028762415 -0.03786018 0.021142405
000190 b0 ba 64 3d 95 b1 4e 3a a3 f0 65 bc b4 e0 19 bd
       0.0558421 0.0007884738 -0.014034423 -0.03756781
0001a0 e1 90 99 bc 30 64 65 3d 72 75 5b 3d bb 5f b6 3c
       -0.018745841 0.05600375 0.0535788 0.022262445
0001b0 2d 00 02 3d 3a 76 2d bd a1 be 0c 3d bd 99 d3 3c
       0.03173845 -0.042349078 0.034361485 0.025830144
0001c0 d6 b4 25 bc e6 7f 62 3c 2a f1 3b bd a6 d6 00 bc
       -0.010113915 0.013824439 -0.04588429 -0.007863676
0001d0 eb e2 0c bd cf dc 21 bd d6 33 87 bc 0e f4 00 bd
       -0.034396093 -0.03951722 -0.01650421 -0.03148275

layers.9.weight f4 [84, 120]
000000 d2 c7 be 3d 19 c5 04 3e fa e0 9f 3d f1 3b a5 bd
       0.093154564 0.12965812 0.07806583 -0.080680735
000010 41 2e 27 3d b5 98 c0 bd ec cd 69 be 7c af 8d 3c
       0.040815596 -0.094041266 -0.22832459 0.017295592
000020 04 18 00 be f8 10 ad bc 34 6e 13 3d 5a ff de bb
       -0.12509161 -0.021126255 0.03599377 -0.0068053426
000030 f4 d1 1a bd 40 3f 28 3d 1b b4 b4 3d cf 6e 6a 3d
       -0.037797883 0.041075945 0.08823415 0.05723458
000040 95 14 63 3d e3 96 68 bd c9 aa 74 3d 82 26 b9 bb
       0.05543955 -0.05678452 0.059733186 -0.0056503424
000050 79 4f d5 3d de e3 05 3e 12 33 b0 3d 3a b4 83 bd
       0.10415549 0.13075206 0.08603491 -0.0643086
000060 7e 19 cc 3c f8 ad 4a 3d 2d 87 7a 3c d8 e6 2e bc
       0.0249145 0.049482316 0.0152910175 -0.010675155
000070 bc 10 a0 bd 32 9d 9e bd f8 62 e2 3d f2 eb a7 3d
       -0.07815692 -0.077448264 0.11054033 0.081993
000080 ec ae de bd b1 b7 20 bd ad 52 1f bd 41 d2 7e bd
       -0.108732074 -0.03923768 -0.038897205 -0.062212233
000090 66 be c5 bc bd b4 f4 bd 9d 7f a0 bd 1b ee 80 3d
       -0.02413864 -0.119485356 -0.0783684 0.06295415
0000a0 ef f9 53 3d a8 1b 2c bd c2 2c d3 3d d1 ee 55 3c
       0.051752027 -0.042018563 0.10311271 0.013057427
0000b0 5a 7e bd bc 14 54 94 bd aa 20 3d be c7 0e cb 3c
       -0.023131538 -0.07242599 -0.18469492 0.02478732
0000c0 96 d8 e0 3c 36 25 80 3d dc ee d4 3c 03 59 2c bd
       0.027447026 0.062570974 0.025992803 -0.042077076
0000d0 10 44 8f bd 18 ce 90 bd 95 74 14 3d e1 35 a4 3d
       -0.06995404 -0.07070559 0.036243994 0.08018089
0000e0 be b8 2e bc 11 56 bc 3d c5 50 66 3d ce 9b 73 be
       -0.010664163 0.09196103 0.05622937 -0.23789904
0000f0 56 b2 a6 bc 61 0e 10 3d 10 b2 30 3c e9 0b b4 3d
       -0.02034871 0.035169963 0.010784641 0.08791334
000100 6b 87 ef 3d 5b 8d be bd d7 8d a5 3c 2b 7d b0 3d
       0.11695751 -0.09304305 0.020209236 0.08617624
000110 07 e7 88 3d 76 e1 c4 3c c1 84 94 3d 72 a3 7c 3b
       0.0668469 0.02403329 0.07251883 0.003854957
000120 b6 c9 a2 3d 77 45 c0 3d 98 05 c2 bd 9e 4d 96 bc
       0.079486296 0.09388249 -0.09473723 -0.018347558
000130 86 be 8c bd a1 38 93 3d 2c be 61 3d 03 39 48 3d
       -0.06872277 0.071885355 0.055113003 0.048882496
000140 a2 fe 10 3e c1 de ef bd d0 22 83 3d f5 4c b8 bc
       0.14159635 -0.11712409 0.06403124 -0.022497633
000150 e8 84 64 3d aa 20 8a bd 40 ff 6c 3c 7b 0a 83 3d
       0.05579081 -0.067445114 0.014465153 0.06398483
000160 73 db fb bd 95 d6 d3 3d 54 d8 91 bc 12 a9 a5 3d
       -0.12297716 0.10343663 -0.017803349 0.08088888
000170 df 01 c8 bd bc 2b 96 ba 96 4f c5 bd f4 c9 5e bc
       -0.09765982 -0.0011457126 -0.096343204 -0.013597954
000180 af c9 08 be 02 84 e6 3c 21 1c 2c bd 27 8d f6 3c
       -0.13358186 0.028139118 -0.042019013 0.030096604
000190 73 49 05 3e 8c c9 a8 3d ba 45 1d bd 35 80 bf 3c
       0.130163 0.08241567 -0.038396575 0.023376564
0001a0 88 ab 7a 3c 78 33 9f bd a5 50 95 bc da 35 a9 3d
       0.015299685 -0.07773489 -0.01822693 0.082622245
0001b0 e9 e0 c3 3d c4 b4 8e bb 69 2c 6e 3e c4 bb 27 3e
       0.095643826 -0.004355045 0.23259129 0.1638022
0001c0 e1 fd 0f ba e1 19 c2 bc 87 13 68 3d 52 17 a9 3d
       -0.0005492848 -0.02369398 0.056659248 0.08256401
0001d0 4c c0 5d 3d 6f 44 61 3d 39 6a 19 bd e0 73 bf bd
       0.054138467 0.054996904 -0.037454817 -0.09348273
0001e0 25 a4 f3 3d d4 11 9f bc f9 11 84 bd bc ae 5a bc
       0.118965425 -0.01941768 -0.064487405 -0.013347324
0001f0 0d 93 9d bc 73 04 26 bd 2e d0 19 3e 72 20 b1 3d
       -0.019235158 -0.040531587 0.1502082 0.086487666
000200 d8 8c 67 3d 38 3e 67 3c a7 d5 55 bd 61 9a 9f bd
       0.056530803 0.014113955 -0.052205708 -0.07793117
000210 58 ab af 3d 29 78 12 bd bc 6f e2 3d ab 15 47 bc
       0.08577603 -0.035759125 0.11056468 -0.012151162
000220 40 48 86 bd a7 81 04 3d ec ce d6 3c d4 71 8d bd
       -0.06556749 0.03235021 0.026221715 -0.069064766
000230 0f 6a 5a bd 62 aa 9d bc 83 6a 5d bc 49 15 20 bd
       -0.0533238 -0.019246284 -0.013514164 -0.0390828
000240 e6 0c d2 bc e1 c2 7e bc 52 82 a2 bd 1e 78 f2 3c
       -0.025640916 -0.015549392 -0.07935013 0.029598292
000250 3e a9 6f bd fc 51 86 bd bd 9e 82 bd 4e 20 ab bd
       -0.05851101 -0.06558606 -0.06377933 -0.08355771
000260 ad 80 36 3d 7b f7 1d bc 59 c7 10 3e 4f b1 6a 3d
       0.04455631 -0.0096415235 0.14138545 0.057298
000270 05 36 3c bd 21 59 45 bd 9c d6 16 3e b3 7b 1c 3d
       -0.045949955 -0.048180703 0.14730304 0.038203906
000280 c1 e9 33 bd d1 75 7a 3d 69 a0 62 3d e8 d4 ae 3c
       -0.043924097 0.061147515 0.05532876 0.021341756
000290 e4 83 0f 3e 8b 4b f6 bd 3f 81 f5 bc c1 25 ce bc
       0.14015156 -0.120261274 -0.029968856 -0.025164487
0002a0 33 c0 66 bd ab 59 a5 bd 69 59 d4 3c 3d fa 91 bd
       -0.05633564 -0.080737434 0.02592154 -0.07127807
0002b0 df 4d 60 3e 69 fc bb bc 33 b7 f1 3d dc 1d 42 bd
       0.21904705 -0.022947507 0.118025206 -0.047391757
0002c0 af 7e 01 3e c7 cb 3d 3d 86 64 5a 3c b2 dd 26 bd
       0.12645982 0.046336915 0.013329631 -0.04073877
0002d0 9b 13 93 bc 40 5e 80 3c 9c cd 92 3b 1b 91 cf bc
       -0.017953685 0.015669942 0.004480077 -0.025337746
0002e0 91 01 c2 bc 88 a5 56 3e f0 21 40 bd d3 9a cb 3b
       -0.023682388 0.20961583 -0.046907365 0.006213525
0002f0 50 3f 62 bc bc 35 a8 3c 71 97 5e 3a 17 e9 f8 3d
       -0.01380904 0.020533435 0.00084911945 0.12153833
000300 85 04 b1 3b d1 ce c1 bd 27 18 3f bd d7 b6 de bc
       0.00540215 -0.09463275 -0.046653893 -0.027186794
000310 1f 09 26 3d 89 17 bd 3c b5 e8 0c 3e 1f d5 f3 3c
       0.040536042 0.023082511 0.13760646 0.02976471
000320 eb 81 d8 bd 7b 74 1b bd 43 82 78 bd 20 0f 80 bd
       -0.10571655 -0.03795288 -0.060671102 -0.06252885
000330 b9 59 be bc c2 a7 9c bc b9 42 1a bd e8 ac 25 3d
       -0.023236142 -0.019122962 -0.037661288 0.0404481
000340 48 24 bc bd 11 ec a7 bd 22 88 3e bc 10 ee db bc
       -0.091866076 -0.08199323 -0.011629136 -0.026846915
000350 2c 84 d6 3d 56 78 69 bd c0 e1 b4 bd d5 08 d3 3d
       0.104744285 -0.056999527 -0.08832121 0.10304419
000360 e1 7d 95 3d 19 9a b3 bd 9b dd d5 3c 5e d7 d0 bb
       0.072994 -0.08769626 0.026106646 -0.00637333
000370 d8 f1 fa bd 0f ed 6f 3d 3b 68 a1 3d 3c 7a b0 3d
       -0.12253159 0.058575686 0.078812085 0.08617064
000380 f3 40 01 3e 63 2f 86 3d 73 c7 ce 3d ee 36 18 3e
       0.12622432 0.06552007 0.10096636 0.14864704
000390 b8 ad 95 3d 2d 73 a2 bd c1 bc 86 bd e7 82 9e bd
       0.07308525 -0.07932124 -0.06578971 -0.077398114
0003a0 c5 05 13 3e 1e 7d b0 bd e2 c3 82 bd 19 21 3c bd
       0.1435767 -0.08617614 -0.06385018 -0.045930002
0003b0 3d de 07 3d ec cd a0 3d 0d 20 42 3d 3c bf d5 3d
       0.033170927 0.078517765 0.047393847 0.10436866
0003c0 4d 8f d4 3c b9 7c 62 3d d1 45 11 be 81 5a 49 3d
       0.025947237 0.055294726 -0.14186789 0.049158577
0003d0 fb 42 05 3d b0 59 3e 3d ee db 87 3c cf 37 63 3d
       0.03253458 0.04647225 0.016584363 0.055473145
0003e0 7a d7 76 3d 29 07 ac 3d e8 96 61 bd d0 a8 ff bd
       0.06026409 0.08399803 -0.055075556 -0.1248337
0003f0 90 a4 85 3d 0b da 40 bd 4d a7 3f bd 4f a9 b8 bc
       0.065255284 -0.047082942 -0.04679041 -0.02254167

layers.9.bias f4 [84]
000000 e6 7c c9 3d 4c 08 ce 3c 42 b4 8c 3b 16 8e 0b bd
       0.098382756 0.02515044 0.0042939493 -0.03407105
000010 66 39 7b bd 29 d3 b8 bd e9 dd 0b 3d 32 8d 4a 3c
       -0.061334036 -0.090246506 0.034147177 0.012362765
000020 b2 37 97 bd 99 65 8a bd ed 2a 05 be 8a a2 85 3d
       -0.0738367 -0.067576595 -0.13004656 0.065251425
000030 c6 bc d5 3d 09 a8 c4 bd d7 f7 a3 3d a9 67 7a bd
       0.10436396 -0.09602363 0.08006256 -0.061134014
000040 a1 fb 01 bd fa fd c6 bd ee 0e 55 bc 70 32 54 bd
       -0.031734113 -0.09716411 -0.013004048 -0.051805913
000050 fd 7e cc bd 3d da 9b bc 77 6b 06 bd bb 5b bc bd
       -0.099851586 -0.019024963 -0.03281733 -0.09197184
000060 dc 76 b8 bd 00 11 04 bd 4a 86 59 3d 3e 7b 7e bc
       -0.090070456 -0.032242775 0.053106584 -0.015532313
000070 f9 c0 b0 3d dd 5a 3e bd 65 6d 14 bb 69 a2 20 3d
       0.086305566 -0.046473373 -0.0022648212 0.039217386
000080 d0 b8 66 3c 40 c1 3a bd 9e db 92 bd cf 02 aa 3c
       0.014082149 -0.045594454 -0.07170795 0.020753292
000090 91 d8 37 bd ad e8 7c bd bf 72 2b bd a4 17 b0 bd
       -0.04488427 -0.061745334 -0.041857477 -0.08598259
0000a0 35 10 7d bd 47 41 c4 bc 30 ce 83 bd b2 1d 2e bd
       -0.061783034 -0.023956908 -0.064358115 -0.04250879
0000b0 05 98 be 3d 51 54 a6 3d f7 fd 97 3d c5 07 3e 3d
       0.09306339 0.08121551 0.07421487 0.04639413
0000c0 e8 7a d6 3c b3 68 ab bd 92 fc a5 bd 4b 92 5d bb
       0.026181653 -0.08369579 -0.081048146 -0.0033809121
0000d0 cd 9a e3 bd ef 0b 49 bb 71 f7 db 3d 73 1b 3f bd
       -0.1111351 -0.003067728 0.10740555 -0.046657037
0000e0 c9 90 c5 b8 1e ab 0e 3d 01 46 b2 3d ce a1 89 bc
       -9.42066e-05 0.03483116 0.087047584 -0.016800787
0000f0 46 5a ac 3d 6b 7f 5f bd 90 fb 6b bd c0 67 95 bc
       0.08415656 -0.054564875 -0.057612956 -0.018237948
000100 f9 03 7c bd 13 8e 01 bd 67 aa 3d 3d e1 40 45 3d
       -0.061527226 -0.031629633 0.046305086 0.048157576
000110 aa 45 82 3d 32 81 95 3a 0c 37 bc bc 36 d1 98 bd
       0.063609436 0.0011406301 -0.022975467 -0.07461779
000120 d0 8a bb bb a8 17 b8 bd a5 10 ac bd e5 bf 4c bd
       -0.005723335 -0.08988887 -0.08401612 -0.049987692
000130 4e 64 00 bd 17 9e 80 bd e4 15 bd 3d 22 7b ba 3c
       -0.031345658 -0.06280153 0.09232691 0.022763792
000140 4e 49 e0 3d 53 f2 b3 3d 01 f4 e4 bc 37 e0 2f bc
       0.10951482 0.08786454 -0.027948381 -0.010734609

layers.11.weight f4 [10, 84]
000000 d0 f7 06 3e 33 12 3b be b5 d8 24 3c 4f b0 05 be
       0.1318047 -0.18268661 0.010061433 -0.13055538
000010 e6 3a 91 3d 0c 9e 9a 3d a4 80 f9 bd 99 a1 3b be
       0.07091312 0.07549676 -0.121827394 -0.18323363
000020 9f 92 b1 bd 8d 6c 4a 3d 67 4a 92 bd ef 8b 4d bd
       -0.08670544 0.04941993 -0.07143097 -0.05018228
000030 d5 04 83 3c 95 52 84 bc 80 bb 25 3e b7 3e 1c 3d
       0.015993515 -0.01615266 0.16184807 0.038145747
000040 37 a9 0f 3e 3d 4b ba 3d 85 b9 4d 3d 04 6d 21 be
       0.14029394 0.09096382 0.050225753 -0.15764242
000050 05 96 20 bd a6 23 fb 3d 73 0b 0f be 11 3a c6 3d
       -0.03920557 0.12262659 -0.13969211 0.09679044
000060 46 d0 77 3d 3c 0c 86 3d d8 6a 56 be 11 82 3b 3d
       0.06050136 0.06545302 -0.20939195 0.045778338
000070 d8 12 de 3d 1d 4d 05 bb ee 83 e5 3d 04 5a 3a 3e
       0.10843438 -0.0020340153 0.11206804 0.181984
000080 62 19 15 bd 66 e4 11 be 58 8e 5d 3c 2e e5 dd 3d
       -0.03640116 -0.14247283 0.013522707 0.10834728
000090 84 dc be 3c c4 c5 3c bd 53 6e 54 be 03 9e b8 3d
       0.02329851 -0.04608704 -0.2074521 0.09014513
0000a0 39 6d f7 bd 79 9f 63 bd a6 31 86 be 0b 4d 2b 3d
       -0.120813794 -0.055572007 -0.26209754 0.04182152
0000b0 66 ef 0d 3e c0 8d 7e 3c ac 12 0f be c5 cc 4d be
       0.13860855 0.0155367255 -0.13971967 -0.20097645
0000c0 0a aa 2e 3d ac e8 44 3d 62 7d 9b 3d 67 ea 7b bc
       0.04264263 0.048073456 0.07592274 -0.01537571
0000d0 16 c8 24 3d 18 05 2a 3e 75 3d 6e 3d a5 51 5f 3c
       0.04022988 0.16603506 0.05816408 0.013630305
0000e0 b5 0e db bc 90 a1 dd 3d 19 0d 00 be e5 ae 6c bd
       -0.026740411 0.10821831 -0.12504996 -0.05778398
0000f0 bc 0a 21 bb 93 ef 51 3c 80 ab 90 bd cc 48 ce bd
       -0.0024573049 0.012813467 -0.07063961 -0.10072479
000100 c0 07 0d 3d e9 7b a9 bd 24 35 f0 bd 48 9d fa bd
       0.03443122 -0.08275587 -0.11728886 -0.1223703
000110 23 bf c9 bd b6 25 fd 3d e8 0b ca bd 52 00 88 bd
       -0.098509096 0.123607084 -0.09865552 -0.06640686
000120 0a 67 61 bd 74 6b 89 3d 87 f5 74 3d 8a 16 6d bd
       -0.055029906 0.06709948 0.059804466 -0.057882823
000130 72 ac 94 bd 53 38 cf 3c 8c 3f 25 be 2c d1 61 b9
       -0.07259454 0.025295412 -0.16137522 -0.00021535595
000140 d8 b7 9c 3d fb 7c 17 be 80 1f a5 3a 0b 32 89 bd
       0.07652253 -0.1479377 0.0012597889 -0.06698998
000150 5d d1 4d bc f7 d0 27 3e 72 57 82 bd 2f db ae 3d
       -0.012562123 0.16388308 -0.06364335 0.085379
000160 79 08 b5 bd 44 cd 95 bc cf 79 7c bb fe 91 af 3d
       -0.08839507 -0.018286355 -0.0038524752 0.08572768
000170 d2 a2 16 be ab c0 98 3b 56 67 86 bd fd 70 12 bd
       -0.14710549 0.0046616397 -0.065626785 -0.035752285
000180 53 9d c6 3d 74 1c f0 3c 52 0c 52 3c b9 11 22 3a
       0.09697976 0.029310443 0.01282032 0.00061824505
000190 62 9c d5 bd 89 a0 3c 3e 1a 9f 1c be f2 43 f0 3c
       -0.10430218 0.18420614 -0.15295067 0.029329274
0001a0 9e 03 38 3c 5d b9 09 be 64 f0 7c 3d 0b c1 b3 bd
       0.011231331 -0.13449617 0.061752692 -0.087770544
0001b0 7a 4a c5 3b 2f eb be 3d 6a 07 32 3d f9 b2 40 be
       0.006020841 0.093222015 0.0434641 -0.18818273
0001c0 39 58 17 3d f3 ff 75 bd d2 9f 1d 3d 66 bf 94 3d
       0.03694937 -0.060058545 0.038482495 0.07263069
0001d0 b2 96 91 be 64 ec 9f bd 72 92 18 bd 11 88 7f 3d
       -0.28435284 -0.0780876 -0.037249036 0.062385622
0001e0 ed 68 ac bd e3 d7 2c bb 44 42 07 be 05 1f b7 bd
       -0.084184505 -0.0026373796 -0.13208872 -0.089414634
0001f0 61 01 61 3d 92 ee 77 be 65 8f 29 3d 21 cb 04 3e
       0.054932956 -0.24212101 0.041396517 0.12968113
000200 1b 4f 78 bd 11 ac 05 be 11 4f c7 3d 32 66 45 3d
       -0.060622316 -0.1305392 0.097318776 0.048193164
000210 be 45 a0 3d 82 e9 e8 bb 66 2d ed bd 36 36 10 3d
       0.07825802 -0.0071079144 -0.11580925 0.03520795
000220 c2 e4 24 bd c5 19 f4 bd f4 a8 b8 3d 5f bd 60 3d
       -0.040257223 -0.11918978 0.090166 0.0548681
000230 dc 24 6d bc 90 98 2a bd da 8c 03 be aa 67 e1 3d
       -0.01447412 -0.0416494 -0.128467 0.110061005
000240 df 46 04 bd ec 44 0a bc e3 f9 b7 3d 76 32 94 be
       -0.03229415 -0.008439284 0.08983209 -0.2894475
000250 fe ae 83 3d 9a 53 d3 3d 88 3a 9b 3d 9c 9b b9 bd
       0.064298615 0.1031868 0.07579523 -0.09062883
000260 7c bd e8 3d a6 e7 b5 bb 47 a7 3a be 98 2c 68 bd
       0.11364266 -0.0055512963 -0.18227874 -0.056683153
000270 d4 c1 dc bb c8 0a c7 3d 40 75 bd bd 6a 88 72 3d
       -0.0067369733 0.09718853 -0.09250879 0.059212126
000280 e6 e6 0a be 11 de 3c 3e 60 91 26 bd d8 06 52 be
       -0.13564643 0.18444087 -0.040665984 -0.20510423
000290 aa 43 18 be 95 d9 f5 bd 57 2b 6a 3c 3d 3a 91 bd
       -0.14869562 -0.12004391 0.01429256 -0.07091186
0002a0 b8 d5 69 bd 9b ec 52 be c8 a1 c2 bc 6f ed 7d 3d
       -0.057088584 -0.2059807 -0.023758784 0.061994012
0002b0 da fa 96 3d 7a 85 28 bd 65 7b 14 bd a0 f9 1d 3e
       0.07372065 -0.04114292 -0.03625049 0.15427256
0002c0 1a fa af bd 11 4c 47 3d a5 b3 00 3c 98 10 90 bd
       -0.08592625 0.048656527 0.007855331 -0.07034415
0002d0 04 5a 8c bd 4d 65 2d 3d 4f 88 9c 3d 36 17 27 bd
       -0.068531066 0.042332936 0.07643186 -0.04079362
0002e0 ba b0 fe 3d 41 40 d1 bd fc d2 84 bc e2 cf 25 be
       0.12436052 -0.102173336 -0.016213886 -0.16192582
0002f0 2c 9f 96 3d 46 6b 76 bd 67 97 8f be 11 4b d7 3d
       0.073545784 -0.060160898 -0.28045198 0.10512365
000300 45 e2 a4 bd a8 b0 3e 3b 1a d4 7b 3c 56 1a 27 3d
       -0.0805097 0.0029096995 0.015370393 0.0407966
000310 65 83 af bc c5 90 6e 3d f0 5b 89 bd dc 23 05 3e
       -0.021424958 0.05824353 -0.06706989 0.1300196
000320 62 75 ed bd 2a 6b e0 bc 88 6a ef bd ef ba 92 3c
       -0.115946546 -0.02739485 -0.11690241 0.017911403
000330 47 d6 85 3d ad b3 91 bc bb e2 e1 bd b3 1b 24 3d
       0.06535011 -0.017785871 -0.110295735 0.04006548
000340 eb ae d1 3d 95 13 86 3e 4d 7f bc 3c 56 7c d4 bd
       0.10238441 0.26186815 0.02300992 -0.10375278
000350 a4 45 e6 3d 03 a5 e2 bd de 0c 15 bc 3a 53 33 be
       0.11243752 -0.1106663 -0.009097306 -0.17512217
000360 44 6d a0 bd bd 62 dd bc 33 5a 9a 3d 52 ea c1 3d
       -0.07833341 -0.027024621 0.075367354 0.09468521
000370 e0 8a 87 3d 73 24 8f be 40 ae af 3d 2f 11 bc bd
       0.06618285 -0.27957496 0.085781574 -0.09182965
000380 23 ac 91 3d 30 20 25 bc 40 2a 3c be 66 01 80 3d
       0.071129106 -0.010078475 -0.18375492 0.06250267
000390 a0 1d ba 3d ee d0 b5 3d a9 ef f8 3d 44 44 ef bc
       0.09087682 0.08877741 0.121550865 -0.029207356
0003a0 9e ee 12 3e a7 85 51 bd fe 79 2e bd 7c 17 c1 3c
       0.14348838 -0.05115285 -0.04259681 0.023570769
0003b0 ba 11 a9 bd bc f0 06 be 94 5b 1b 3d 95 a6 ca 3d
       -0.08255334 -0.1317777 0.037929133 0.09895054
0003c0 95 55 9e bd a1 97 5b bd b0 76 9e bd b1 93 a0 bd
       -0.07731167 -0.0536114 -0.077374816 -0.0784067
0003d0 47 3a 00 be ea 17 1e 3e 78 0e ed 3d 87 69 73 3d
       -0.12522231 0.1543881 0.11575025 0.05942681
0003e0 da e3 fa bd 14 96 a1 3a be 1c 0b 3d f9 09 a4 3b
       -0.122504905 0.0012328052 0.033962958 0.0050060716
0003f0 1c bb 3b be 4d 95 7e 3d 8f b2 b4 3d 36 91 36 3d
       -0.18333095 0.062154103 0.0882312 0.044572078

layers.11.bias f4 [10]
000000 8b ed 7d 3d 4f 15 60 bd fa 63 c7 bb d0 13 7d 3d
       0.061994117 -0.05470782 -0.006084916 0.061786473
000010 78 2a f1 bc 78 61 ff bc de 65 d4 3d ca 06 a4 3c
       -0.029439196 -0.031174406 0.10370992 0.020022769
000020 06 5c fb bc fd 42 86 3d
       -0.030683529 0.06555746
