model/lenet5.pth (torch_old, 248640 bytes, 10 tensors)

layers.0.weight f4 [6, 1, 5, 5]
000000 11 ff 1e be 94 90 03 be 29 c6 0d bb c9 b6 33 be
       -0.15526988 -0.12848121 -0.0021633005 -0.17550196
000010 39 4b b5 bd 06 21 e8 3d 83 8a 18 be 41 20 88 3d
       -0.08852238 0.11334424 -0.14896588 0.06646777
000020 3f 52 42 3e 7e 3e 52 3e d7 e5 6a be 60 00 38 be
       0.18976687 0.20531651 -0.2293924 -0.17968893
000030 86 f9 2f bc 01 d3 81 3e 5a 7a ff 3d 76 58 7c 3e
       -0.010740643 0.25356296 0.124745086 0.2464312
000040 06 aa 06 3d 41 95 fa 3d 26 00 31 3e c1 fd 78 3d
       0.03287699 0.12235499 0.17285213 0.060788874
000050 a1 14 41 bc 32 e1 d3 3b 8e 82 25 3e 50 84 aa 3d
       -0.0117847035 0.0064660544 0.16163084 0.08326018
000060 82 51 b3 bd a8 74 1d 3e 1c d6 5a 3e 99 b5 dc bd
       -0.08755781 0.15376532 0.21370739 -0.107768245
000070 29 5d 1d 3e e9 26 6c be 61 b2 82 bd 1c 05 29 3d
       0.15367569 -0.23061718 -0.06381679 0.04126464
000080 a7 9b 5f 3e 49 f1 8b 3d 6a 18 8e be a5 2e 49 3e
       0.2183672 0.06833131 -0.27753 0.196467
000090 9e 8b 52 3e b6 cf c7 bd 54 b0 94 be ea c3 7a be
       0.20561072 -0.097564146 -0.29040778 -0.24488798
0000a0 c3 b1 52 3d bd 19 32 3e f0 4f 22 3e ec 8b 81 be
       0.051439058 0.17392631 0.15850806 -0.25302064
0000b0 21 2c 81 be e3 af 77 3c 17 3a 5a 3e 5f 36 90 3e
       -0.2522898 0.015117618 0.21311222 0.28166482
0000c0 3b f2 01 be f3 e4 9d 3d bd 54 54 3e 82 16 05 3d
       -0.1269006 0.07709684 0.2073545 0.03249217
0000d0 72 2e 9b be 21 d0 89 bd 88 ab 3e be 48 3a 68 3e
       -0.30308872 -0.067291506 -0.18620121 0.22678483
0000e0 5a c6 5f 3c a8 64 45 bd 66 00 5d be 8c 49 1c be
       0.013658131 -0.048191696 -0.21582183 -0.15262431
0000f0 db 9d 0d 3e 3e 8f 84 3e 7e c1 f5 bd 24 a4 12 be
       0.13829748 0.25890535 -0.11999796 -0.14320427
000100 d5 d9 f7 3c b5 8b 27 3e 88 6e 41 3e 95 38 02 3e
       0.030255238 0.16361888 0.1888982 0.12716897
000110 76 df aa bd cc 8c 4f 3e e8 f1 9a bb c8 4a 60 3e
       -0.08343403 0.20268553 -0.0047285445 0.21903527
000120 fd d1 20 3e 29 2f 1b 3e a7 c8 78 3e c4 28 7e 3d
       0.15705104 0.15154709 0.24295293 0.062050596
000130 81 53 79 3e 59 fe 1b 3e 9a 45 0e 3d b4 a0 cc bd
       0.2434826 0.15233745 0.034734346 -0.09991589
000140 ea b0 b9 bd 7e 46 11 be ba 71 df 3d f8 90 b5 be
       -0.09066947 -0.14187047 0.109103635 -0.35462165
000150 43 aa 82 be b3 21 f0 bd c1 0e 95 be f9 3c 4c be
       -0.25520524 -0.117251776 -0.2911282 -0.19945134
000160 13 97 4f bd a2 6a fe bd 0b 35 22 3e 59 4e 19 be
       -0.050681185 -0.12422682 0.15840547 -0.14971294
000170 53 29 98 bc 4b da fe 3b 24 a2 62 3e 99 cf 88 3e
       -0.018574392 0.0077774874 0.22132164 0.26720884
000180 66 e9 0f 3e be 4e 8e 3e fc 5b 56 3e d7 66 40 3d
       0.14053878 0.2779445 0.20933527 0.046973076
000190 8b 60 58 bd 9c 60 b3 bd d6 49 9e bd 3f b9 26 be
       -0.052826446 -0.08758661 -0.07728927 -0.16281603
0001a0 de 14 8b bd 25 76 f6 3c ac 02 42 be bc 05 42 be
       -0.067910895 0.030085633 -0.18946332 -0.189475
0001b0 b4 ae 8f 3d 58 f5 91 3e e4 5b 14 be 82 bf a7 be
       0.07015744 0.28507495 -0.14488178 -0.32763296
0001c0 0f fc 2f be 8b 79 df 3c cc f3 1d 3d 8b 27 1c be
       -0.17185996 0.027279636 0.03856258 -0.1524946
0001d0 a7 54 47 be a7 ed 5d bd c1 dd 77 3e 84 94 88 3d
       -0.19465886 -0.05418172 0.24205686 0.06668952
0001e0 a4 71 0e be 09 4a e7 3d 88 04 83 3e a7 dc 80 3e
       -0.13910538 0.11293418 0.25589395 0.25168344
0001f0 94 8f 52 3e f2 f3 69 3e 07 fb 53 3d 78 c1 f8 3d
       0.20562583 0.22846964 0.05175307 0.12146276
000200 19 f9 00 3e 4f fd 86 3e 0d 1f 17 bc 3a 68 5f 3e
       0.12595023 0.26365134 -0.009223712 0.21817103
000210 5a 0b d3 3d 13 df 30 3e 11 b1 a8 3d 27 cd d1 bd
       0.103048995 0.17272596 0.08236898 -0.10244208
000220 55 ed 02 3e 1e d0 22 3d 3a 61 04 3e 37 1e 6c bd
       0.12785847 0.039749257 0.12927714 -0.057646003
000230 99 83 60 bd 56 5c 08 be c8 28 69 bd a9 89 8c be
       -0.054813 -0.13316473 -0.056923658 -0.27448776
000240 ec 90 11 bd 44 e2 3f bd ba 97 a5 be 60 18 29 be
       -0.0355386 -0.046846643 -0.3234232 -0.16513205
000250 b7 6a 4a be 96 49 da bd
       -0.19767271 -0.10658567

layers.0.bias f4 [6]
000000 43 94 7b 3e 95 f5 ae 3c ab d0 0f 3e e0 14 59 3d
       0.24568276 0.021357337 0.14044444 0.052998424
000010 b4 99 1b be ae 34 a2 3d
       -0.15195352 0.07920204

layers.3.weight f4 [16, 6, 5, 5]
000000 d1 20 ed bc 0d 88 7c bd 27 5e a3 ba 75 5b 0e 3d
       -0.028946312 -0.061653186 -0.0012463973 0.03475519
000010 8a 95 e9 bc 69 01 7e bc 39 3e 4c 3c e7 c2 ce 3d
       -0.028513689 -0.015503266 0.012466007 0.100957684
000020 78 b0 0a 3e 29 27 ad 3d 2a 17 9e bd 7a 62 48 3c
       0.1354388 0.08454735 -0.07719262 0.01223051
000030 01 cb 47 bd 9a 4a ca 3d e0 e9 09 3d d3 55 fe bd
       -0.048777584 0.0987751 0.033670306 -0.124187134
000040 e2 20 32 be dc 52 7e bd 40 a7 da bd ee 26 fb 3c
       -0.17395356 -0.06209074 -0.10676432 0.030658212
000050 36 a0 9b bd 2f 81 19 3d 6b 09 2c bd 39 3d 96 bc
       -0.07598917 0.037476715 -0.04200117 -0.01833974
000060 1f 79 8f bd 54 4f 7c 3d d3 8b 73 3d 94 f9 bb 3c
       -0.07005524 0.06159909 0.05945952 0.022946157
000070 a3 50 ff 3c 99 94 74 bd 51 4b ca bd 39 09 23 bd
       0.03116638 -0.059712026 -0.09877647 -0.039803717
000080 e1 79 01 3d 77 31 51 bd 8a 70 f7 bc dd ad 78 bb
       0.031610373 -0.051072564 -0.03020503 -0.0037945427
000090 30 90 2f be f8 0c 18 be de 8d 92 bd 58 80 6f 3d
       -0.17144847 -0.14848697 -0.07155965 0.058472008
0000a0 26 29 83 3b 70 a3 ee 3c a0 4b 69 3d 27 80 ff 3a
       0.004002708 0.029130667 0.056956887 0.0019493148
0000b0 e6 6e f8 bd 5c ed 07 3d c2 a5 38 3d 75 6c db 3b
       -0.12130527 0.033185348 0.045079954 0.0066962787
0000c0 9c 63 26 bd d7 5c 02 bd 39 6c 14 bd 62 23 ad 3c
       -0.04062234 -0.03182682 -0.03623602 0.021135036
0000d0 e7 f4 cb 3b c1 3c a6 3d cb 79 9f bd 71 67 a2 3d
       0.006224263 0.08117057 -0.07786902 0.07929886
0000e0 cf 22 aa 3d b2 46 c5 3d c5 e4 de 3d e8 96 02 bd
       0.083074205 0.09632625 0.10883478 -0.031882197
0000f0 8f a7 c6 bd ca 01 b1 bd 55 bb 8f bc e2 ea 93 bd
       -0.09699928 -0.08642919 -0.017545382 -0.07222535
000100 ff 77 21 3d bf cf ad bc f4 69 2f bc cd 78 94 bd
       0.039421078 -0.021217225 -0.010706414 -0.072496034
000110 e3 66 f6 bd 8f 7e ab bd 40 05 24 3d 0e 2a 98 3d
       -0.12031343 -0.083737485 0.04004407 0.07429896
000120 e0 90 1f 3e 45 ee 9b 3d ca 4a d2 bd 8e 99 bc 3d
       0.15582609 0.07613806 -0.10268171 0.09208976
000130 7b f5 07 3e 4e 36 ea 3d 93 cc 8b 3d f8 08 05 3e
       0.13277237 0.11436139 0.06826129 0.12991703
000140 6d 26 8e bd ea b5 22 3d a9 81 05 3e ce 48 33 3e
       -0.06940923 0.039724268 0.13037743 0.17508242
000150 fa db bc 3d 32 87 d8 bd af db 12 bd 52 94 bc 3c
       0.09221645 -0.105726615 -0.035854038 0.023019943
000160 39 83 d8 3d 23 36 b0 3d 48 03 d3 3d b6 69 03 3e
       0.10571904 0.08604076 0.1030336 0.12833294
000170 f9 18 59 3e f0 24 02 3d 10 b6 ec 3c e6 8a e4 bb
       0.21200933 0.031773508 0.028895408 -0.006974566
000180 a6 ee 52 3d 35 28 15 3e 67 c0 69 3d 14 4a ae 3c
       0.051497124 0.14566119 0.057068255 0.021275558
000190 9a d2 b8 3d ce ee a4 3c d2 21 8f 3d 12 c1 de 3d
       0.09024544 0.020133402 0.069888726 0.10876669
0001a0 a0 c5 39 3c 2a 95 3e bd 52 1e a4 bc 28 69 e1 3c
       0.011338621 -0.046528973 -0.02003399 0.027515963
0001b0 81 d1 6f 3d fe c7 d6 3d 9a bc d1 bd fa c9 6c bd
       0.058549408 0.10487364 -0.10241051 -0.057809807
0001c0 3d 68 e9 bd d9 14 d9 bd 25 11 b1 bd f2 7e 69 bd
       -0.11396835 -0.105996795 -0.08645848 -0.05700583
0001d0 9f a4 19 be e0 74 5a be ad 76 28 be 55 7d 83 bd
       -0.15004204 -0.21333647 -0.16451521 -0.064203896
0001e0 0b 61 0c bd 73 50 3b bd a0 fa fa 3c 3a 07 35 3d
       -0.034272235 -0.04573102 0.030637085 0.044196345
0001f0 fc 5a 86 3d cd ef 33 bc 77 7a 74 bd 09 68 bb bc
       0.06560323 -0.010982466 -0.059687104 -0.022876756
000200 eb e7 bf bd 29 d9 1a 3d 27 4c 12 3e fc a2 a2 3c
       -0.09370407 0.037804756 0.14286862 0.019853108
000210 ec 5d 8d bc c1 18 42 3d 5e a7 cc 3d e5 0a 00 bd
       -0.0172567 0.04738689 0.0999286 -0.03126039
000220 5e a0 0d 3e 7c 9b fd 3d 65 71 83 3d 56 00 ab 3d
       0.13830706 0.12383172 0.06418113 0.083496734
000230 16 21 7c bd 7e 84 eb 3d 11 b1 a6 3d 02 d6 7e 3d
       -0.06155499 0.1149988 0.081392415 0.062215813
000240 05 87 b5 3d ed b9 d6 bb 90 02 d3 bd 2a fd 1e be
       0.088636436 -0.006552926 -0.10303223 -0.15526262
000250 de 09 e2 bd c2 9e 38 3d 4e 0a 3c 3c 14 e2 51 bc
       -0.11037038 0.04507328 0.011477066 -0.012810249
000260 64 6e 71 3d 76 a8 d2 bd fc 00 17 bb 1c cd c5 bd
       0.058943167 -0.102860376 -0.0023041358 -0.09658262
000270 dc d2 c3 3d 02 ae bd bd 9f da bf bb b4 a5 ec 3d
       0.095617026 -0.09261705 -0.005854919 0.11555043
000280 cc 07 ce bd a9 b5 2c 3d fd 9e 45 bd 15 d6 35 bd
       -0.10060081 0.042165432 -0.048247326 -0.044393618
000290 ae 8d d1 3d 65 45 e1 bd 3c b5 4c 3c 9f e1 b1 bc
       0.102321014 -0.10999564 0.0124943815 -0.02171403
0002a0 b8 4a 32 bb d2 2d a2 3d 7a 28 5a 3d 99 44 b9 3d
       -0.002720518 0.07918896 0.053261258 0.09046287
0002b0 3a 4f b1 3d 07 b4 46 3d c0 42 73 bd a7 20 b5 ba
       0.086576894 0.04851153 -0.05938983 -0.0013818935
0002c0 28 4e 94 3d a3 0a 47 bc 36 5d 7d 3d 92 f5 2e 3d
       0.072414696 -0.012148532 0.06185647 0.042714663
0002d0 ba 93 a4 3d 8a 0d 38 3d d4 a1 09 3e 3b da 92 3b
       0.08035989 0.044934787 0.13440639 0.0044815815
0002e0 50 2b a8 bc 7d 45 b7 3d e5 8c 0a bc 13 35 1a 3a
       -0.020528466 0.08948801 -0.008456443 0.00058825425
0002f0 ae e7 81 bd 20 5d a4 3c dc d4 4f 3d 61 06 5d 3c
       -0.063430175 0.020063937 0.050740108 0.01349029
000300 20 a3 ee bd 58 3e d3 bd bc 11 0b 3e 8c 75 2b 3d
       -0.116522074 -0.103146255 0.13580984 0.04186015
000310 de 67 47 bd 6e 7d 79 bc 75 28 2f 3c 70 c3 96 3d
       -0.04868304 -0.015227659 0.010690798 0.073614955
000320 d6 da 57 bd aa 3a d5 bb a1 50 43 bd 90 ac 28 bc
       -0.052698933 -0.0065072374 -0.047684316 -0.010295048
000330 6b 9a ee 3b e7 41 54 3d 07 a9 90 3c e1 25 1f bc
       0.0072815917 0.051820662 0.017658724 -0.009713621
000340 cf 59 7d 3d d3 ef 54 3d 6f f5 39 3c 20 f6 47 bd
       0.061853226 0.051986527 0.01135002 -0.048818707
000350 00 69 b4 3d e7 0f 91 3d 70 e8 d6 bd 75 d1 2f 3d
       0.0880909 0.07083111 -0.10493553 0.042924363
000360 5c db 2a 3d c9 32 9e 3d 40 f3 58 3c 88 1f 57 bc
       0.041713104 0.0772453 0.013241589 -0.013130076
000370 3a 90 d6 3d 5c a3 aa 3d 2e 80 cf 3c 4a 2e cb bd
       0.10476728 0.083319396 0.025329676 -0.09920938
000380 c0 0e 47 bd 69 d7 29 3d a6 af 95 3d f1 7b 98 bb
       -0.04859805 0.041465197 0.07308893 -0.004653447
000390 51 68 92 bd 69 29 e5 bd 86 e7 67 bd 48 58 cc 3d
       -0.07148803 -0.11189539 -0.056617282 0.09977776
0003a0 f7 7f 94 bc cd f4 2c 3c 66 7a 36 3c 49 ff 04 be
       -0.018127425 0.010556412 0.0111375805 -0.12988009
0003b0 40 ec 52 3c 48 3f e8 3c 34 c0 aa 3c 90 92 14 bd
       0.012873709 0.028350487 0.020843603 -0.036272585
0003c0 32 8d e7 bd a8 21 9f 3d a8 f4 00 3e 32 23 48 bd
       -0.11306228 0.07770091 0.12593329 -0.04886169
0003d0 4b d8 bd bd bb 80 32 3d 65 f9 bc 3d 3a a3 44 bd
       -0.0926977 0.0435798 0.09227256 -0.048007227
0003e0 95 cb 3b be aa 80 32 3c 6a 2e a6 3d d9 99 59 3b
       -0.18339379 0.010894934 0.081143215 0.0033203273
0003f0 57 76 22 bd fc 6a c5 bd c6 db b0 bd 32 55 81 3d
       -0.03966364 -0.09639546 -0.086356685 0.06315078

layers.3.bias f4 [16]
000000 56 5c 59 3d 16 e6 13 be 34 02 af 3d c1 f0 0c 3d
       0.053066574 -0.1444324 0.08545342 0.03440929
000010 bc 5a 34 bd 9e e7 52 3c d9 c5 ab bc f1 e9 3f 3d
       -0.044031844 0.012872605 -0.020968365 0.046853963
000020 e3 35 ce bd 84 78 c6 bd 78 d0 31 3d c5 c9 f3 bc
       -0.10068872 -0.09690955 0.043411702 -0.029759297
000030 66 93 13 3d 11 9e 12 bd eb ba 89 3c 3c be 54 bd
       0.036029242 -0.035795275 0.016812762 -0.051939234

layers.6.weight f4 [120, 16, 5, 5]
000000 b4 a6 77 3d 7a 84 a9 3c 69 72 89 3d 81 a6 6e 3d
       0.060461715 0.020693053 0.06711275 0.05826426
000010 7c fe b2 3d 02 bc 83 3c 61 62 6c 3d 43 dc 85 3a
       0.08739945 0.01608086 0.05771101 0.0010212738
000020 ba 38 50 3d 0b 04 36 3d 83 98 34 bd 19 80 9f bc
       0.05083535 0.04443745 -0.04409076 -0.019470261
000030 4d 33 c4 3d 6c 94 f8 3d 2d 4a cb ba 89 da 8b 3d
       0.09580097 0.12137684 -0.0015509777 0.06828792
000040 50 1d e9 3c 69 b2 03 3e 70 45 ab 3d 07 24 49 bd
       0.02845636 0.12861027 0.083628535 -0.049106624
000050 9c 72 c2 3c 79 7b 10 bd 9a f9 27 3d 0b 0e 46 bd
       0.02373629 -0.035274003 0.041009523 -0.048353236
000060 af 8b b2 bd 89 53 fb 3c c6 d3 86 bd 0e 66 cc bc
       -0.08718049 0.030679481 -0.06583361 -0.024951007
000070 49 82 1f 3d fa 25 4c 3c e2 f0 91 3c 9b 86 e0 bd
       0.03894261 0.012460226 0.017815057 -0.10963174
000080 7a 17 82 3d ee 06 b7 3d 28 ca 84 3d 17 c5 40 3d
       0.06352134 0.089368686 0.06483871 0.04706296
000090 63 fd ca 3d ec 19 e3 bc 62 ad 51 bc e6 7f 65 bc
       0.09911611 -0.027722321 -0.012797685 -0.014007544
0000a0 1a c1 14 3c 23 83 c4 bc 9a b5 c6 bd 49 08 db bc
       0.009079242 -0.023988312 -0.097026065 -0.02673735
0000b0 f3 e6 2d 3a df c8 33 bd b6 5e f2 bd 87 71 4c bd
       0.00066338404 -0.043892737 -0.11834471 -0.049912956
0000c0 4a 49 0b bd 25 cb 08 3d ed c3 cd bc b7 17 e1 bc
       -0.03400544 0.03339686 -0.025117839 -0.027477128
0000d0 31 c8 dc bc ae 90 25 bd 3c a9 88 bb 5b ed 21 3c
       -0.026950927 -0.04042118 -0.004170565 0.00988325
0000e0 6e b3 bd bc 12 78 93 bd 9d af e1 3c e4 5a a6 bd
       -0.023156848 -0.07200636 0.02754956 -0.08122805
0000f0 ba 40 23 3d cd 93 cc 3d a6 72 d4 3d 4d ef 97 3d
       0.03985665 0.09989128 0.1037343 0.0741869
000100 6d e9 72 3d 4e 9c bc 3c a1 74 0e 3c 12 ce ab 3d
       0.059304643 0.02302375 0.008694799 0.08388914
000110 92 62 76 bc a7 7a 09 bd ef bf 92 bd 1d c1 9b bb
       -0.015038149 -0.033564236 -0.07165515 -0.0047532455
000120 9d 4a 98 bd 5f 8a 87 bd 0b 2d b5 bd 7c 62 81 3b
       -0.07436106 -0.06618189 -0.08846482 0.003948508
000130 e8 57 08 3d 82 c8 4b 3d 2c 19 7a 3d bd 60 09 bd
       0.03328696 0.049751766 0.061059162 -0.033539522
000140 92 ca a2 3d 83 28 0d bd 39 c0 67 bd 2e 5d 3e 3d
       0.079487935 -0.034462463 -0.056579802 0.04647558
000150 b1 e9 d6 3c 05 9d 0c bd 6d 6e 2b ba 2b 4c df 3d
       0.02623448 -0.034329433 -0.0006539587 0.109032
000160 21 9e 80 3d 30 69 4e 3d 47 b3 14 3d d4 c6 3f 3d
       0.06280161 0.050393283 0.036303785 0.046820477
000170 38 89 46 3d ef 81 f2 3c 81 3a 94 3d e3 b2 47 bc
       0.048470706 0.029602973 0.07237721 -0.012188646
000180 5b d3 e4 bc 69 e7 17 bd 49 c6 c3 bd 13 03 97 3c
       -0.027932813 -0.037085924 -0.09559304 0.018434083
000190 f2 33 54 bd f8 b5 c6 bc 57 ad 6e bd 04 37 db bc
       -0.05180735 -0.024256691 -0.05827078 -0.026759632
0001a0 80 85 a0 3c 63 3b 8a 3d 23 19 9a 3d 65 29 c8 3b
       0.019594908 0.06749608 0.07524326 0.0061084502
0001b0 a2 0f 89 bd c8 00 46 3d 80 cf 79 3d 5e 59 18 bd
       -0.06692435 0.04834059 0.060988903 -0.037194602
0001c0 5d 69 5d bd 9b 06 a6 3d a0 ea 7f b9 87 b1 db 3c
       -0.05405556 0.08106729 -0.000244061 0.02681805
0001d0 da ba 78 bd 51 f1 ac 3d 37 a5 66 3d 61 31 6e bd
       -0.06072507 0.08444465 0.056309905 -0.05815256
0001e0 19 a6 a5 bd bf 94 ef 3b 00 0f 73 3a b7 5c d4 3c
       -0.08088321 0.007311433 0.00092719495 0.025923116
0001f0 bd 70 a1 bd 9e 71 3f 3d 2a 2a 81 3d cf 81 00 3d
       -0.07882831 0.046739213 0.0630687 0.031373795
000200 2c 26 a9 bc 7c 35 78 bb ff dc b5 3d 5f b2 37 3d
       -0.020648085 -0.0037873676 0.08880042 0.044847842
000210 0f 94 d2 bb 57 1c 24 bd a0 9f 8f 3c 85 41 1d 3d
       -0.0064263414 -0.04006609 0.01753217 0.038392562
000220 39 5e 09 3d d2 3e 40 bc 6a dc d7 3c 90 ce 84 3d
       0.033537123 -0.0117337275 0.026350219 0.06484711
000230 13 d4 03 3c 79 3a 49 bd e0 e3 7b 3c 94 df 08 bd
       0.008046168 -0.04912803 0.015374154 -0.033416346
000240 eb d6 ae bc 16 6d c4 bc 79 a1 35 3d e4 32 b8 3b
       -0.021342715 -0.023977797 0.044343445 0.005621301
000250 94 1f c3 bb b4 1f 9d bd 21 c7 4e bd dd 0c e3 3c
       -0.005954692 -0.076720625 -0.050482873 0.027716095
000260 68 f3 b3 3c d9 c1 44 bc ac f3 86 bc 53 48 de bd
       0.021966651 -0.0120091075 -0.016473614 -0.108536385
000270 10 77 fc bc 13 80 78 3b f7 e0 95 bc 6f 92 10 bd
       -0.030818492 0.0037918135 -0.018295748 -0.0352959
000280 55 2d 02 3d ea b8 46 3b c7 09 50 3d c6 f4 db 3d
       0.031781513 0.003032262 0.050790574 0.10740046
000290 b6 ea 30 bd 87 66 83 3d 41 52 cc bc bd 7a 48 bd
       -0.043192588 0.0641604 -0.024941565 -0.048945177
0002a0 63 ab b3 bd ee 94 61 bd 94 b3 ae bc aa cd f4 bd
       -0.08772924 -0.05507367 -0.021325864 -0.1195329
0002b0 28 c2 e9 bd 37 a1 1d bd b8 f3 bb bd ef d9 03 be
       -0.114139855 -0.038483825 -0.09177345 -0.12876104
0002c0 39 d2 21 be f9 1b 13 bd 94 46 bb 3d c5 00 d6 3d
       -0.1580285 -0.03591535 0.09144321 0.104493655
0002d0 63 c6 b7 bc 81 a8 54 bd 06 ef 89 bd 67 8f 89 3d
       -0.022433465 -0.05191851 -0.06735043 0.06716805
0002e0 91 44 1e 3e 0d 7c ab bc 6a a6 e4 3d b1 6b a0 3a
       0.15455844 -0.020933175 0.111645535 0.0012239126
0002f0 19 01 7c 3d ac f6 ad 3d 46 0b c5 bc 96 96 10 bd
       0.061524484 0.084943146 -0.024053227 -0.03529986
000300 c5 5f d6 3d e2 65 f3 bb 12 ac b1 bc bc 05 af bd
       0.10467485 -0.007427917 -0.021688495 -0.085460156
000310 00 bf 76 bd 61 d4 b6 3d 5d ec 56 3d 7d 63 35 3d
       -0.060240746 0.08927227 0.052471507 0.044284333
000320 5a 4e 57 bb 5b 60 98 bb fc 91 a0 bc fe 8c da 3d
       -0.0032853098 -0.0046501583 -0.01960086 0.106714234
000330 93 e1 bc 39 8b 1b 80 3b f1 47 ab 3d 21 94 1e 3d
       0.0003602622 0.0039095334 0.08363331 0.038715485
000340 fd b3 1f bd f4 da 70 bd e3 f4 2e 3d f8 5a e8 b8
       -0.03899001 -0.05880256 0.04271401 -0.00011079566
000350 9e c7 34 be 0a 03 80 bc ab 33 87 bd 9b 22 70 3d
       -0.17654273 -0.01562645 -0.06601652 0.058626752
000360 5d 6b 1b ba 30 94 e7 3c e4 73 49 3c b0 15 5b 3d
       -0.0005928779 0.028268903 0.012295697 0.05348748
000370 87 14 4a bb 47 15 c9 3d 0e 53 c7 ba 3b e6 4d 3d
       -0.003083499 0.098185115 -0.0015207247 0.050268393
000380 01 e5 64 3d cb a8 46 bb d4 85 49 ba f8 61 d6 bc
       0.055882458 -0.003031301 -0.00076874834 -0.026169762
000390 46 74 af 3d 14 72 c3 3c 42 4e 75 3d af 7b b9 bc
       0.08567099 0.023858108 0.059889086 -0.022641985
0003a0 7e 38 af bd e2 1e 70 3c 6c 05 c1 ba 28 ed c8 bb
       -0.08555697 0.014655801 -0.0014726347 -0.006131787
0003b0 d6 63 80 3c f2 01 16 bc e3 5b c0 3d 31 7c 74 3d
       0.015672605 -0.009155737 0.09392526 0.05968875
0003c0 69 45 ac 3c 9f 9b dc 3c 90 39 67 3d 2d f8 98 3d
       0.021029191 0.026929675 0.05645138 0.07469211
0003d0 40 88 77 3d 7b 06 91 3b 85 3b d3 3c ac 16 a8 3d
       0.060432673 0.0044258214 0.025785217 0.08207449
0003e0 58 ea a1 ba e4 57 b4 bd f4 64 01 bd 94 83 4b bc
       -0.0012353165 -0.08805826 -0.031590417 -0.012421507
0003f0 74 df 3c 3c 62 0c 57 bd f8 6c a1 bd 31 96 8c 3c
       0.011527885 -0.052502044 -0.07882112 0.01716146

layers.6.bias f4 [120]
000000 f3 45 28 3c 57 a2 97 bc de be 85 3c f1 03 21 3b
       0.010270583 -0.018510027 0.016326364 0.0024569
000010 f5 c2 4c bd c7 ba 0c bc 47 8e 69 3d 81 a2 a9 bd
       -0.049990613 -0.008589453 0.057020452 -0.08282948
000020 e1 48 55 bd 07 cc 2a bd 36 bd 7b 3d 22 99 8e 3c
       -0.052071456 -0.041698482 0.061459742 0.017407004
000030 10 86 fe bc 88 3c dc 3c 7b 51 d0 bc 93 54 94 3c
       -0.031069785 0.026884332 -0.025429478 0.018106734
000040 71 6f 36 bd cd 82 9e bc 5b f7 0c 3d f2 b6 d9 bc
       -0.044539873 -0.01934948 0.034415584 -0.026576493
000050 9e d2 d2 3b 39 4b f4 3c c0 99 2a bd 9b 4c dd bc
       0.006433799 0.029821025 -0.041650534 -0.027014067
000060 9c 4e 17 3d 99 d4 47 bd 38 1d 5d 3d 8c 18 a2 3d
       0.036940202 -0.048786733 0.053982943 0.07914838
000070 4a fd 78 bc f6 7a bf 3c 02 5c 1a 3d 03 f4 cc 3c
       -0.015197108 0.023374062 0.0376854 0.025018698
000080 dc 8c 59 3d ed 64 c4 bb ba 37 91 ba 5b 1e 97 3d
       0.05311285 -0.0059934766 -0.001107923 0.07378837
000090 b9 2d e7 3d 1f 81 a7 3b 31 eb 3d 3d 31 13 d9 bc
       0.11288018 0.005111828 0.046366874 -0.026498409
0000a0 41 1f 40 bb 3d aa ad bc 96 61 9d 3d f1 e9 c5 3c
       -0.0029315504 -0.02119934 0.07684629 0.024159404
0000b0 30 31 3b bc 09 dc 6e bd 7f aa a9 3d 58 eb 1a 3d
       -0.011425301 -0.05831531 0.08284473 0.037822098
0000c0 35 b2 13 bd 60 1a ca bb a3 38 6e bd 25 18 b8 bc
       -0.036058623 -0.006167695 -0.05815948 -0.02247245
0000d0 77 b3 97 bd 63 9e 4e 3d a0 4a 50 3d dc 4e 3e bd
       -0.07407277 0.050444018 0.050852418 -0.046461925
0000e0 68 b9 a6 3c bb 56 d9 bc e6 a7 db bc 37 be 5b 3d
       0.02035208 -0.026530614 -0.026813459 0.0536482
0000f0 df 05 8a 3c 78 87 4d bd 31 fd ea 3b 6d 1e 3b bb
       0.016848503 -0.05017802 0.007171296 -0.002855207
000100 90 a8 41 3d 20 61 ae 3c 46 61 15 3d 69 43 84 3d
       0.047279894 0.021286547 0.03646972 0.0645817
000110 f0 3b 5c 3b a2 9b b8 3c 1d a3 63 bd 85 3e 25 3d
       0.0033605061 0.022535149 -0.05557548 0.040342826
000120 8b 41 3b 3c f2 b3 22 3d c0 95 7b bc e7 d1 bd 3c
       0.011429201 0.03972239 -0.015355527 0.023171378
000130 9f 10 ff 3c e7 d2 f0 3c da 77 24 bd e7 17 82 3c
       0.031135855 0.029397441 -0.04015336 0.015880538
000140 36 bf 1b bd 38 4c 2c 3a d0 43 5f 3c c5 c7 92 3c
       -0.03802415 0.0006572637 0.013627008 0.017917523
000150 d7 33 8a 3d 2d 1c f6 bb dd 30 d6 3b 2b fe 22 bd
       0.06748169 -0.007510683 0.0065365867 -0.039793175
000160 5a 8a 8f bc 1b ad 15 bd 50 21 87 bb ff 59 6c 3d
       -0.017522026 -0.03654204 -0.004123844 0.057703014
000170 53 09 8f bb 67 44 f3 3c 02 3f 1a bc 14 a2 01 3c
       -0.004365125 0.029695703 -0.009414436 0.007912178
000180 32 25 e4 3c 29 8f 91 3c f2 3f 54 39 3a f1 37 3c
       0.027849767 0.01776846 0.00020241717 0.0112269465
000190 e1 97 04 3d f0 05 94 3c 1b a9 4e bd 56 e4 bf 3c
       0.032371406 0.018069237 -0.05045424 0.023424309
0001a0 72 84 c7 bc 12 14 03 3d 65 76 2d bd 8b fe f8 bc
       -0.024355147 0.032001562 -0.042349238 -0.030394813
0001b0 ba d1 92 3c a1 39 2a 3d 54 38 93 3d 09 10 28 bd
       0.017922271 0.041558865 0.07188478 -0.041030917
0001c0 c0 90 ee ba 65 06 f4 bc dd ad 7f 3d 0d 81 ce 3c
       -0.0018201098 -0.029788205 0.06242167 0.02520802
0001d0 c7 9d a3 bc 36 c1 10 3d f5 98 c0 bb 48 df 28 bd
       -0.019972695 0.03534051 -0.005877609 -0.041228563

layers.9.weight f4 [84, 120]
000000 33 86 91 bd 82 4c d9 bc ec c7 27 3d 16 9f 13 3d
       -0.071056746 -0.02652574 0.040962145 0.036040388
000010 25 fd 0f 3a 10 80 c8 bd d4 09 64 bc 10 86 8e bb
       0.00054927386 -0.09790051 -0.013918359 -0.0043494776
000020 9b d6 06 3d 54 83 e1 bd 1e a6 09 3e 96 e2 09 3d
       0.032919507 -0.11011377 0.13442275 0.033663355
000030 98 8d cc bd 5c f5 c2 3d b0 39 92 3c e4 66 77 3c
       -0.09987944 0.09519455 0.017849773 0.015100215
000040 e7 82 0b be 13 b6 3a 3b ad d5 ae bb b9 a6 9f 3c
       -0.13624154 0.0028489872 -0.0053355307 0.01948868
000050 99 6e 08 be 33 0c ae bc d4 b5 9e bd 44 62 3b 3c
       -0.1332344 -0.021246051 -0.07749525 0.011437003
000060 f2 2e cd 3c 85 f9 de 3c f3 c8 28 3b 86 7d 46 bd
       0.0250468 0.02721859 0.002575454 -0.048459552
000070 ca da c3 3d 55 a5 91 bc 3b ed 21 bd f5 e0 42 3d
       0.09563215 -0.017779032 -0.03953288 0.047577817
000080 fb bb 5b bd 15 0b 88 3d 66 a6 08 bd 4f 28 3b bd
       -0.05364607 0.06642739 -0.033361815 -0.04569274
000090 9f e0 e4 ba 5a 29 e3 bd ac 3f 2a 3e bc 75 93 bd
       -0.0017461962 -0.110918716 0.16625851 -0.072001904
0000a0 0b 23 72 3d d0 2b 9f 3d a2 cf f1 3d c0 e0 8a 3d
       0.05911545 0.077720284 0.11807181 0.06781149
0000b0 06 97 8b 3d 70 1d b2 3d 98 18 c2 3d 37 0c cd 3d
       0.06815915 0.08697021 0.09477347 0.100120954
0000c0 a3 4a 0d 3d 21 90 16 3d 73 11 89 bc 1e 2a be 3b
       0.034495007 0.036758546 -0.016731953 0.0058033606
0000d0 5b f4 50 bd 17 db fc 3d 56 ff ee bc 00 2c 8f 3d
       -0.051014286 0.123464756 -0.029174488 0.06990814
0000e0 ce 89 1c 3e 1b 91 fe 3a 53 63 2a bd 1d 0c b1 bd
       0.15286943 0.0019421907 -0.04159863 -0.086448886
0000f0 26 37 9d 3d 2b c5 94 bd a8 1e 6d 3c 3d 01 48 bd
       0.07676534 -0.07264169 0.014472641 -0.048829306
000100 70 46 9f bd d7 f8 aa 3d ec c7 ed bd ac 17 d5 bd
       -0.07777107 0.08348244 -0.11610398 -0.10404906
000110 36 0e 1b 3c 8f c9 02 be 49 fb 5a bd cc e4 6c 3d
       0.009463837 -0.12772201 -0.0534623 0.057835385
000120 e7 2c 82 3d a7 5e 0a 3e bd b7 dc bc a5 91 87 bd
       0.06356221 0.1351267 -0.026943082 -0.06619576
000130 49 15 13 3e c2 22 21 3d 7c 3f 58 bd fa 24 7d 3c
       0.14363588 0.03933979 -0.05279492 0.01545071
000140 56 5b 4a 3c f3 a5 d1 bc 4f 8c 69 3d 85 ad 17 3e
       0.012350878 -0.025591826 0.057018574 0.14812286
000150 54 ea 98 bd 88 f6 f0 bb b3 b6 39 bd 76 34 ac bd
       -0.074665695 -0.0073536076 -0.04534025 -0.08408444
000160 e7 a1 80 3d 58 0d 35 bd f2 94 cc 3c de 19 82 3a
       0.062808804 -0.04420218 0.024973366 0.0009925922
000170 f5 39 92 3d 04 7a a4 bc 88 17 e7 3c 19 17 af 3d
       0.07139961 -0.020077713 0.028209463 0.085493274
000180 81 cf 9e bc 33 d7 e7 3c a0 0d 05 bc 1b 8f 9a 3c
       -0.019386055 0.028300857 -0.008120924 0.018867066
000190 e9 30 a1 3d 13 56 f4 bb 0f 5c c9 bc 6e b8 2d bc
       0.07870657 -0.00745655 -0.02458003 -0.0106030535
0001a0 bf 52 89 3c ad e9 15 3d bd 91 62 bd ec ea be 3c
       0.01676309 0.036599804 -0.055314768 0.023305379
0001b0 73 a3 0b 3d bc 64 52 3c d8 7b 3b 3c 9c 15 b2 bd
       0.034091424 0.0128414 0.011443101 -0.08695528
0001c0 81 da 5d bc 1f 32 a5 bc 1e 0a bc 3d 7d 80 c0 bd
       -0.013540865 -0.020165501 0.09181617 -0.09399507
0001d0 be 50 49 3c 9d c4 97 bc 49 76 ad 3d cd 08 c0 3d
       0.012287317 -0.01852637 0.08469827 0.093766786
0001e0 75 07 f1 3d 22 9e 88 bd 5d 2c 80 3a 86 5c 86 3d
       0.117690004 -0.066707864 0.0009778846 0.06560616
0001f0 2d 31 5a bd 12 6b d1 3d f1 2e 83 3c e0 46 19 bd
       -0.053269554 0.102255 0.016013594 -0.037421107
000200 9f b0 ad bd 9a 12 bb 3d 58 d3 19 bd 7a 30 63 bc
       -0.084809534 0.09134407 -0.03755507 -0.013866538
000210 8f 30 b6 bd 71 be b6 bd c9 03 9f bd bd 69 ab 3d
       -0.088959806 -0.089230426 -0.07764394 0.08369777
000220 8b 12 1e 3d 1e 04 9d bc bd ae 48 be d2 bb 5b 3d
       0.038591903 -0.019167002 -0.19597907 0.053645916
000230 1e ab 2d 3e 61 c7 86 3d 8b 0b 94 3c a5 ae 17 3c
       0.16959807 0.06580997 0.01807191 0.009257947
000240 d9 3b 0b 3d 90 c3 26 3e 62 ac 16 3e a3 fd 23 bc
       0.033992622 0.16285539 0.14714196 -0.010009202
000250 c9 ac 63 bd e2 04 c6 bc 96 dd 2c bd 71 3a 83 3c
       -0.055584703 -0.02417225 -0.04220351 0.016019078
000260 ff 1d 8f bd c4 03 ba 3d 66 19 b1 3d 9c 9e 80 3d
       -0.06988143 0.090827495 0.086474225 0.06280252
000270 93 20 b6 3c 80 81 a8 3d 3b 39 60 3c 80 94 3b bd
       0.02223233 0.08227825 0.01368552 -0.045795918
000280 87 44 76 3d 8f ab 10 3d de ed ea 3c 98 4c a5 bd
       0.060123947 0.03531986 0.028677877 -0.0807125
000290 ab 6e 0f 3c ea 1c 22 3d eb 47 b8 bc c5 27 aa bd
       0.008754413 0.039578356 -0.02249523 -0.08308367
0002a0 fb 9e f7 bc 0d 98 b9 bd c2 b0 46 3d 50 79 e9 bc
       -0.030227175 -0.090622045 0.048508413 -0.02850023
0002b0 9d d7 ad bd b3 41 c0 bd 50 74 08 3c a7 38 38 3d
       -0.084883906 -0.09387531 0.008328512 0.044975903
0002c0 ed 1a 0f 3d f1 ed 62 bd 26 df 91 bd b5 4b ee 3d
       0.034937788 -0.0554027 -0.0712264 0.11635534
0002d0 bf 71 ae 3c 1a 75 cc 3c b6 f8 9c bb 0a 9e a8 3d
       0.021294473 0.024958182 -0.004790391 0.082332686
0002e0 52 23 f4 3d 5f 44 f4 3d 75 33 fb 3c 47 54 07 3d
       0.11920799 0.11927103 0.030664185 0.033039358
0002f0 3f 3c 6b 3d da bf f4 3c 8d 99 8a 3d cd 5f b8 3d
       0.057430502 0.029876638 0.06767569 0.090026475
000300 d1 4d 35 bd d7 cb 03 3d 5b ab bf bd 07 61 b4 3d
       -0.044263665 0.03217682 -0.09358855 0.08807569
000310 14 d2 1d 3d fd a2 c9 3c fa 05 82 bd 5f e3 88 bd
       0.038530424 0.024613852 -0.06348796 -0.066839926
000320 13 02 b6 3d e7 ad ba 3c 6f a6 55 3d cf 53 80 bd
       0.088871144 0.022788001 0.052160677 -0.06265985
000330 0e 82 05 3e 47 66 c0 3c 97 40 6d 3d 44 5b 24 3c
       0.13037893 0.02348627 0.057922926 0.010031525
000340 83 23 33 bd 3d 23 9d bb 52 a0 92 bc 5e 0c 38 bd
       -0.04373504 -0.0047954605 -0.017898712 -0.04493367
000350 de 15 12 3e a3 8f c4 ba 9c 48 78 bd 56 87 8c bd
       0.14266154 -0.001499642 -0.06061612 -0.06861751
000360 be e2 89 3d b1 9f 03 be bb 8d 8e bc 61 b8 0b 3d
       0.06732701 -0.12853886 -0.017401567 0.034111384
000370 b1 63 0b 3e 75 1d a6 3d fa 3f 55 3d bf 85 eb bd
       0.13612248 0.08111087 0.052062966 -0.115001194
000380 e3 31 70 bc da fe eb 3c c4 1f aa 3c 3b 4e 52 3d
       -0.014660331 0.028808046 0.0207671 0.051344138
000390 0f cd af 3a 40 fb 52 bd 83 62 a1 bd 63 ab 46 bd
       0.0013412553 -0.051509142 -0.07880118 -0.04850329
0003a0 38 29 1e 3e 3a d2 9a 3c 74 10 b8 bd ed 2a 8b 3d
       0.15445411 0.018899072 -0.08987513 0.06795297
0003b0 6d b4 8a 3d 15 9d a3 3c 8c b3 08 be 95 e0 3f bd
       0.06772695 0.019972363 -0.13349742 -0.046845037
0003c0 e6 3d 34 3d 0d 8a b3 bd 20 b8 93 bc e3 9c eb 3a
       0.044004343 -0.087665655 -0.018032134 0.0017975833
0003d0 c8 55 d4 3c 0c 02 b5 bd 9f 9f a4 bd e1 35 78 bd
       0.02591981 -0.08838281 -0.08038258 -0.060598258
0003e0 ab 73 f5 bd c9 57 25 3d e0 93 a2 bd 98 fc 81 3c
       -0.119849525 0.04036692 -0.07938361 0.015867516
0003f0 b4 50 3f 3d 17 86 bc 3d dd 34 3d bd 3d 21 64 3d
       0.046707824 0.09205263 -0.046192992 0.05569576

layers.9.bias f4 [84]
000000 b9 2a 92 bd 53 a7 97 ba b9 ae 7f 3c e6 b1 e3 3c
       -0.07137055 -0.0011570252 0.015605622 0.02779479
000010 fd 81 b9 bd 2d c9 0e 3e 87 f0 a2 3d 2b 17 6c bd
       -0.090579964 0.1394393 0.07956033 -0.057639282
000020 66 c1 66 3c 91 48 54 3d 4b 43 da 3d 67 70 24 bc
       0.014084196 0.051827017 0.10657366 -0.010036564
000030 98 b9 a9 3b 05 f5 2f bd 54 ca ba 3d 3e 4e 73 3d
       0.005179595 -0.04295828 0.09120622 0.05940079
000040 b6 ab 71 3d da 70 d3 bd ad ad 24 bd 33 f8 90 bd
       0.059001647 -0.10324259 -0.040204693 -0.0707859
000050 0e 63 5b bc 0c f1 01 3d aa 71 0a 3d 1a e2 3f bd
       -0.013390316 0.03172402 0.033799805 -0.046846487
000060 a0 39 9d 3d 9d 87 db 3d 37 72 2b bd 0c dd b6 bd
       0.07677007 0.107192256 -0.04185697 -0.0892888
000070 7c ca 54 3d 49 e9 a0 bd 65 51 c0 3c bb 9a d9 bc
       0.051950917 -0.078569956 0.023476312 -0.026563039
000080 ae d5 20 3d 4c 65 c2 3c 1b bb c4 bc e3 7e b2 bc
       0.03926628 0.023729943 -0.024015 -0.02178902
000090 28 2d 08 bd e8 49 13 3d b3 48 c8 3c 4a 62 5e 3b
       -0.03324619 0.035959154 0.024448728 0.0033933097
0000a0 39 5b 40 bd 7e a3 9b 3d 0e a8 60 bc 1b 2d 79 bd
       -0.046961997 0.07599543 -0.013711942 -0.06083403
0000b0 1a cb 85 bd 45 5b 98 3c f0 7f 81 bd 1c 2f 23 3d
       -0.06532879 0.018598208 -0.0632323 0.03983985
0000c0 6e cd f5 3c 99 fc f8 bb 72 6a 40 3d 35 d9 ec 3d
       0.030005183 -0.0075984714 0.046976514 0.115648665
0000d0 50 f2 60 3d ec 09 3e bd e8 af ce 3d 3c 8c b6 bd
       0.054918587 -0.04639618 0.10092145 -0.08913466
0000e0 e0 af 04 bd 68 c6 8b bd 3e 33 b0 bd 0a 36 a3 3d
       -0.03239429 -0.06824952 -0.08603524 0.079692915
0000f0 e0 13 89 3d 3c 06 58 bd 35 f7 ca 3d 2c 2e 1b 3d
       0.06693244 -0.05274032 0.09910432 0.03788583
000100 c2 59 ac 3c 49 6a 75 bb b9 1a 35 3c 34 d7 37 bd
       0.021038894 -0.0037447384 0.011053734 -0.044882968
000110 03 0b bb 3d ed 12 36 bd aa 13 ae 3d fd 2e dd 3b
       0.0913296 -0.044451643 0.08499844 0.006749986
000120 e2 1d 07 bd 05 35 42 3c 3e 67 80 3d 3c 63 be bd
       -0.032987483 0.011853461 0.06269692 -0.09296271
000130 83 d5 75 3d 02 88 2a bc c6 a6 8d 3d 85 90 66 bd
       0.060018074 -0.010408403 0.06916575 -0.05629017
000140 9d 54 41 bd 73 8a 65 bc 5d 7f 83 3c c9 6a c0 bd
       -0.047199834 -0.01401006 0.016051942 -0.09395368

layers.11.weight f4 [10, 84]
000000 37 e2 9d 3d 7c d4 96 bd 14 cc ef 3d 65 2b 7e bd
       0.07709163 -0.07364747 0.11708847 -0.062053103
000010 d8 c3 1c 3d f6 16 14 bd 7a 16 3e 3d ab 2e de 3c
       0.03827271 -0.03615471 0.046408154 0.027121862
000020 e0 8b d2 3d bc 6d 8f bd f7 dd ce 3d 93 cb c2 3c
       0.10280585 -0.07003352 0.1010093 0.023778712
000030 67 b6 96 bd 0b 3f d1 3b 97 c0 17 3c 54 f1 ac 3d
       -0.07359009 0.006385689 0.009262226 0.08444467
000040 3c 27 ea 3c 3e 17 a4 bd 91 79 05 3d 0b 1f 3f bd
       0.028583162 -0.080122456 0.032586638 -0.046660464
000050 e3 87 8a bc 7a 03 99 bd e7 6d 2e 3d d1 9e 15 3e
       -0.016910499 -0.07471366 0.04258528 0.14611365
000060 f0 ea b8 3d c3 89 91 bd 93 9a 18 bd 61 4c 00 be
       0.09029186 -0.07106354 -0.03725679 -0.12529136
000070 73 a8 87 3d a5 93 09 3d 60 e9 c1 3d 35 9a d0 3d
       0.06623926 0.03358807 0.09468341 0.10185663
000080 6c 48 45 bd 49 60 9e bd df ed e8 3c 84 54 13 bd
       -0.04816477 -0.07733209 0.028433738 -0.035969272
000090 34 89 46 3d 29 3d 6b bd 40 97 df bd 2e 83 80 3d
       0.04847069 -0.057431374 -0.109175205 0.062750205
0000a0 b9 97 6b bd 00 f9 39 3e f1 ff 31 3d ff a6 2a be
       -0.05751774 0.18161392 0.043456975 -0.16665266
0000b0 43 63 52 3d 05 e9 17 bd ff 20 0f be 88 a2 3e bd
       0.051364195 -0.03708746 -0.13977431 -0.04654172
0000c0 52 d7 cf bc 25 25 0a 3e 77 45 1e be 66 19 2a be
       -0.025371227 0.13490732 -0.15456186 -0.16611251
0000d0 75 3e 09 be 41 19 da bc ae d2 d1 39 e3 9c cc bc
       -0.13402732 -0.02662337 0.00040020555 -0.024977153
0000e0 5b 9e 6d 3c d4 e8 3f be 1d 60 76 3d 74 2c 59 3d
       0.014503087 -0.1874116 0.060150255 0.05302091
0000f0 bb 51 85 3d 89 99 7f bd 44 e7 fe 3d 1a 2a 93 bd
       0.065097295 -0.062402282 0.12446454 -0.071857646
000100 58 6f df bd 54 67 06 3d 69 11 c0 3b 49 88 6a 3b
       -0.10909909 0.032813385 0.0058614505 0.0035786799
000110 c4 7c 06 be fe 17 0e be 3a db 12 bd 8d 5c 8a 3d
       -0.13133532 -0.1387634 -0.035853602 0.06755934
000120 8c 3a 55 3d f8 ed 10 3e 43 de e7 3d 8f 26 9d 3d
       0.052057788 0.14153278 0.1132169 0.0767337
000130 47 ea 85 bd 54 e1 26 be 96 82 ee 3d fa 36 93 3d
       -0.065388255 -0.16296893 0.11646001 0.0718822
000140 1b d5 d2 3c 6e e7 8d 3d 1f 9b 27 3d f3 f6 18 bd
       0.025736382 0.06928907 0.04091942 -0.037344884
000150 95 e2 74 bd c1 d2 83 bd 8c 99 cc 3d a6 99 f3 bd
       -0.059786398 -0.064366825 0.09990224 -0.118945405
000160 e7 e9 a7 bd e0 f1 1d 3a 54 42 1c be 71 6d b0 3d
       -0.0819891 0.0006025117 -0.15259677 0.08614624
000170 da 58 0a be 89 79 1b be e2 80 ee 3d d2 a5 44 bd
       -0.13510457 -0.1518308 0.11645676 -0.0480097
000180 d5 99 f1 bd 2b 78 2e be 99 18 1d bd 67 c7 99 ba
       -0.11796919 -0.17038028 -0.038353536 -0.00117324
000190 95 47 ab 3d c4 fa 94 bd f9 36 f0 bd ca b7 88 3d
       0.083632626 -0.07274392 -0.11729235 0.0667568
0001a0 49 61 c6 3d 27 0b 45 bd a0 20 c5 bd 43 1a 0f be
       0.096865244 -0.04810634 -0.09625363 -0.13974862
0001b0 1e 86 1a bc c1 ab 01 3e 96 f7 04 be ee 6f 94 3c
       -0.00943139 0.12663175 -0.12985072 0.018119778
0001c0 b7 9b 9a 3d a3 a3 a6 3d 88 c2 f7 bc 24 5d 99 3d
       0.075492315 0.0813668 -0.030244127 0.07488468
0001d0 bb a5 79 bc d8 02 8d 3d e2 36 09 3e cb 5c 24 be
       -0.015237267 0.06885308 0.13399842 -0.16051023
0001e0 ce 4c a4 bb 67 e3 ee bc fe ed 8c 3d 32 07 d7 bd
       -0.0050140386 -0.029161168 0.06881331 -0.10499419
0001f0 fd 68 9b bd e6 25 1a bd c4 27 b2 3c e4 50 ca bc
       -0.07588384 -0.0376338 0.021747477 -0.024696775
000200 0a d6 02 3d 04 20 04 be f8 a2 0b be f7 88 cc bd
       0.031942405 -0.12902838 -0.13636386 -0.099870615
000210 02 7d bf 3d 82 93 43 3e c2 73 d2 3d 83 35 c9 bd
       0.09350015 0.19099239 0.10275985 -0.0982466
000220 af ee 07 3e 2f e2 e7 bd 4a fb 28 be 47 db ab 3c
       0.13274644 -0.11322438 -0.16502109 0.020978583
000230 35 0c a2 3d 19 f6 f6 3d 72 52 39 bd b2 6c df 3d
       0.079124846 0.12058658 -0.04524464 0.10909404
000240 28 1b e8 3d 1f 60 d8 3d f3 bf 53 be 09 7d 00 3e
       0.11333305 0.10565209 -0.20678692 0.12547697
000250 8e 41 f6 3d af c0 e2 3c 70 46 44 be 4a 97 3f 3c
       0.12024222 0.02767977 -0.19167495 0.011693785
000260 6e 75 bf 3d c0 10 d4 bd c2 4e 54 bd d9 c4 4e 3d
       0.0934857 -0.10354757 -0.05183292 0.050480697
000270 63 13 b4 3d 34 5f b4 3d d0 17 35 bd 9a 5d f2 bd
       0.0879276 0.08807221 -0.044212162 -0.11834259
000280 e8 c8 0b be 63 ac a1 bd f7 53 ad 3b 96 79 9d 3d
       -0.13650858 -0.07894208 0.0052895504 0.07689206
000290 6c 3e 57 bd fb ca d3 bc d9 ef 57 bd 50 ab be 3d
       -0.052549765 -0.025853625 -0.05271897 0.09310019
0002a0 74 d9 1b 3c f0 66 9b 3d 6b 04 15 be 69 ee 91 3c
       0.009512294 0.07587993 -0.14552467 0.017813878
0002b0 76 46 1f 3d 53 1b 11 be fd 41 4f 3d 88 78 33 3e
       0.038885556 -0.1417058 0.05060004 0.17526448
0002c0 7f fc 81 3d 7e b1 ce 3c 85 24 ed 3d 59 0b 63 bd
       0.06346988 0.02523112 0.11579231 -0.055430744
0002d0 e9 20 02 bc 74 2c 8f 3d fe a9 bb bb 36 58 b2 bd
       -0.007942417 0.06990901 -0.0057270518 -0.08708231
0002e0 b1 1f 20 be 07 5b 6a 3c 87 6e 8d 3d 7d 64 a8 3d
       -0.1563709 0.014303929 0.06905847 0.082222916
0002f0 5d f9 11 be fe 82 e0 3d 4d a5 10 3d 8e 65 f7 3d
       -0.14255281 0.10962485 0.035313893 0.12079917
000300 76 1d c0 bc 2c 98 d4 3b ea f6 35 3c dc b5 06 bb
       -0.023451548 0.006487867 0.011106232 -0.0020555174
000310 c5 17 f9 3b c2 c6 23 3d a1 a2 c0 bd 41 06 8b 3d
       0.0076017105 0.039984472 -0.09406019 0.06788302
000320 e0 41 03 3e ee ff 1e 3d 65 e9 57 bd 3d 8c 2f 3b
       0.12818098 0.038818292 -0.052712817 0.002678647
000330 da 33 96 3d 8a 8b 0e be 9d 5c ba 3d 20 79 46 bd
       0.07334109 -0.13920417 0.09099696 -0.048455358
000340 91 81 b0 bd 05 9f 6c bd 56 47 c7 bd 13 c0 17 3e
       -0.08618463 -0.05776884 -0.09730403 0.14819364
000350 c7 df 23 3c 9b f1 15 3d 11 00 0b bd 15 31 d6 3d
       0.010002083 0.036607366 -0.03393561 0.104585804
000360 1b cf 06 3e 77 1c 9c bd 24 5a 6c bd 67 45 0b be
       0.13164942 -0.07622617 -0.057703152 -0.13600694
000370 00 25 bd 3d 02 0e 6c 3e 54 d2 5c bc 8a df 69 bd
       0.09235573 0.23052219 -0.0134778805 -0.05709795
000380 2a 4f 6c be 6d d9 c0 be 85 cd 28 3b 68 4c 00 be
       -0.23077074 -0.37665883 0.0025757265 -0.12529147
000390 f1 e3 0b 3d 44 5c a8 3d 9c e9 40 3d 39 7b 81 3d
       0.03415293 0.08220723 0.047097787 0.06322331
0003a0 6d 75 e9 bd 09 51 90 bc 49 32 ea 3d aa 90 eb 3c
       -0.1139935 -0.017616766 0.114353724 0.028755505
0003b0 43 db 92 3d 01 29 a6 3c c1 8a 4d be 55 8f 96 bd
       0.07170727 0.020283224 -0.20072462 -0.07351557
0003c0 36 f8 21 be cf 00 9a 3b a2 f3 ec 3d 60 91 12 3c
       -0.15817341 0.0046998034 0.11569907 0.008945793
0003d0 71 50 9b bd b2 28 19 3c 50 3a 4f 3c e1 98 84 3d
       -0.07583702 0.009348081 0.01264818 0.06474472
0003e0 cf 92 94 bd 19 23 b7 bd de 06 06 be 7f d9 b4 3d
       -0.07254564 -0.08942241 -0.13088557 0.088305466
0003f0 29 25 be bd b2 f2 17 3e f6 d3 cc bd 5a 47 27 bd
       -0.092844315 0.14838675 -0.10001366 -0.04083953

layers.11.bias f4 [10]
000000 43 1e 43 bd 02 be 75 bd 3b c8 a8 bd 77 28 9e bd
       -0.04763628 -0.05999566 -0.08241316 -0.07722562
000010 f7 cb e7 bb dc a2 c2 3c b6 57 81 3c 17 d6 3e bd
       -0.007073875 0.023759298 0.015788894 -0.04659089
000020 46 e0 be bd ae e8 af 3d
       -0.093201205 0.08589302
