model/lenet5.pth (torch_old, 248655 bytes, 10 tensors)

layers.0.weight f4 [6, 1, 5, 5]
0.13079634 -0.33491656 -0.22134122 -0.32508382 -0.28882816 -0.116852924 -0.075038016 -0.40309912
0.0068215504 -0.13806279 -0.019294936 0.071100235 0.042696964 0.19229268 0.24647027 0.3484991
0.14698757 0.16889007 0.16074933 0.16623697 0.11853406 0.2375836 0.2373972 0.07207695
0.05388672 -0.085420206 0.13876516 0.19234192 -0.10831618 -0.17559132 0.09944209 -0.07089644
-0.006371636 0.036278706 0.041439127 0.20793307 0.15741383 0.1381404 0.37845758 0.37905765
-0.15978557 -0.17252319 -0.13079606 0.29011774 0.14909756 0.049358204 -0.0696338 0.032042686
-0.35052416 -0.33192903 0.23061451 -0.062343407 0.23060507 0.13132977 -0.25417364 -0.026007231
0.14052533 0.2811485 -0.018912677 -0.21035576 -0.13369495 0.24059662 0.24822724 -0.024043381
-0.2148298 0.21234421 -0.10810862 0.2721883 0.30834714 0.2650189 -0.044961 -0.11400471
0.2031088 0.083263814 0.04494397 -0.2629012 -0.11301616 -0.19897042 -0.30489603 -0.0879603
-0.1432349 -0.36132297 -0.19703642 0.24519369 0.31032363 -0.010946821 -0.101076394 0.038523056
0.25232938 0.19687994 -0.19676553 0.21266787 0.40190232 0.17462489 0.24625094 0.14241852
0.11053977 0.06746028 0.12210601 -0.07220653 0.20706843 -0.0060454234 0.2731477 -0.13932748
-0.1658214 0.30056968 0.12861742 -0.04995047 -0.2193054 -0.20232643 0.2364936 0.25924534
-0.029838758 -0.38883907 -0.37525973 0.102951355 0.29387414 -0.08120363 -0.23843738 -0.13361946
0.2788806 0.16989611 0.095978215 -0.1694768 -0.028211597 0.14218941 0.18395607 -0.09613765
-0.21529035 -0.27487874 0.023774266 -0.094368815 0.012100572 -0.2781291 -0.20627081 0.0022739242
-0.0034992504 0.31682917 0.29580277 0.13811173 -0.0067546978 0.08159084 0.3574474 0.037996866
0.227039 0.11342915 -0.26819056 -0.018555295 -0.1029894 0.10422407
00000000: 7aef 053e 2f7a abbe 46a7 62be 6371 a6be
00000010: 49e1 93be 9650 efbd 88ad 99bd 0263 cebe
00000020: 5087 df3b 5560 0dbe 6a10 9ebc 009d 913d
00000030: 03e3 2e3d 5fe8 443e b462 7c3e 796e b23e
00000040: e983 163e 85f1 2c3e 799b 243e 063a 2a3e
00000050: fcc1 f23d 1e49 733e 4018 733e 149d 933d
00000060: 52b8 5c3d caf0 aebd 7418 0e3e 48f5 443e
00000070: e0d4 ddbd 36ce 33be 4ba8 cb3d 2732 91bd
00000080: 28c9 d0bb fb98 143d 13bc 293d 68ec 543e
00000090: 1731 213e ad74 0d3e 31c5 c13e d813 c23e
000000a0: d49e 23be eba9 30be 67ef 05be 508a 943e
000000b0: 08ad 183e d42b 4a3d 2a9c 8ebd 313f 033d
000000c0: e777 b3be 9af2 a9be 3626 6c3e cd5b 7fbd
000000d0: bc23 6c3e 507b 063e 0c23 82be 1e0d d5bc
000000e0: dfe5 0f3e b2f2 8f3e c2ee 9abc 8067 57be
000000f0: 54e7 08be f65e 763e 482f 7e3e a0f6 c4bc
00000100: 58fc 5bbe c370 593e 0d68 ddbd 445c 8b3e
00000110: addf 9d3e 8fb0 873e 0729 38bd 4d7b e9bd
00000120: c1fb 4f3e 3886 aa3d 2b17 383d fc9a 86be
00000130: 0475 e7bd e7be 4bbe 551b 9cbe 8824 b4bd
00000140: 2bac 12be 53ff b8be eac3 49be 0e14 7b3e
00000150: bde2 9e3e 4c5a 33bc 2401 cfbd 5aca 1d3d
00000160: 5131 813e e59a 493e e77c 49be 9bc5 593e
00000170: 24c6 cd3e ded0 323e 3529 7c3e 29d6 113e
00000180: ad62 e23d 9e28 8a3d b712 fa3d 04e1 93bd
00000190: bf09 543e b018 c6bb 04da 8b3e ddab 0ebe
000001a0: 16cd 29be 45e4 993e 49b4 033e dd98 4cbd
000001b0: 9891 60be a92e 4fbe 612b 723e cebb 843e
000001c0: 6970 f4bc ea15 c7be 0b22 c0be 29d8 d23d
000001d0: ac76 963e 174e a6bd ee28 74be 8ad3 08be
000001e0: 70c9 8e3e 3ff9 2d3e 3a90 c43d 548b 2dbe
000001f0: 021c e7bc 1a9a 113e fb5e 3c3e d1e3 c4bd
00000200: 1375 5cbe e8bc 8cbe 40c2 c23c 7044 c1bd
00000210: 7a41 463c f066 8ebe a838 53be 1e06 153b
00000220: ae53 65bb 6f37 a23e 7673 973e 296d 0d3e
00000230: 8356 ddbb 1919 a73d 5803 b73e 9aa2 1b3d
00000240: e97c 683e 8b4d e83d 4650 89be 4601 98bc
00000250: 1bec d2bd 6e73 d53d

layers.0.bias f4 [6]
0.28729534 0.25157166 -0.18015538 0.15730113 0.004347819 -0.102886744
00000000: 6018 933e 00ce 803e a77a 38be 8c13 213e
00000010: 2678 8e3b 49b6 d2bd

layers.3.weight f4 [16, 6, 5, 5]
-0.09406106 -0.065620355 -0.057945065 -0.044028368 -0.048045505 -0.19630365 -0.119010285 -0.010091895
0.12285364 0.17460656 0.03875734 0.055935808 0.04696445 0.14679645 0.039060768 0.10806934
0.12590124 0.064738244 -0.17186396 -0.1549453 0.12971357 -0.14047535 -0.2899174 -0.059992526
-0.053040113 -0.010458805 0.03322542 -0.08455505 -0.14127728 -0.11191798 0.0030015884 -0.08551273
-0.100492425 0.0960856 0.08841702 -0.10768916 -0.1424303 0.10382296 0.118426785 0.052827332
0.0062470078 0.108811505 0.062145945 0.097358495 0.0960308 0.17460199 0.087779485 0.060199205
-0.010252584 0.041454334 0.05331438 0.017027015 -0.047590237 -0.041928902 -0.068720885 -0.070807025
-0.014949564 -0.07260458 -0.17171162 -0.037241437 -0.030210786 -0.11994739 -0.13225071 -0.12660792
0.030601416 0.021247037 -0.07155272 0.0003403765 0.06176056 -0.027308423 0.18567659 0.08016777
0.10541633 0.093431875 -0.051796198 -0.062009193 -0.080278955 -0.15875554 -0.17221206 -0.06689335
-0.16684759 -0.20312046 0.011807184 0.09378404 0.13355865 0.06599518 0.122053884 0.14246964
0.22244754 -0.022552874 0.20814224 0.1459691 0.20870054 -0.07756126 -0.2527423 0.30367854
0.05633143 -0.13779609 -0.20356052 -0.3010878 0.0611861 0.07069578 -0.04192663 -0.027232934
-0.103928365 -0.1627104 -0.08624358 -0.2189248 -0.101436645 0.004467603 -0.16340396 -0.2911952
-0.40024945 -0.012990957 0.09878796 -0.2839335 -0.27210757 -0.032637767 0.107205495 0.028887097
-0.038712993 0.13759191 0.19031543 0.00032027916 -0.048092935 0.046378043 0.14502871 0.019060604
-0.074790426 -0.054827522 -0.097344115 0.013389802 0.069949314 0.09664547 0.06703231 0.06610098
-0.028716654 0.09544462 0.19538428 -0.04045933 -0.02470213 -0.037111644 -0.1273797 -0.010042583
0.1114337 0.01641684 -0.034566972 0.019176833 0.10627183 0.10079963 -0.06636965 -0.21733825
-0.12602413 0.012931839 -0.03817078 0.037830148 -0.21056227 -0.11012652 0.07999991 -0.032895803
0.024552977 -0.07248645 -0.091026865 -0.065423526 -0.02674222 -0.07350971 -0.082882926 -0.17256851
-0.07907793 -0.045111798 0.07427741 0.019534787 -0.1339186 -0.03152999 -0.08651544 -0.10650463
0.015842209 -0.035307635 -0.07090076 -0.039191384 -0.32500476 -0.059917834 -0.041023374 -0.088096395
-0.01538166 -0.3010489 -0.09720413 -0.04095379 0.045000806 0.00749184 -0.09081862 -0.103710935
-0.034071546 -0.0016222859 0.11562384 0.08180952 0.023958081 0.022240182 0.03981128 -0.007468843
-0.13767055 0.09279929 0.18800461 -0.10765706 -0.0064553022 -0.30751216 -0.11576824 0.17357609
0.057458907 -0.05991983 0.0054264595 -0.22457711 0.13174954 0.0695372 0.11346596 0.12662782
-0.15335345 0.034670994 0.14353165 0.19871746 0.00937463 0.03280679 0.12172994 -0.024799595
0.13898115 -0.13707148 0.014433966 0.005743066 -0.0085971635 0.093986824 -0.19985661 -0.14557308
0.054732956 0.0105367545 0.10560605 -0.16974497 -0.01695946 0.09613815 -0.096715845 -0.039308183
-0.035866324 0.007751201 0.097881146 -0.03551317 0.03529171 -0.05584758 0.03563782 -0.03692592
-0.069080256 -0.04817155 -0.030608254 -0.08897981 0.00052391464 0.28025892 -0.1124896 0.3107729
00000000: 16a3 c0bd f763 86bd ce57 6dbd 1757 34bd
00000010: 5dcb 44bd d303 49be aabb f3bd 7a58 25bc
00000020: b09a fb3d 10cc 323e 04c0 1e3d f21c 653d
00000030: cc5d 403d cf51 163e 2ffe 1f3d 7553 dd3d
00000040: 41ec 003e 7c95 843d 1bfd 2fbe fba9 1ebe
00000050: a2d3 043e c5d8 0fbe 0e70 94be b9ba 75bd
00000060: 9740 59bd 685b 2bbc 6117 083d 332b adbd
00000070: feaa 10be 4135 e5bd 4cb6 443b 4c21 afbd
00000080: f9ce cdbd 87c8 c43d fc13 b53d 228c dcbd
00000090: 40d9 11be 22a1 d43d be89 f23d 7961 583d
000000a0: b3b3 cc3b 91d8 de3d bf8c 7e3d e463 c73d
000000b0: ccab c43d ddca 323e bbc5 b33d 7193 763d
000000c0: 74fa 27bc 05cc 293d 2e60 5a3d 3d7c 8b3c
000000d0: fbed 42bd a4bd 2bbd 89bd 8cbd 4603 91bd
000000e0: 04ef 74bc b6b1 94bd 2cd5 2fbe 7a8a 18bd
000000f0: 9c7c f7bc faa6 f5bd bb6c 07be 82a5 01be
00000100: d2af fa3c 440e ae3c 3c8a 92bd 8f74 b239
00000110: a4f8 7c3d eab5 dfbc 0122 3e3e 002f a43d
00000120: 84e4 d73d 3659 bf3d 4028 54bd 5afd 7dbd
00000130: 4b69 a4bd d090 22be 5c58 30be 61ff 88bd
00000140: 18da 2abe cffe 4fbe eb72 413c d911 c03d
00000150: 99c3 083e 7b28 873d 63f7 f93d 90e3 113e
00000160: 4ac9 633e cec0 b8bc 3d23 553e ec78 153e
00000170: 98b5 553e 70d8 9ebd 7067 81be c17b 9b3e
00000180: c9bb 663d 6b1a 0dbe 2b72 50be 2e28 9abe
00000190: 479e 7a3d f3c8 903d 42bb 2bbd 9a17 dfbc
000001a0: 65d8 d4bd 8e9d 26be 79a0 b0bd d32d 60be
000001b0: 04be cfbd f864 923b 5e53 27be 8a17 95be
000001c0: 7fed ccbe 06d8 54bc 5851 ca3d bb5f 91be
000001d0: af51 8bbe 2eaf 05bd 8e8e db3d a2a4 ec3c
000001e0: 8491 1ebd e5e4 0c3e 0ce2 423e 24eb a739
000001f0: 19fd 44bd e7f6 3d3d 6882 143e fc24 9c3c
00000200: b92b 99bd d392 60bd 5a5c c7bd e660 5b3c
00000210: 9641 8f3d 0fee c53d 3c48 893d f35f 873d
00000220: 303f ebbc 7878 c33d d112 483e afb8 25bd
00000230: 1f5c cabc 6102 18bd d36f 02be a589 24bc
00000240: 5a37 e43d 9c7c 863c 1996 0dbd bc18 9d3c
00000250: 0ca5 d93d 0970 ce3d d0ec 87bd eb8d 5ebe
00000260: 780c 01be 10e0 533c f758 1cbd c9f3 1a3d
00000270: a39d 57be 038a e1bd fed6 a33d c0bd 06bd
00000280: 5323 c93c c773 94bd 4b6c babd c5fc 85bd
00000290: 8012 dbbc 428c 96bd 86be a9bd cdb5 30be
000002a0: 9cf3 a1bd 26c7 38bd c11e 983d 6b07 a03c
000002b0: f521 09be 9725 01bd 022f b1bd 191f dabd
000002c0: 85c7 813c bd9e 10bd 6b34 91bd 2587 20bd
000002d0: 0667 a6be 676c 75bd 2008 28bd e26b b4bd
000002e0: 5c03 7cbc 1523 9abe f512 c7bd 29bf 27bd
000002f0: c452 383d 1c7e f53b 1dff b9bd 6666 d4bd
00000300: 9b8e 0bbd e2a2 d4ba 31cc ec3d c08b a73d
00000310: bd43 c43c 0b31 b63c 2711 233d 32bd f4bb
00000320: 82f9 0cbe 8e0d be3d 4884 403e 4e7b dcbd
00000330: 0087 d3bb 3c72 9dbe e617 edbd eebd 313e
00000340: 085a 6b3d 7f6e 75bd 71d0 b13b 8bf7 65be
00000350: 5ae9 063e 8569 8e3d d760 e83d b9aa 013e
00000360: b008 1dbe 2c03 0e3d f6f9 123e 977c 4b3e
00000370: 0c98 193c 6a60 063d 8c4d f93d 8528 cbbc
00000380: 1351 0e3e 775c 0cbe 717c 6c3c 5430 bc3b
00000390: 1edb 0cbc 2a7c c03d 36a7 4cbe 1c11 15be
000003a0: aa2f 603d 5aa2 2c3c fc47 d83d a0d1 2dbe
000003b0: 91ee 8abc 14e4 c43d f512 c6bd 9e01 21bd
000003c0: 91e8 12bd c9fd fd3b e975 c83d 4276 11bd
000003d0: 0a8e 103d 6fc0 64bd f6f8 113d a23f 17bd
000003e0: f379 8dbd 884f 45bd 29be fabc 0c3b b6bd
000003f0: 5157 093a 197e 8f3e f360 e6bd a01d 9f3e

layers.3.bias f4 [16]
-0.14435832 -0.094433606 -0.15705235 -0.013366034 -0.10416235 0.04339431 -0.050234105 -0.06392166
-0.115265585 -0.027076008 0.0046788626 -0.0713066 0.024973614 0.005604746 -0.01929997 -0.10106571
00000000: abd2 13be 6866 c1bd 55d2 20be 36fd 5abc
00000010: 1253 d5bd 3bbe 313d 47c2 4dbd 5ce9 82bd
00000020: 5d10 ecbd 81ce ddbc 2551 993b 3209 92bd
00000030: 7795 cc3c 04a8 b73b f81a 9ebc 8afb cebd

layers.7.weight f4 [120, 400]
0.124279395 0.07512597 -0.016780231 -0.0748656 -0.041884433 0.112255774 -0.01663408 -0.113500796
-0.3007516 -0.297251 0.027474891 -0.019077107 -0.057343356 -0.16898805 -0.005081962 0.03975055
0.006066815 0.07232296 0.10699371 0.07457389 0.07309948 0.12222997 0.10143888 0.036980946
0.08583475 0.06266022 0.038694646 0.08523397 0.19470398 0.15788299 0.046030626 0.026438331
0.071028516 0.28119996 0.23444699 -0.046090826 -0.069523446 -0.13739686 0.14313063 0.13883036
-0.009254451 -0.077515855 0.037023127 0.00022489924 -0.04809588 -0.013891472 0.0035673087 -0.012770367
-0.01469576 -0.02109186 -0.01223307 -0.049702745 -0.105024084 -0.07195336 -0.031473704 -0.061928604
-0.030657278 -0.08193625 -0.10518794 0.07622398 0.06675515 0.044804916 -0.12541264 -0.039133884
0.017522063 0.07609975 0.055574995 -0.04624162 -0.0693763 0.16070266 0.07920462 0.101007745
0.007003713 -0.020602828 0.1787683 0.11766701 0.057032138 -0.05265775 -0.02322687 -0.11919407
-0.006434471 -0.033529557 -0.010306433 0.050227415 0.16182232 -0.010383604 -0.0884139 0.027639203
0.12860802 0.24058016 -0.062813036 -0.14851962 0.027455468 0.012442894 0.10785707 0.04083235
-0.074897744 -0.14656125 -0.10627634 0.015629638 0.074442826 -0.009734485 0.09037206 0.111057796
0.07259134 0.020762447 -0.02829563 0.02597886 -0.07662119 -0.03050399 0.056346044 -0.024027197
-0.027736282 -0.17760241 -0.19645536 -0.05397218 -0.005801004 0.0042920965 0.048873547 0.024125455
0.08775166 -0.0011033777 0.012350607 0.09471976 0.16831397 -0.012226577 0.055595845 0.021925123
0.019084118 -0.058424428 0.05382565 0.025781238 -0.035873428 -0.077509396 -0.15811366 -0.03870032
-0.021795562 -0.044958904 -0.14364521 -0.11757729 -0.047840532 0.022421615 -0.08930802 -0.040186487
0.045503512 0.059173744 0.0276962 0.044313323 0.044291835 0.045618176 0.038638785 0.0027973852
0.038140148 -0.12763721 -0.044212244 0.028660472 -0.031933054 -0.085212484 -0.09318082 -0.16866645
0.051985588 0.060769975 -0.015529709 0.033450674 0.043245617 0.111977994 0.0671629 0.006026436
0.06893149 0.15886435 0.07047659 0.011131078 -0.012813102 0.10159221 0.17971624 0.039077003
-0.017479902 0.06832146 0.15017761 0.027020225 0.003736363 0.023716288 0.049787857 0.110762954
0.013680858 0.010404611 -0.058385395 0.0030734795 -0.040442843 -0.04971644 -0.044578362 -0.07871363
-0.06954854 -0.17318945 -0.047391552 -0.006845391 -0.0025790245 0.019350678 -0.00166115 -0.030577369
0.0029357255 -0.07668334 0.03182701 0.057886112 0.08303653 -0.04897618 0.016570913 -0.03444932
0.058723576 0.0055454276 0.050449543 -0.02577023 -0.12124395 -0.06765061 -0.06267019 -0.021744959
-0.009199315 -0.079096824 0.091522716 0.0799863 0.024944859 0.034521356 0.037262667 0.07548578
0.18597376 0.00017199822 -0.008359526 0.046874408 0.07678394 0.017586414 -0.109864496 -0.013239298
-0.043294385 -0.046572983 -0.033490118 -0.14842498 -0.16108793 -0.050724797 -0.13039026 0.00942942
0.004299737 -0.0030490009 -0.07243077 -0.012297921 0.12187292 -0.008597655 0.0059972513 0.05748265
0.10089487 0.22514312 0.12360874 0.059193186 0.017674722 -0.051345065 -0.010321709 0.03325827
00000000: 3286 fe3d a5db 993d b276 89bc 2353 99bd
00000010: 038f 2bbd 5be6 e53d 3244 88bc 1b73 e8bd
00000020: 1dfc 99be 4831 98be 0613 e13c 9847 9cbc
00000030: dee0 6abd 340b 2dbe 9686 a6bb 79d1 223d
00000040: 22cc c63b 0f1e 943d 851f db3d 32ba 983d
00000050: 2eb5 953d b553 fa3d 30bf cf3d 5579 173d
00000060: 21ca af3d 0054 803d 477e 1e3d 268f ae3d
00000070: 7b60 473e 14ac 213e 9c8a 3c3d 3395 d83c
00000080: 6677 913d 71f9 8f3e df12 703e bcc9 3cbd
00000090: 4f62 8ebd c3b1 0cbe d690 123e 8c29 0e3e
000000a0: fb9f 17bc a2c0 9ebd 90a5 173d eed2 6b39
000000b0: 2f00 45bd 0e99 63bc 82c9 693b cd3a 51bc
000000c0: 7cc6 70bc d6c8 acbc 376d 48bc 1b95 4bbd
000000d0: de16 d7bd 495c 93bd 92ea 00bd d9a8 7dbd
000000e0: f924 fbbc 31ce a7bd c66c d7bd 511b 9c3d
000000f0: edb6 883d 5c85 373d 2c6c 00be da4a 20bd
00000100: 6e8a 8f3c 30da 9b3d 9ba2 633d da67 3dbd
00000110: 2915 8ebd 3d8f 243e 0836 a23d 26dd ce3d
00000120: 677f e53b 43c7 a8bc 0a0f 373e 67fb f03d
00000130: 889a 693d a7af 57bd 4746 bebc 051c f4bd
00000140: 41d8 d2bb 4a56 09bd 50dc 28bc 43bb 4d3d
00000150: c0b4 253e fe1f 2abc 5912 b5bd 9c6b e23c
00000160: d2b1 033e a55a 763e 1fa4 80bd 8715 18be
00000170: 4aea e03c 48dd 4b3c 2be4 dc3d d23f 273d
00000180: fd63 99bd 2714 16be 69a7 d9bd ba09 803c
00000190: 7b75 983d 647d 1fbc fd14 b93d 4572 e33d
000001a0: c5aa 943d 0216 aa3c 3dcc e7bc 9ed1 d43c
000001b0: 92eb 9cbd 81e3 f9bc 1ccb 663d afd4 c4bc
000001c0: 3337 e3bc 68dd 35be 982b 49be ef11 5dbd
000001d0: 5916 bebb b7a4 8c3b a12f 483d bfa2 c53c
000001e0: 24b7 b33d 369f 90ba 335a 4a3c 6ffc c13d
000001f0: 7f5a 2c3e fb51 48bc 78b8 633d 519c b33c
00000200: 4c56 9c3c 744e 6fbd 4978 5c3d 2d33 d33c
00000210: 04f0 12bd 3fbd 9ebd 8ce8 21be 3a84 1ebd
00000220: 9b8c b2bc d426 38bd bb17 13be 5dcc f0bd
00000230: 6ff4 43bd 89ad b73c 20e7 b6bd 969a 24bd
00000240: e461 3a3d 2b60 723d 24e3 e23c e381 353d
00000250: 5b6b 353d 20da 3a3d b443 1e3d 5654 373b
00000260: d838 1c3d 54b3 02be e617 35bd 5ec9 ea3c
00000270: 3ccc 02bd e283 aebd 96d5 bebd e6b6 2cbe
00000280: d7ee 543d f0e9 783d 5270 7ebc 9303 093d
00000290: 5122 313d b854 e53d b48c 893d 6979 c53b
000002a0: f42b 8d3d 56ad 223e 0856 903d 205f 363c
000002b0: 0cee 51bc 940f d03d 8907 383e 350f 203d
000002c0: 0332 8fbc 1fec 8b3d 29c8 193e 8559 dd3c
000002d0: c5dd 743b a948 c23c 5aee 4b3d b0d7 e23d
000002e0: ad25 603c 1a78 2a3c 8625 6fbd 6e6c 493b
000002f0: 65a7 25bd 77a3 4bbd cd97 36bd 9d34 a1bd
00000300: 776f 8ebd 9358 31be a51d 42bd 4d4f e0bb
00000310: da04 29bb 5085 9e3c f2ba d9ba 647d fabc
00000320: 4d65 403b 280c 9dbd 0a5d 023d fd19 6d3d
00000330: 0e0f aa3d 3f9b 48bd b9bf 873c bb1a 0dbd
00000340: 2288 703d 6bb6 b53b 2ea4 4e3d 171c d3bc
00000350: c04e f8bd 678c 8abd 3b59 80bd 7c22 b2bc
00000360: b9b8 16bc 84fd a1bd 4370 bb3d dbcf a33d
00000370: 2959 cc3c 4466 0d3d bda0 183d 4a98 9a3d
00000380: e86f 3e3e 6c5a 3439 65f6 08bc 61ff 3f3d
00000390: e640 9d3d 6211 903c a300 e1bd a4e9 58bc
000003a0: 7455 31bd 50c3 3ebd ef2c 09bd b8fc 17be
000003b0: 3cf4 24be cec4 4fbd 0685 05be db7d 1a3c
000003c0: cfe4 8c3b bfd1 47bb 9556 94bd 387d 49bc
000003d0: 8298 f93d 2edd 0cbc 9784 c43b ed72 6b3d
000003e0: f8a1 ce3d eb8b 663e 9426 fd3d 8e74 723d
000003f0: 94ca 903c 344f 52bd 631c 29bc d339 083d

layers.7.bias f4 [120]
-0.031061165 0.04405047 -0.01137317 -0.015043704 -0.0016218448 -0.041343227 0.055759206 -0.022178125
0.044183183 0.0412449 -0.05521175 0.011670796 -0.03176729 -0.007393468 -0.04912213 0.05880603
0.064083315 -0.078208685 -0.05003366 -0.048972216 -0.053733125 0.03639291 -0.008882693 -0.020773733
0.0005353556 0.0073407805 0.024264527 -0.0036218753 -0.05331502 -0.02430213 0.020760411 0.06993474
-0.053693462 -0.059882287 0.025059624 0.019579066 0.10333066 -0.015367544 -0.00044407052 -0.02597295
-0.054873385 0.024723278 0.04831066 -0.025094617 0.044191133 0.02801444 -0.024696521 0.037688598
-0.032397434 -0.013643728 0.029436031 0.0024958798 0.05753733 -0.010572334 -0.036414735 -0.004440035
0.025936352 -0.029810352 0.011599614 0.032127272 -0.01870971 0.0122677265 -0.019658709 0.04347952
0.06575423 -0.015146131 0.013203756 0.007900658 -0.06150638 0.017774075 0.019387309 -0.052836172
0.0058931094 0.009538955 0.037615664 0.03317287 0.0039644693 0.04976304 -0.012798753 0.028161565
-0.03932528 0.06379131 0.03735559 -0.036038127 0.012955412 -0.020958805 0.012724958 0.0036899212
-0.04536731 -0.023431208 0.025566226 -0.05330055 0.0077872034 -0.045743283 0.035278052 0.057446867
-0.03305294 0.043390263 0.029317984 -0.014347495 0.056655373 0.008273838 0.03472428 0.043175828
0.006613504 -0.009886817 0.025411077 -0.042440988 -0.06636034 -0.009832618 0.015171354 0.021485966
0.03721718 0.06096378 -0.016185032 0.04523892 -0.052597135 0.030403076 -0.04170883 0.058780488
00000000: fc73 febc 446e 343d 8856 3abc de79 76bc
00000010: 1594 d4ba 8457 29bd c463 643d e6ae b5bc
00000020: 6df9 343d 6af0 283d b725 62bd de36 3f3c
00000030: 6b1e 02bd e844 f2bb 4934 49bd 97de 703d
00000040: 1d3e 833d e02b a0bd 18f0 4cbd 1797 48bd
00000050: 4417 5cbd bb10 153d b788 11bc ad2d aabc
00000060: 1b57 0c3a ee8a f03b 67c6 c63c fc5c 6dbb
00000070: da60 5abd 4315 c7bc bd11 aa3c f239 8f3d
00000080: aded 5bbd 2147 75bd d749 cd3c 4764 a03c
00000090: 069f d33d 27c8 7bbc 23d2 e8b9 39c5 d4bc
000000a0: eac2 60bd 7988 ca3c 66e1 453d 3a93 cdbc
000000b0: c301 353d 8a7e e53c 5c50 cabc 5c5f 1a3d
000000c0: 2cb3 04bd f189 5fbc d523 f13c ea91 233b
000000d0: 43ac 6b3d 9537 2dbc 9e27 15bd b77d 91bb
000000e0: 7978 d43c d734 f4bc 4f0c 3e3c e397 033d
000000f0: 1b45 99bc 93fe 483c 4d0b a1bc 9517 323d
00000100: 27aa 863d 7a27 78bc 9154 583c c371 013c
00000110: 1dee 7bbd f09a 913c 22d2 9e3c be6a 58bd
00000120: fc1a c13b 4749 1c3c e212 1a3d 46e0 073d
00000130: 61e8 813b 54d4 4b3d dcb1 51bc 15b3 e63c
00000140: 8b13 21bd 05a5 823d 2d02 193d b79c 13bd
00000150: f042 543c cdb1 abbc 587c 503c 9bd2 713b
00000160: 13d3 39bd cef2 bfbc 4370 d13c ad51 5abd
00000170: cc2b ff3b 4f5d 3bbd b87f 103d 684d 6b3d
00000180: 8562 07bd fdb9 313d 452c f03c c111 6bbc
00000190: 770f 683d fe8e 073c 0c3b 0e3d 23d9 303d
000001a0: 18b6 d83b 51fc 21bc e42a d03c 9ad6 2dbd
000001b0: eee7 87bd fd18 21bc 4591 783c 5603 b03c
000001c0: 0b71 183d 28b5 793d 7996 84bc 724c 393d
000001d0: 1870 57bd df0f f93c e1d6 2abd cfc3 703d

layers.9.weight f4 [84, 120]
-0.20080215 -0.20410922 0.115342535 -0.058682516 0.12459618 -0.041400187 0.07382932 0.041119236
-0.064089336 -0.086698666 0.007626504 0.09660662 -0.0617198 -0.072444305 0.014358648 0.08384837
-0.23477526 -0.0038921402 -0.07697953 0.018881299 -0.022823986 0.12243098 -0.17003363 -0.078261726
-0.014423472 0.07358287 0.095334314 -0.060471416 -0.044893786 0.11714854 0.04329248 0.12927395
-0.0499753 0.04986839 0.036476772 0.12781376 0.04972398 -0.06996115 0.11689012 0.027176857
-0.06172406 0.054387946 0.12618032 0.082104005 -0.06220092 -0.11600468 0.039180398 -0.004121869
-0.08533167 -0.09643718 0.0700298 0.029084982 0.08276049 -0.03216768 -0.069496274 -0.021165183
0.030265916 -0.004666172 0.059199143 -0.08780795 0.039892614 0.122076556 0.08005149 -0.014478268
0.003397557 -0.022154752 0.05983785 -0.18326585 0.08126186 0.0901237 0.086216845 -0.031596318
-0.11342238 -0.27326736 0.11816943 0.054204218 0.00513226 0.07483836 -0.011535857 -0.06635528
-0.060165577 0.069466725 -0.07633372 0.06780176 0.035951346 -0.09439941 0.051833022 -0.061918642
0.016816035 0.1346862 0.11394984 -0.07504629 -0.05356056 -0.024836773 0.02476828 0.15163854
0.025609579 0.13244209 -0.11563378 -0.19569725 -0.0040688254 -0.11138194 0.16904803 0.029306386
0.09495128 0.060092017 -0.13916819 0.007267999 0.10661164 0.19804722 0.059549633 -0.099286474
0.060382463 -0.10984495 -0.14408103 0.0900446 0.05029131 -0.04460245 -0.057215855 0.03607502
-0.017363451 0.06182869 -0.08163416 -0.043095347 -0.068511814 -0.088992745 -0.012708301 -0.044033013
-0.020864302 -0.14663744 0.016069304 -0.114226304 0.00039868962 -0.07111202 -0.006853273 0.005976319
-0.008759929 0.006721994 0.054694816 0.030673817 -0.07649916 -0.09946359 -0.120903336 -0.134779
0.08645389 0.0580113 -0.1144307 -0.09944334 0.0073584416 -0.055797923 0.11586845 -0.13179485
0.006965924 -0.04816943 -0.023056194 -0.07133495 0.06598759 -0.07286262 -0.017963015 -0.046445236
0.07793161 0.060563747 -0.08516493 -0.061916217 -0.14657515 0.016409691 0.060435325 -0.047289196
-0.058079366 -0.07344299 0.01627103 -0.15431967 0.023000438 0.14605165 -0.08349798 -0.04317068
0.054302875 -0.015643463 0.019030333 0.1178048 0.0024999909 -0.020801296 -0.229634 0.071484484
0.08233617 0.0058685658 -0.043845072 0.02172284 0.056677025 0.05908159 0.039798446 0.044146083
-0.11686869 -0.085226096 -0.0653416 -0.039146252 -0.018126953 0.042800948 -0.11654906 0.008803271
-0.063185826 0.08294054 -0.0068446277 -0.058884274 -0.05047184 0.023264037 -0.10878875 0.005196334
-0.04711741 -0.11401619 -0.17656733 -0.12501176 -0.012938378 -0.03751339 -0.023420284 0.090126336
-0.050415803 0.045128345 0.10484273 -0.16475289 -0.053506102 -0.12530641 -0.067068815 -0.0012245286
0.084056616 -0.096432425 -0.08381289 0.16871591 -0.11035773 -0.1282208 0.03386966 -0.06933049
-0.04127112 0.015578408 -0.04497185 -0.0096384 -0.061016448 0.08953793 0.00049714604 0.050637472
0.13281134 -0.016529098 0.1005629 -0.024466915 -0.01920283 0.05850005 0.10914607 0.022200419
0.063698165 -0.018468605 0.016810494 0.012635181 -0.06204571 0.0028655375 0.052879572 0.060880568
00000000: 149f 4dbe 0202 51be b538 ec3d 145d 70bd
00000010: 482c ff3d 3e93 29bd d433 973d a56c 283d
00000020: 4541 83bd 128f b1bd c1e7 f93b b1d9 c53d
00000030: e7cd 7cbd ae5d 94bd 8940 6b3c b2b8 ab3d
00000040: ed68 70be 4713 7fbb 72a7 9dbd f4ac 9a3c
00000050: 5ef9 babc 18bd fa3d 4c1d 2ebe af47 a0bd
00000060: 6d50 6cbc 9eb2 963d a33e c33d e0b0 77bd
00000070: 8ce2 37bd 93eb ef3d 7553 313d 6460 043e
00000080: e6b2 4cbd cc42 4c3d ab68 153d 9ce1 023e
00000090: 5fab 4b3d cb47 8fbd 1664 ef3d 00a2 de3c
000000a0: 5ed2 7cbd e5c5 5e3d 6a35 013e 2526 a83d
000000b0: 64c6 7ebd dd93 edbd a07b 203d be10 87bb
000000c0: 5fc2 aebd db80 c5bd c96b 8f3d a143 ee3c
000000d0: 557e a93d 42c2 03bd 1054 8ebd 9b62 adbc
000000e0: 3af0 f73c b0e6 98bb cd7a 723d a8d4 b3bd
000000f0: 7066 233d 4603 fa3d 09f2 a33d 4236 6dbc
00000100: 8ca9 5e3b e27d b5bc 8918 753d 0baa 3bbe
00000110: 9e6c a63d c692 b83d 7592 b03d 246b 01bd
00000120: fe49 e8bd b3e9 8bbe d002 f23d 3e05 5e3d
00000130: 842c a83b db44 993d e400 3dbc 47e5 87bd
00000140: 2e70 76bd 9244 8e3d da54 9cbd a6db 8a3d
00000150: b841 133d 7a54 c1bd dd4e 543d 679e 7dbd
00000160: c8c1 893c 2eeb 093e 895e e93d dfb1 99bd
00000170: 5162 5bbd 7d76 cbbc d9e6 ca3c 2247 1b3e
00000180: 2ecb d13c e69e 073e 67d1 ecbd dc64 48be
00000190: c853 85bb 371c e4bd ed1a 2d3e f213 f03c
000001a0: d175 c23d 0c23 763d 1b82 0ebe 6528 ee3b
000001b0: 3457 da3d e4cc 4a3e 51ea 733d b556 cbbd
000001c0: 9a53 773d 64f6 e0bd fa89 13be 4e69 b83d
000001d0: 43fe 4d3d 0fb1 36bd 2c5b 6abd 66c3 133d
000001e0: cc3d 8ebc 1540 7d3d cf2f a7bd bf84 30bd
000001f0: ec4f 8cbd d441 b6bd 7a36 50bc f65b 34bd
00000200: 9deb aabc 2028 16be c6a3 833c 7bef e9bd
00000210: 3707 d139 2ea3 91bd 6c91 e0bb ffd4 c33b
00000220: ce85 0fbc 2c44 dc3b ac07 603d a847 fb3c
00000230: 97ab 9cbd 91b3 cbbd 2b9c f7bd 8203 0abe
00000240: bd0e b13d 429d 6d3d a55a eabd f3a8 cbbd
00000250: 151f f13b 5d8c 64bd 704c ed3d 3bf5 06be
00000260: 6842 e43b 4f4d 45bd 58e0 bcbc 0f18 92bd
00000270: 8024 873d ff38 95bd 2c27 93bc 5c3d 3ebd
00000280: 9c9a 9f3d b111 783d f36a aebd dc9b 7dbd
00000290: cc17 16be 9e6d 863c 088b 773d 51b2 41bd
000002a0: a1e4 6dbd 4769 96bd d34a 853c fa05 1ebe
000002b0: 6a6b bc3c 908e 153e fd00 abbd bdd3 30bd
000002c0: b16c 5e3d b826 80bc 80e5 9b3c a543 f13d
000002d0: e3d6 233b 7b67 aabc 2d25 6bbe 7566 923d
000002e0: de9f a83d 194d c03b e496 33bd 19f4 b13c
000002f0: 2b26 683d 8aff 713d b203 233d 86d2 343d
00000300: da58 efbd 058b aebd d1d1 85bd d257 20bd
00000310: fa7e 94bc 0c50 2f3d 46b1 eebd 983b 103c
00000320: 9267 81bd bbdc a93d e648 e0bb a330 71bd
00000330: 8fbb 4ebd 3994 be3c a3cc debd 0246 aa3b
00000340: 2ffe 40bd 5281 e9bd 11ce 34be 1503 00be
00000350: 7efb 53bc a4a7 19bd e5db bfbc 2894 b83d
00000360: cd80 4ebd 80d8 383d c9b7 d63d fbb4 28be
00000370: 3729 5bbd 5350 00be 605b 89bd 5d80 a0ba
00000380: e025 ac3d 5d7e c5bd 18a6 abbd ddc3 2c3e
00000390: 3c03 e2bd 504c 03be eaba 0a3d 25fd 8dbd
000003a0: e80b 29bd 943c 7f3c 6734 38bd 61ea 1dbc
000003b0: 62ec 79bd aa5f b73d e852 023a 3d69 4f3d
000003c0: b2ff 073e 0868 87bc ecf3 cd3d d76e c8bc
000003d0: 414f 9dbc c09d 6f3d fa87 df3d a7dd b53c
000003e0: 2f74 823d 794b 97bc 29b6 893c ca03 4f3c
000003f0: a423 7ebd becb 3b3b 4098 583d e75d 793d

layers.9.bias f4 [84]
0.119921155 -0.0037223059 0.11841948 0.045793436 -0.025148006 -0.07927493 -0.078121334 -0.076961726
0.092776194 0.056674432 0.12201808 -0.00019636311 -0.01791472 0.017132606 0.07172336 0.11254905
-0.03981848 0.0025260295 -0.072310336 0.03306702 -0.042958464 -0.015006671 0.020928176 -0.057840034
-0.071043804 0.09038817 0.018243197 0.12019674 0.095014095 0.08587462 0.106860265 0.0829527
-0.07188087 0.06958633 -0.107326366 -0.09615597 -0.08359913 -0.013378187 -0.040567964 0.059841502
0.09596662 -0.04354322 -0.040742762 -0.033236433 0.079844564 -0.08070335 -0.034620106 -0.095445454
-0.043051153 0.113258146 0.11709141 -0.08014444 -3.697671e-05 0.059709184 0.10757919 0.041510276
0.11788569 -0.09803287 0.080491416 0.032277364 0.021732723 -0.04831917 0.032037422 0.07419214
0.015144665 -0.039771196 0.022130648 -0.046908315 -0.08489266 0.0986331 -0.037805133 0.03552313
-0.051612653 0.051535375 0.10017039 0.0031216806 0.11129932 0.09299898 -0.09994847 0.079779685
0.0827981 0.10108248 0.0083739245 -0.021117333
00000000: 3999 f53d eef1 73bb ea85 f23d e691 3b3d
00000010: 3103 cebc e55a a2bd 14fe 9fbd 1c9e 9dbd
00000020: 7201 be3d 7323 683d 9de4 f93d d2e6 4db9
00000030: e4c1 92bc ae59 8c3c b2e3 923d 1e80 e63d
00000040: b418 23bd be8b 253b 7117 94bd 4971 073d
00000050: 37f5 2fbd 8ade 75bc 9171 ab3c ace9 6cbd
00000060: 6a7f 91bd 6f1d b93d c272 953c b529 f63d
00000070: c096 c23d 08df af3d 8ed9 da3d 1be3 a93d
00000080: 4736 93bd 4783 8e3d edcd dbbd 6ced c4bd
00000090: 0536 abbd 2f30 5bbc 982a 26bd 5d1c 753d
000000a0: 268a c43d 605a 32bd e2e1 26bd ed22 08bd
000000b0: 8c85 a33d cc47 a5bd d0cd 0dbd e878 c3bd
000000c0: 6856 30bd e3f3 e73d 9fcd ef3d c522 a4bd
000000d0: 7117 1bb8 9e91 743d 7a52 dc3d ae06 2a3d
000000e0: 0d6e f13d 75c5 c8bd afd8 a43d 4535 043d
000000f0: d308 b23c 52ea 45bd ac39 033d 0cf2 973d
00000100: 5421 783c 1fe7 22bd 554b b53c ef22 40bd
00000110: 34dc adbd 2700 ca3d 8ed9 1abd b480 113d
00000120: ca67 53bd c216 533d 2226 cd3d 1c95 4c3b
00000130: e6f0 e33d 4076 be3d c9b1 ccbd 8863 a33d
00000140: 0d92 a93d 5504 cf3d c932 093c 42fe acbc

layers.11.weight f4 [10, 84]
-0.07819336 -0.02633656 0.17536533 0.07293699 0.016643733 0.06424687 -0.06728224 0.061080642
-0.03935203 0.1301058 0.055112313 -0.21662311 0.02779459 0.11797019 0.030466067 0.0913771
0.08445063 -0.17644367 -0.096111074 0.14159828 -0.022828238 -0.103623256 -0.10104901 -0.07772197
0.073274046 -0.026899207 0.14155418 -0.088400505 0.0651328 0.05048123 0.16653375 -0.095920384
-0.09876653 0.029974 0.008023405 0.030087773 -0.054980207 0.1893413 0.07609709 0.021077842
-0.121802144 -0.042798743 0.15642008 -0.04706096 0.10702403 -0.047375534 -0.22328986 0.10016913
-0.007711838 0.032471042 -0.18337792 0.034028094 0.010319324 -0.31801277 -0.16942178 0.18226403
-0.09001156 -0.3074891 -0.03866197 0.08491859 0.20663613 0.067029856 0.12950711 0.012839875
-0.17056683 0.088510685 0.05675764 0.06939051 -0.05788563 0.052918393 -0.19308557 -0.18592425
0.12906341 0.064209 -0.14124347 0.10712889 -0.21924798 0.0918145 0.052785367 -0.2376558
0.1134879 -0.15111262 0.003240247 0.060396295 0.15236686 0.003181866 0.11180678 0.08946326
-0.035191868 -0.026624762 0.030901052 -0.104631536 -0.2362686 -0.08790752 0.20572384 0.042083643
-0.06518862 0.22478284 0.027357519 0.13729268 -0.2246899 0.028081493 0.116042666 0.050620645
0.116919726 0.1085884 -0.058626786 -0.018092426 0.0060332515 0.055398084 -0.014931527 0.0766809
-0.10170912 -0.0646283 0.36379525 0.19178061 -0.07519521 0.02168747 -0.041556533 0.0074023954
-0.09467567 0.0014090217 -0.23251933 -0.12560612 0.17954823 0.03300616 -0.10703798 -0.051076293
0.050043892 -0.1621848 0.15031609 -0.045855597 0.07110969 -0.08020481 0.1643911 0.01568723
-0.021311065 -0.06319129 -0.26300013 -0.04636632 -0.18372627 -0.11709799 -0.13818902 -0.08579288
-0.09676966 -0.068999305 0.101607874 -0.14689161 -0.1501319 -0.13291469 -0.13204831 -0.0730746
0.0034112842 0.18860088 0.08578599 0.101373546 0.07169228 -0.07263676 0.0072753443 -0.2644577
0.0085505 -0.10772243 0.013988441 0.15227252 -0.16764791 0.07349814 0.1416415 -0.08659622
-0.098179065 0.020189164 -0.022330921 -0.16922246 0.08972407 0.10878326 0.031503174 0.11220561
-0.007369833 0.11314012 0.15809818 -0.089481786 -0.0596331 0.107737355 -0.2257718 -0.069559716
-0.06566489 0.06992208 0.07212906 -0.00054027594 0.014400917 0.093863636 0.18379085 -0.082656816
-0.04909506 0.037146937 -0.0783285 -0.04112661 -0.04714465 0.075164095 -0.21784307 -0.050720945
0.027900586 -0.017005742 -0.045049295 -0.084609434 0.04699673 0.07992372 -0.0959728 -0.01540372
-0.19211689 -0.08422086 -0.09543711 0.06433383 -0.2137176 -0.12174142 -0.15833095 0.051541302
-0.04710646 -0.032427408 -0.21918574 -0.11034422 0.058430593 -0.05930122 -0.11284993 0.17049807
-0.11663939 0.043817375 0.011398713 0.10888694 -0.10280985 -0.14934072 0.069274366 0.09841645
-0.024839781 0.07081937 -0.17023937 0.06308475 -0.029717373 0.076112494 0.04457382 0.046963267
0.13438086 -0.028753687 0.05856999 -0.025696436 0.13282052 0.011129977 -0.044760726 0.1646057
0.11214293 0.037258133 -0.33815014 -0.050923806 0.14591801 -0.07186177 -0.14922902 -0.09928743
00000000: d723 a0bd c5bf d7bc f892 333e fd5f 953d
00000010: 7058 883c dd93 833d 45cb 89bd b22f 7a3d
00000020: 982f 21bd 743a 053e 73bd 613d 73d2 5dbe
00000030: 7bb1 e33c 5b9a f13d f993 f93c eb23 bb3d
00000040: 74f4 ac3d a6ad 34be e2d5 c4bd 24ff 103e
00000050: 4902 bbbc 6e38 d4bd c9f2 cebd b22c 9fbd
00000060: b410 963d ba5b dcbc 94f3 103e 530b b5bd
00000070: 5864 853d 68c5 4e3d d387 2a3e e871 c4bd
00000080: 1b46 cabd 098c f53c 9a74 033c a27a f63c
00000090: ed32 61bd b0e2 413e cbd8 9b3d 70ab ac3c
000000a0: 6773 f9bd bc4d 2fbd 962c 203e fec2 40bd
000000b0: 6a2f db3d d90c 42bd 19a6 64be 7925 cd3d
000000c0: 96b3 fcbb 5b00 053d 6cc7 3bbe 0b61 0b3d
000000d0: 6212 293c 92d2 a2be e77c 2dbe 6ca3 3a3e
000000e0: fb57 b8bd 366f 9dbe 045c 1ebd cce9 ad3d
000000f0: 6c98 533e f346 893d 839d 043e 575e 523c
00000100: 12a9 2ebe 1745 b53d b37a 683d 9d1c 8e3d
00000110: 7b19 6dbd f5c0 583d 39b8 45be ed62 3ebe
00000120: 3329 043e 0280 833d 21a2 10be 6466 db3d
00000130: 8b82 60be 3e09 bc3d 7835 583d 0b5c 73be
00000140: 586c e83d 44bd 1abe 535a 543b 1b62 773d
00000150: 0f06 1c3e da86 503b f4fa e43d 8338 b73d
00000160: 5925 10bd 2c1c dabc 3424 fd3c 0f49 d6bd
00000170: 65f0 71be dc08 b4bd 45a9 523e e65f 2c3d
00000180: 9c81 85bd 792d 663e e01c e03c 7496 0c3e
00000190: 1c15 66be 290b e63c c7a7 ed3d 9857 4f3d
000001a0: 9c73 ef3d 9863 de3d a422 70bd 9136 94bc
000001b0: 95b2 c53b 1ae9 623d 5da3 74bc e00a 9d3d
000001c0: df4c d0bd d85b 84bd 5f43 ba3e 2362 443e
000001d0: f2ff 99bd eca9 b13c 2f37 2abd cb8f f23b
000001e0: 51e5 c1bd ecae b83a 8c19 6ebe e49e 00be
000001f0: 7edb 373e 7831 073d ba36 dbbd 6035 51bd
00000200: d3fa 4c3d c613 26be 76ec 193e 14d3 3bbd
00000210: f5a1 913d 6b42 a4bd 2456 283e 8182 803c
00000220: 8b94 aebc 6f6a 81bd f4a7 86be 9cea 3dbd
00000230: bd22 3cbe 12d1 efbd 6c81 0dbe 2db4 afbd
00000240: 2c2f c6bd 824f 8dbd ca17 d03d c16a 16be
00000250: 2dbc 19be ca1a 08be ac37 07be 23a8 95bd
00000260: da8f 5f3b 9720 413e 91b0 af3d ef9c cf3d
00000270: 67d3 923d 95c2 94bd 0366 ee3b 0067 87be
00000280: 6517 0c3c 949d dcbd c62f 653c 54ed 1b3e
00000290: e5ab 2bbe 3186 963d 780a 113e 5c59 b1bd
000002a0: 1b12 c9bd bf63 a53c 56ef b6bc a748 2dbe
000002b0: 41c1 b73d c2c9 de3d 7909 013d 0ecc e53d
000002c0: a47e f1bb 02b6 e73d 7de4 213e 3a42 b7bd
000002d0: d641 74bd 67a5 dc3d b930 67be 5375 8ebd
000002e0: 507b 86bd 4f33 8f3d 67b8 933d 4ea1 0dba
000002f0: d3f1 6b3c 943b c03d ab33 3c3e fa47 a9bd
00000300: e717 49bd 6327 183d b16a a0bd 6074 28bd
00000310: c01a 41bd a2ef 993d 4112 5fbe c4c0 4fbd
00000320: c58f e43c a04f 8bbc 9c85 38bd b647 adbd
00000330: a57f 403d 0caf a33d 638d c4bd e25f 7cbc
00000340: 4aba 44be fc7b acbd 8874 c3bd 74c1 833d
00000350: c9d8 5abe 9153 f9bd 8221 22be f91c 533d
00000360: b4f2 40bd 9ad2 04bd 3a72 60be 27fc e1bd
00000370: eb54 6f3d d6e5 72bd dd1d e7bd 0c97 2e3e
00000380: a2e0 eebd d979 333d abc1 3a3c 1e00 df3d
00000390: f88d d2bd c6ec 18be b8df 8d3d 908e c93d
000003a0: cc7c cbbc bf09 913d 3b53 2ebe 9432 813d
000003b0: d971 f3bc dee0 9b3d 0a93 363d 8e5c 403d
000003c0: 239b 093e da8c ebbc 16e7 6f3d 5581 d2bc
000003d0: 1a02 083e 825a 363c 0657 37bd 668e 283e
000003e0: 31ab e53d fc9b 183d 0422 adbe 7b95 50bd
000003f0: 886b 153e 432c 93bd 7ecf 18be 3557 cbbd

layers.11.bias f4 [10]
0.06884862 0.106169686 -0.058804777 -0.09879847 -0.08497468 0.04310054 -0.09871588 -0.025176343
0.010835421 -0.028567132
00000000: 8100 8d3d 7e6f d93d 47dd 70bd da56 cabd
00000010: 3407 aebd 318a 303d 8d2b cabd 9e3e cebc
00000020: 0d87 313c 9e05 eabc
