model/lenet5-0.pth (torch_old, 248484 bytes, 10 tensors)

conv1.weight f4 [6, 1, 5, 5]
000000 0d 30 84 3e 46 22 75 3e e0 89 1f 3e 75 49 15 be
       0.2581791 0.23938856 0.15579939 -0.14578803
000010 69 d7 6c be f1 44 8b 3e 58 a2 8d 3e d6 6b ff bd
       -0.23129047 0.27201036 0.2766292 -0.1247174
000020 5d a9 b6 be de a9 22 be 34 05 32 bd b6 f3 15 3c
       -0.3567609 -0.15885112 -0.043461993 0.0091523435
000030 2b 20 90 be 0e f5 61 be 7f 27 85 be d8 aa 4d 3e
       -0.28149542 -0.22066137 -0.26006696 0.20084703
000040 bf 15 58 be d6 0e c0 be b8 25 5c be bc 94 00 be
       -0.21102045 -0.3751132 -0.21498764 -0.12556738
000050 36 0b 4c be 0e ca a6 be 70 a2 1a be db 64 92 be
       -0.19926152 -0.3257603 -0.15101027 -0.28592572
000060 4a 32 26 3e 1e 35 3e 3e 2a b7 9f 3d f5 59 fb bc
       0.16230121 0.1857495 0.07798608 -0.030682543
000070 a7 ad c7 bd 2d 3a ee 3d 93 4a 58 3e ca ae 6c 3e
       -0.097499184 0.1163219 0.21122198 0.23113552
000080 cd 12 4a 3e 85 b6 14 be 7e 18 9e 3d ae 75 53 be
       0.19733734 -0.1452275 0.07719515 -0.2065036
000090 59 8e d2 bc 19 a4 99 3e 74 09 91 3e d1 bf 29 3e
       -0.025702642 0.3000801 0.28327525 0.16577078
0000a0 b9 26 80 be e1 ed 4c 3d 4b 8a 19 3e 41 b4 66 bd
       -0.25029543 0.050031547 0.14994161 -0.056324247
0000b0 e9 b7 ba bc 05 62 13 be 93 c6 0b 3e 0c 91 e7 3d
       -0.022792773 -0.1439286 0.13649969 0.11306962
0000c0 c0 3e 30 bc a2 1f 07 3e d2 ff 40 be 71 f7 41 be
       -0.010757148 0.1319566 -0.18847588 -0.18942048
0000d0 d0 13 35 bd 88 4c b6 bd 22 94 ac bd 41 06 bd be
       -0.044208348 -0.08901316 -0.084266916 -0.36918834
0000e0 64 5d 49 3d 79 55 ca 3c ad a1 ec 3c d3 7d 8f 3e
       0.04916133 0.02469896 0.028885687 0.28025684
0000f0 10 75 4c be cf 1f 05 3e f6 1f 94 3d 22 da 2d 3e
       -0.19966531 0.13000415 0.072326586 0.16977742
000100 64 54 88 3e b9 7e 29 3d 62 06 cf 3d 80 c3 8c 3e
       0.26626885 0.041380618 0.10108639 0.27492905
000110 e3 43 8d 3e 22 81 01 bd 50 99 a3 bd 13 f4 46 3e
       0.27590856 -0.03161729 -0.079882264 0.19429044
000120 2a b5 83 3e 14 46 1f 3e e4 ba a7 3d 25 20 6c bb
       0.25724155 0.15554076 0.081899434 -0.0036029902
000130 3b 05 a9 3d 4f f8 a0 3e 38 20 92 3e 04 3c df 3d
       0.08252951 0.31439444 0.28540206 0.10900119
000140 94 6a a9 3e ae 9b ae 3e 45 86 05 3e aa fa 8f 3d
       0.33089125 0.3410315 0.13039501 0.07030232
000150 8e a6 a6 3d cf 2a 27 3e 2f c1 2c 3e d3 76 7b 3e
       0.081372365 0.16324924 0.16870569 0.24557047
000160 11 b9 00 3d df 24 56 3d 18 1b a7 be db cb 99 be
       0.031426493 0.052281257 -0.32637858 -0.30038342
000170 95 3e db be 82 4d b3 bd 83 07 71 bc 2a 8e 32 be
       -0.42821184 -0.08755018 -0.014711264 -0.17437044
000180 4a d5 c4 be 73 c4 ba be 23 f2 93 bd be f2 99 bd
       -0.38443977 -0.36478004 -0.07223918 -0.075170025
000190 2a 15 f1 bd 02 cb 65 3d 15 cf 6f 3e de ce 35 3d
       -0.11771615 0.056101806 0.2341884 0.044386737
0001a0 20 0e e2 bc e0 75 eb 3d b1 8e bb 3e ad 45 9e 3d
       -0.027594626 0.11497092 0.36632302 0.07728133
0001b0 51 d2 8d 3d ca a6 f3 bd 18 cc 9c 3e 45 59 07 3e
       0.0692488 -0.11897047 0.3062446 0.13217647
0001c0 62 ea 89 3e 4f b0 80 bd 8f ad 1b be 22 24 fb 3d
       0.26936632 -0.06283628 -0.15202926 0.12262751
0001d0 d6 9d 2e 3e ec 10 c6 3d 3b 6b a4 be 19 1f 09 be
       0.17052397 0.09671196 -0.3211306 -0.13390769
0001e0 7b c1 b9 3c 6e 9b 82 3e 00 e3 cf 3d 04 58 4b be
       0.022675266 0.25509208 0.10150719 -0.19857794
0001f0 cf 89 87 be 5b b9 7f bd 46 f3 8b 3e fc e7 44 3e
       -0.26472327 -0.062432628 0.2733404 0.1922912
000200 96 fd 70 3e bd 64 75 3e f3 a0 80 bd 4f 1f b4 3d
       0.23534235 0.2396421 -0.062806986 0.08795034
000210 d9 0e 84 3e 64 dd 1c 3d df ed b2 3e 0f 20 68 be
       0.25792578 0.038297072 0.34947106 -0.2266848
000220 39 4e ed bd 16 7b 63 be b0 40 38 3e cd 41 98 3e
       -0.115871854 -0.22214922 0.17993426 0.29737702
000230 88 98 11 be 6a e4 a1 be 33 14 88 be da 15 e3 bd
       -0.14218342 -0.3161958 -0.2657791 -0.11088152
000240 c5 4c 0d 3e f8 2c 73 be 70 42 11 be 66 aa 40 be
       0.13798817 -0.23747623 -0.141855 -0.18815002
000250 ac b2 7d be e9 4f cc 3d
       -0.24775189 0.09976179

conv1.bias f4 [6]
000000 13 28 70 3e 51 d3 87 3e 0e 4c 90 3b 1d 9b 6a 3e
       0.23452787 0.2652841 0.0044035977 0.22910734
000010 18 06 86 3e 7d 19 0d 3e
       0.26176524 0.13779254

conv2.weight f4 [16, 6, 5, 5]
000000 f0 f4 24 be 39 7f 11 be 3f 4e 39 be 9b 8d 8f be
       -0.16109061 -0.14208688 -0.18096255 -0.28037724
000010 3b fa 7c be 5f 65 38 be 1c 40 8d bc 7b 84 aa 3c
       -0.2470483 -0.1800742 -0.017242484 0.020815125
000020 cb 3b 23 bd f1 87 4f be ef e6 d8 bd 7c 66 83 3b
       -0.039851945 -0.20266701 -0.10590922 0.00401002
000030 fd f8 75 3b f3 57 5e be 4c c0 8e be 23 74 19 3b
       0.0037532442 -0.21713237 -0.27881086 0.002341517
000040 57 29 2d bc d3 22 06 be 6a be 4d be 4a 2a 00 be
       -0.010568938 -0.13099222 -0.20092168 -0.12516132
000050 3c 6e d8 bd ff f8 98 bc 08 bb 0d be 87 e7 35 bd
       -0.105679005 -0.018673418 -0.13840878 -0.044410255
000060 2c d7 17 be d9 c8 b9 bc 31 6e a5 3c 24 14 35 bc
       -0.14828175 -0.02267878 0.020194145 -0.011052165
000070 37 55 56 3d 36 2b 91 3d a5 79 9f bd 18 2c 92 3d
       0.05232736 0.0708832 -0.07786874 0.071373165
000080 fb f8 1d 3d bf fa 47 3b 30 06 f4 3d 4b dd 10 bd
       0.038567524 0.0030514447 0.11915243 -0.03536729
000090 41 ac 93 bc 92 b5 ff bd bd fe 00 bc ec 8d 86 3d
       -0.018026473 -0.12485804 -0.007873234 0.06570038
0000a0 64 67 98 bd fa 6d 1d bd af 6e f8 3b 1b 2f 8d bd
       -0.07441595 -0.03843496 0.007581554 -0.0689375
0000b0 ef 7f ce 3d 96 eb b5 39 6f 50 17 3d 9c 14 18 3d
       0.10082995 0.00034698535 0.03694194 0.03712903
0000c0 cd 30 c4 3c 71 f7 94 3d 58 7f 24 bd 5e b1 34 3d
       0.023949051 0.07273758 -0.040160507 0.044114463
0000d0 49 0c 93 3d e2 ea 8e 3d a0 c1 1b 3d 62 aa 92 bd
       0.071800776 0.06978394 0.038026452 -0.07161404
0000e0 72 ee 6d bd 78 7f a6 3c cb 4e ca bd a4 e5 87 bd
       -0.058088727 0.020324454 -0.0987831 -0.06635597
0000f0 dd 90 5e bd 84 08 27 bd ae 88 08 3c be 90 b1 3c
       -0.05433737 -0.040779606 0.008333368 0.021675464
000100 1c 34 f0 3d 25 c1 03 bd ae 81 4b 3d 0d e5 a7 3d
       0.11728689 -0.03216662 0.04968422 0.08197985
000110 6f cc 2a 3d 59 2c de 3d 42 fd ab bd 3a ee 15 bd
       0.04169887 0.108483024 -0.083979145 -0.036604144
000120 e2 17 6d 3d 19 c2 15 3d 67 40 bf 3d 8d 21 a9 3c
       0.057884105 0.03656206 0.09338456 0.020645881
000130 eb d1 d3 3c 2b 5c f3 3c f6 bf 04 3e 25 9d 94 3d
       0.025856933 0.029707035 0.12963852 0.072565354
000140 32 76 2c 3e 82 eb 0b 3e 86 a5 94 3e 26 12 41 3e
       0.16841963 0.13664058 0.29032534 0.1885458
000150 e2 58 07 bd 37 77 06 3d ad ba 19 3e 88 e3 10 3e
       -0.03304375 0.032828536 0.15012617 0.14149296
000160 ed b2 d2 bd b4 5a 83 be 97 45 d2 bd 04 64 bc bd
       -0.10288034 -0.25655138 -0.102671795 -0.09198764
000170 a9 3f 50 be 72 bd 9e bc 6c 1a a2 3c fe 88 9f 3c
       -0.20336784 -0.019377444 0.01978799 0.019474503
000180 3c 37 f4 3d 32 22 04 3d f8 7f e5 3d 54 a8 92 3d
       0.119245976 0.032259174 0.11206049 0.07161012
000190 50 f8 f9 bd 84 65 89 bd 25 68 68 bd a4 de 83 3d
       -0.12205565 -0.06708816 -0.056739945 0.0643895
0001a0 d7 e1 17 3b af bc f5 bd ad 19 39 bd 58 3a d9 bd
       0.0023175383 -0.11998879 -0.045190502 -0.10606831
0001b0 a8 9b b6 bd 4a 60 08 be fa 80 3f bd 4b 63 20 be
       -0.08916408 -0.13317981 -0.04675386 -0.15662877
0001c0 4d 64 17 be 6e 98 6c be 43 9d 84 bd e7 55 86 3d
       -0.14784355 -0.23105022 -0.06475308 0.06559353
0001d0 56 be 76 bd ce ec d1 bd 6f e6 86 3d a2 2f e4 3d
       -0.060240112 -0.10250245 0.065869205 0.11141898
0001e0 ba ee 28 3b 8b 10 bb bc b2 b7 7d bd 8e 7a 26 3d
       0.0025777058 -0.022835037 -0.061942764 0.04064422
0001f0 ec 9f 86 bd 06 ec fe bd d6 89 7c bd d0 d9 bb bd
       -0.065734714 -0.12447362 -0.061654888 -0.09172404
000200 37 68 dd bc 4f a9 89 3d 4a e9 07 3e 8e 67 37 3d
       -0.027027233 0.06721746 0.13272586 0.04477649
000210 ab b8 97 3d 10 63 0f 3e 37 63 e5 3d 84 d3 c4 bd
       0.074082695 0.14002633 0.11200564 -0.09610656
000220 a0 41 1f bd ed 67 86 3d 46 11 a1 3c 36 82 10 be
       -0.038880944 0.06562791 0.019661557 -0.14112172
000230 50 da 2e be 3b 12 20 be 48 c9 b1 bd 51 2b 06 be
       -0.17075467 -0.15631954 -0.086809695 -0.13102461
000240 0b ad a6 bc 26 dc 11 3e 0d 39 b2 3d ce 24 5e 3d
       -0.020346185 0.14244136 0.08702288 0.05423432
000250 a2 27 11 bc c4 58 2a bd a5 0c 23 3e 1c 2f 84 bc
       -0.008859547 -0.04158856 0.15922792 -0.016135745
000260 cc bc f1 3c 18 df 52 3e ae aa b4 3c 21 cc 2b 3d
       0.02950897 0.20592916 0.022054043 0.04194272
000270 fd 8e f7 3c ce fc 45 bd cd ec 77 bd 6f 6d f8 bd
       0.03021955 -0.048336796 -0.060528565 -0.12130248
000280 8a 6b ea bd 24 b4 f6 bd bf 02 ab be 26 1a 38 be
       -0.11446293 -0.12046078 -0.33400533 -0.17978725
000290 03 e0 4c bc b4 80 07 bb f1 9a 23 be 8f 76 bd bd
       -0.01250458 -0.0020676078 -0.15977074 -0.09251129
0002a0 0d 57 bd 3b 75 41 92 bb 37 e5 24 3d e3 dd bd bc
       0.0057781995 -0.0044633695 0.04025766 -0.023177093
0002b0 e7 69 fa 3b 99 20 bb 3b ab b0 3c bc 4a c3 82 3c
       0.007642019 0.005710673 -0.01151673 0.015962262
0002c0 be 0c 37 bc c9 94 0c be 1f b9 d4 bd 2b 21 08 be
       -0.011172472 -0.13728632 -0.103868715 -0.13293903
0002d0 4d 86 8c bd 64 ea 76 bd 16 b8 c4 bd ec 5f 18 be
       -0.06861553 -0.060282126 -0.09605424 -0.14880341
0002e0 6c 9f fc bd 30 0f c1 3d 0c 26 4f bb 29 f9 7d 3d
       -0.12335095 0.09426725 -0.003160837 0.062005196
0002f0 25 c4 51 bd 83 63 cf bd 34 7b bb 3d 8e 68 63 3d
       -0.05121245 -0.10126402 0.091543585 0.055519633
000300 0f d4 ae 3c d3 86 d5 3d 3d e3 1a 3d 6e b4 f2 3d
       0.021341352 0.10426106 0.037814368 0.118508205
000310 01 95 9c 3d 16 c9 82 bd 4c 9d de 3c e9 78 cd 3c
       0.07645608 -0.0638601 0.027174614 0.025082069
000320 40 33 64 3d 35 c1 d7 3d e5 05 c9 bb 72 7e 07 bd
       0.05571294 0.10534898 -0.006134736 -0.033079572
000330 49 ee 48 be 7b c5 ed bc c3 df 8e 3d b6 46 9f bd
       -0.19622149 -0.02902483 0.06976273 -0.07777159
000340 fe 65 cb bd 10 30 87 bd e4 f1 ae 3c 97 5c a0 bb
       -0.09931563 -0.06600964 0.021355577 -0.00489385
000350 dd f1 dd 3d 04 6f 7b 3b 0f 8e 06 3e fb 1d c0 3c
       0.108371474 0.003836573 0.13140129 0.023451796
000360 81 ac a2 bd 0e 72 c5 bc f2 de 1a 3d 81 6e be bc
       -0.07943059 -0.024102237 0.037810273 -0.023246052
000370 ff 8b 8e bd 95 24 25 be d2 b7 01 be 04 67 1e bb
       -0.06960296 -0.16127236 -0.12667778 -0.0024170289
000380 c0 4c 69 bb 5e f2 09 be 98 ff b2 bd 66 19 27 3e
       -0.0035598725 -0.13471362 -0.08740157 0.16318282
000390 ae 9c 61 3e 80 42 d8 3d ee ac 33 bd 96 c5 82 ba
       0.22032425 0.10559559 -0.04386609 -0.0009977098
0003a0 44 9e e2 bd 16 11 a4 bd 57 d2 02 bc 78 af df 3c
       -0.11065343 -0.080110714 -0.007984719 0.02730535
0003b0 b3 f5 fa 3d fa d2 e4 3d e1 ff f5 3d cd 10 87 3e
       0.12253895 0.11173053 0.12011696 0.26380005
0003c0 c3 c0 6f 3d f2 82 2c 3d 78 88 f3 3d 11 45 a7 3e
       0.05853344 0.042117067 0.11891264 0.3266988
0003d0 3d 49 86 3e be 7a 9c 3d 3f 3e a8 3d 33 c9 08 3e
       0.2622775 0.07640599 0.082149975 0.13358001
0003e0 c4 b9 24 3d aa b7 bc 3d ee 0e 9a 3d 3d b0 da bb
       0.040216222 0.09214719 0.07522379 -0.0066738413
0003f0 95 c0 d3 3d 55 e5 df 3c d3 10 b6 bd fa c1 df bb
       0.103394665 0.027331034 -0.08889928 -0.0068285437

conv2.bias f4 [16]
000000 a0 fc ee bd 43 1c ab 3d fc f7 38 bc 30 db 6f bd
       -0.11669278 0.08355 -0.011289593 -0.058558643
000010 9d f3 24 bd 7b ad bd 3c 8c 76 a0 bd 57 02 b2 3d
       -0.04027139 0.023154011 -0.07835111 0.086918525
000020 e6 30 9d bd 60 73 53 bd 4d 00 d1 3d 95 57 55 bd
       -0.07675342 -0.051623702 0.102051355 -0.052085478
000030 01 33 94 bb 3b 1a e6 3d ef 59 42 bd 63 d7 79 bd
       -0.0045226817 0.11235472 -0.04744905 -0.060996424

fc3.weight f4 [120, 400]
000000 d9 66 e8 3c 57 82 a6 3d 4e 3d 75 3d b8 60 72 3d
       0.028369354 0.08130329 0.059872918 0.05917427
000010 60 e2 07 be c9 9a e5 3d 3e 67 cd 3c 3f c5 09 3d
       -0.13269949 0.112111636 0.025073644 0.033635374
000020 34 5f 85 3d 61 ee 3b be 96 24 22 3d a6 d7 6c 3c
       0.06512299 -0.18352653 0.039585672 0.0144557115
000030 3a 58 91 3d 9f 90 9c bb de 58 bf bc 44 04 78 bd
       0.07096906 -0.0047779824 -0.023357805 -0.060550943
000040 c4 6c 82 bc d3 b8 3a 3d 48 75 12 bc 1f 98 74 3c
       -0.015921004 0.04558642 -0.008939095 0.014928847
000050 96 c5 9f 3b df 22 ae 3c 34 7a d6 3d 91 63 69 3c
       0.004875849 0.021256862 0.10472527 0.01424493
000060 e5 d2 31 3d 23 63 ea 3d 93 e5 96 3c b5 6a 0d 3b
       0.043414015 0.1144469 0.018420016 0.0021578495
000070 e7 94 98 bd ff 74 7a bd b1 44 e0 3d e1 95 1b 3d
       -0.07450276 -0.061146732 0.10950602 0.037984733
000080 09 e1 ec bd 8d 5b 97 bd 5e 9b 27 be 49 d4 7a 3d
       -0.115663595 -0.07390509 -0.16367862 0.061237607
000090 17 1d b6 bb fa 7c e1 3d f1 db a1 3d bc 31 86 3d
       -0.005557667 0.110101655 0.079032786 0.06552455
0000a0 fb 22 63 3d d1 14 9b bb 6b 49 70 bb 8e e1 a9 3d
       0.05545328 -0.004732706 -0.0036664854 0.08294974
0000b0 cc 97 31 3e 11 c5 23 3d 7a a6 36 3d a6 4f 8c bd
       0.17343062 0.03998286 0.04459236 -0.06851129
0000c0 b1 4f 0e 3b 32 51 99 3d 05 77 8c bb a1 7e 4a bb
       0.002171498 0.0748619 -0.004286649 -0.003089823
0000d0 8c 2f 1c 3e 75 c6 98 3e eb 9b fe 3d db ac 5b be
       0.15252513 0.2983891 0.12432083 -0.21452658
0000e0 e3 2a 2e bd 09 48 c2 3c 7e e0 08 3d 03 50 81 3d
       -0.04252137 0.02371599 0.033417217 0.06314089
0000f0 21 15 9d bd 7b c1 49 bd 8f 4e 37 be 51 c6 45 3d
       -0.07670046 -0.049256783 -0.17901061 0.048284832
000100 a5 0a 62 bb 1b 9b 87 bd 3f 86 78 bc 2e 88 b4 3c
       -0.0034491208 -0.06621381 -0.0151687255 0.022037592
000110 b3 82 c6 3c d7 77 45 3d 30 4a 9f 3d 73 0d f7 bc
       0.024232244 0.04820999 0.07777822 -0.03015778
000120 db da 16 bd 83 e6 c1 3d b4 a4 9b 3c 0e dc a0 bd
       -0.03682981 0.09467795 0.018999435 -0.07854472
000130 1e 2b 9c bd 07 f2 0e bd 42 c3 1d bd 33 24 b5 bc
       -0.076254115 -0.034898784 -0.03851629 -0.022111988
000140 fe eb 44 3c fa 88 c1 3c 0e f4 55 bd 35 91 21 bd
       0.012019156 0.023624886 -0.0522347 -0.03944512
000150 d6 19 bd bd 73 ae d1 3d 18 b2 b3 3d 89 d9 cc 3d
       -0.092334434 0.10238352 0.08774203 0.10002429
000160 88 2a 3e bb 96 27 14 3d c5 46 6c 3d 9c 86 1e bd
       -0.002901705 0.036170565 0.05768468 -0.038702592
000170 ab 1b 4a bd 49 3c d0 bc f6 16 b3 bc 57 85 01 3e
       -0.049342792 -0.025419371 -0.021861535 0.12648521
000180 56 74 18 3e cf 77 01 3d c3 c0 51 3d 2f 06 70 3a
       0.14888129 0.0316084 0.051209223 0.0009156195
000190 13 52 a3 3d e5 c9 9e ba 41 c8 7d 3b 4e c2 b1 bd
       0.07974639 -0.0012114613 0.0038724097 -0.08679639
0001a0 98 c7 66 be 0e 9a 3d 3e 1b e8 91 3d c3 ba de 3c
       -0.22537076 0.18515798 0.07124349 0.027188664
0001b0 39 d3 ec bd 84 12 43 be aa ce 31 3e 1d e6 06 3e
       -0.11563725 -0.19050032 0.17363992 0.13173719
0001c0 5d 8f d8 3d fd d8 57 3d 36 73 45 bd 4b 07 60 3d
       0.105742194 0.05269717 -0.048205577 0.054694455
0001d0 9e ef 1c 3c 9e d6 0b 3c 98 e9 28 3d 4e fc 8d 3c
       0.009578614 0.008535055 0.041238397 0.017332222
0001e0 37 d0 c6 3d 47 57 00 3e 19 b8 02 3e 1b a5 8f bc
       0.097076826 0.12533294 0.1276554 -0.017534783
0001f0 bd 68 88 3d d7 f7 26 3c 51 35 b4 bc 03 7e 83 bc
       0.06660602 0.010190926 -0.02199808 -0.016051298
000200 40 a1 9f bc 87 ba 29 3c 3a 53 88 be 38 76 83 be
       -0.01948607 0.010359413 -0.26625997 -0.2567613
000210 73 15 88 bd 6b 8a 70 bd 46 4e 88 3d 26 0d 2e be
       -0.06644716 -0.058725756 0.066555545 -0.16997203
000220 03 cb b8 bd 1c d6 79 3d e8 98 99 3c 32 97 47 3d
       -0.090230964 0.060995206 0.01874967 0.048728175
000230 42 61 5f 3a ab 03 c3 3d b7 bc 48 3d 0c 2a b6 3d
       0.00085212674 0.09522184 0.049008097 0.088947386
000240 48 ce 37 3d 15 bd bf 3b 72 dd e7 3b bc 89 16 be
       0.04487446 0.0058513978 0.007075959 -0.14700979
000250 c4 c9 16 3c 33 bd a4 3d 18 79 01 3e 5a 3e c1 3c
       0.009203378 0.080438994 0.1264385 0.023589302
000260 36 bd 45 bd a4 04 84 3c 18 a9 7b bc 35 3f c2 bd
       -0.04827615 0.016115494 -0.015360139 -0.09484712
000270 1c 3e fd bd a3 d0 f7 bc 4a 9e b9 3c f7 92 46 3d
       -0.12365362 -0.030250853 0.022658486 0.04848
000280 05 17 ea bd 2f 47 9c bc 73 0d 9a 3c 8b 5d b7 3c
       -0.11430172 -0.019076912 0.018805241 0.022383472
000290 06 ff 1f bd a2 e6 0e 3d ae f8 ba bc 33 0a 58 3d
       -0.03906157 0.034887917 -0.022823658 0.0527441
0002a0 82 1f fc 3c 27 6b 98 3d 93 bd 7a 3b f0 71 c0 bc
       0.030776743 0.07442313 0.0038259968 -0.02349183
0002b0 07 bb e2 bc b0 e2 79 3c 3c 70 8a 3d 09 10 69 bc
       -0.027677072 0.0152518 0.06759688 -0.0142250145
0002c0 9c a5 15 3d 87 77 cc 3c 60 5a 0a 3a c9 0f 2b bd
       0.03653489 0.024959339 0.0005277749 -0.0417631
0002d0 3c 8c 5d 3a be 9b 17 bd 80 04 60 bd 05 5f b0 bd
       0.00084513775 -0.03701376 -0.05469179 -0.086118735
0002e0 09 3d 84 bd 54 08 06 b9 06 af 26 3c d6 f3 20 bd
       -0.06456954 -0.00012782338 0.010173565 -0.03929504
0002f0 1d dc 89 bd 4d 0a bf bc 00 ad a1 3d 30 03 97 3c
       -0.067314364 -0.023320341 0.07894325 0.018434137
000300 ec 29 43 bd 29 16 1d bb 89 a1 a7 3d 4c 03 83 bc
       -0.0476474 -0.0023969507 0.08185107 -0.015992783
000310 f5 aa 09 ba cd 07 95 3d fd 2e 2a 3d bf 30 86 3d
       -0.000525161 0.072768785 0.041548718 0.06552266
000320 53 ce ba bd fc b5 84 3d 08 42 1e 3e 40 48 ff 3d
       -0.091213845 0.06480023 0.15454876 0.124649525
000330 e0 35 49 3d 7a 7a 33 bd ed 41 be 3b d1 35 24 bc
       0.049123645 -0.043817975 0.005806199 -0.010022596
000340 12 04 17 3d 97 f1 59 3d 8b 8b f1 3d 0b 52 38 3d
       0.036869116 0.053208914 0.11794194 0.045000117
000350 2b 03 23 be 85 d6 22 bd 80 7c 7e bc ee cf a7 bc
       -0.15919177 -0.039755363 -0.015532613 -0.02048489
000360 4f 29 c0 bd 5a c3 52 bd 92 f8 3c bd bc 49 16 bd
       -0.09382879 -0.051455833 -0.046135493 -0.036691412
000370 82 89 2d be 49 87 8f 3c ac 17 f3 bc 9f ad aa bd
       -0.16946986 0.017520564 -0.029674374 -0.08333897
000380 7b d5 c6 3c c1 c2 f8 3b 97 10 81 bd 24 8e 8c bd
       0.024271717 0.007591576 -0.063019924 -0.06863049
000390 51 b7 40 bd d3 48 88 bd 45 3e 11 bd ab 3e 69 bd
       -0.047049824 -0.06654515 -0.035459775 -0.05694453
0003a0 72 5d 91 bc 02 94 c9 bd 27 46 cd bd 6e 93 a2 3d
       -0.017744754 -0.098426834 -0.10023146 0.07938276
0003b0 84 e4 22 3e 61 52 94 3d c4 07 de 3d bd bf d1 3c
       0.15907484 0.07242275 0.10841325 0.025604123
0003c0 60 2f 48 3d f4 c9 e8 3d 14 78 ef 3d 3a 06 f6 bc
       0.048873305 0.113666445 0.11692825 -0.030032266
0003d0 bf 6c b2 bb 12 66 62 3d 4b 3d b5 3d e2 ec 21 bc
       -0.0054450925 0.055273123 0.08849581 -0.009883137
0003e0 84 49 d5 bc 05 09 1b 3e 93 94 20 3e 65 43 93 3c
       -0.026036032 0.1514016 0.15681677 0.017976472
0003f0 e9 2e 55 bd f1 80 50 bd 19 3c 0c be a8 b9 6b bd
       -0.05204669 -0.050904218 -0.136948 -0.057550102

fc3.bias f4 [120]
000000 cc 91 a3 bd 9d 3b 2b 3d 0c ae 7f bc 1a b1 7a 3d
       -0.07986793 0.0418049 -0.015605461 0.061204053
000010 74 34 bf 3c 01 a1 4e bd c3 33 aa 3d 97 4b c9 bc
       0.023340441 -0.050446514 0.08310654 -0.024572177
000020 f5 6c 03 bc 7c e8 f9 3c 55 07 d2 3c 0a 03 ab 3c
       -0.008021583 0.030506365 0.025638262 0.020875473
000030 f6 63 ca bc 55 9d db 3c 3b 6f d2 3b 7a 63 9f bd
       -0.024705868 0.02680842 0.006421951 -0.077826455
000040 e1 e4 d1 bb 55 74 a4 3d f4 6e a9 bc 35 6a 0f 3d
       -0.0064054583 0.08030001 -0.02068279 0.035013396
000050 22 7d 84 3c c6 e1 14 3d ff d9 d7 3c 98 60 55 3a
       0.01617295 0.036348127 0.026349066 0.0008139699
000060 87 17 5c 3d b2 51 90 3a 24 5d 3f bd 34 c9 0f bd
       0.053733375 0.0011010675 -0.046719685 -0.03510399
000070 e3 a6 93 ba 51 e5 01 3c 96 3e 54 bd 88 4d db 3c
       -0.0011264946 0.007928208 -0.0518175 0.026770368
000080 74 b0 00 3d f6 41 bf 3c a6 57 c8 bc c2 f6 72 3d
       0.03141828 0.023346882 -0.024455857 0.059317358
000090 0a d6 0a 3d e0 23 03 3d 44 ef 80 bc 36 d8 32 3d
       0.03389553 0.032016635 -0.01573909 0.043663226
0000a0 58 b3 66 3d 5c a8 10 3d 52 c8 da 3a 28 2e 0b 3b
       0.05632338 0.03531681 0.001669178 0.0021237228
0000b0 d9 84 c5 bc 08 cb b5 bc 24 cf 89 ba ea 57 d2 3c
       -0.024111198 -0.02219154 -0.0010514003 0.025676686
0000c0 b6 30 fe bc c5 b1 19 3d 17 de c9 3c c3 88 9b 3d
       -0.031029087 0.03752305 0.024642034 0.075944446
0000d0 4e 6b 9d 3d 41 8f 5e bd dd ef 0c bd 60 3a 38 bd
       0.07686482 -0.054335836 -0.03440844 -0.044977546
0000e0 02 c3 95 bd 99 67 05 3c 65 17 f7 bc 3a 3a 10 3d
       -0.073125854 0.008142375 -0.030162523 0.03521178
0000f0 6e a6 8d bc 0a 4e 36 bd f3 7a 9f bd 53 3b 37 3c
       -0.017291274 -0.044508018 -0.077871226 0.011183578
000100 5e 6d 80 bd 0d 51 83 bc 78 f5 31 3d 26 ff 2f 3d
       -0.0627086 -0.016029859 0.043446988 0.042967938
000110 99 bf cb 3c 5e 01 27 bd 36 34 b1 3c 3b e9 88 bd
       0.024871634 -0.04077279 0.021631341 -0.0668511
000120 96 dc af 3c a8 d0 76 3c 56 f9 a9 3c 69 2f 66 3d
       0.021467488 0.015064396 0.020748775 0.056197558
000130 2b fb 97 3c c4 4d 24 3a 23 e2 af 3d 44 fa 6f 3c
       0.018552383 0.00062676915 0.08588054 0.01464707
000140 d6 51 9e 3c d6 4f 11 3c 85 03 1f bc 61 e8 23 3c
       0.019326132 0.008869132 -0.009705429 0.010004134
000150 72 f0 fc 3c e7 9f 6f 3c 29 a4 22 3d af 2d 5d 3d
       0.030876372 0.014625526 0.039707337 0.053998645
000160 da 08 6b bc 6e 36 b6 bc b1 e7 11 bc aa 6e 16 bd
       -0.014345372 -0.022242751 -0.008905337 -0.03672663
000170 16 ea 08 bb 69 b4 ec 3c 44 bc 7a bd 00 3f ab 3d
       -0.002089148 0.02889462 -0.0612147 0.08361626
000180 1f 10 23 bd b2 f9 ae 3d 67 7c 4c bd 6e d5 d6 3c
       -0.039810296 0.08543719 -0.049923327 0.026224818
000190 4e 3b 1c 3d 41 bf 8a 3c 1a 33 51 3d b0 75 1e bc
       0.038142495 0.0169369 0.051074125 -0.009671614
0001a0 e9 21 7a bd 58 da 80 bc fa 35 10 3d 54 d4 e6 3c
       -0.061067495 -0.015729114 0.035207726 0.028177418
0001b0 45 c2 0b 3d 6c ae 2b 3d 8a 27 a8 3b 1b bb 00 3c
       0.034120817 0.04191439 0.0051316665 0.007857109
0001c0 24 4f e2 3c fc 27 95 3d a1 b0 50 bd 62 12 c1 3c
       0.027625628 0.07283017 -0.050949696 0.023568336
0001d0 81 75 15 bd 91 61 76 3d 14 95 5a 3d 78 3e 05 3d
       -0.036489014 0.06015164 0.05336483 0.032530278

fc4.weight f4 [84, 120]
000000 f2 39 87 bd 49 0e 4d 3d 61 be b1 3d 34 c0 34 3e
       -0.06602849 0.05006245 0.0867889 0.17651445
000010 d6 ca 83 bd 43 04 e3 3b 48 9f 17 be 5b f6 2a bd
       -0.06435172 0.0069279983 -0.14806855 -0.04173885
000020 44 13 3c be 69 6f 92 3d ba a8 14 be 59 8b 0b be
       -0.18366724 0.07150156 -0.14517489 -0.13627376
000030 cc c4 b4 3b cd 47 d9 3d 13 92 6e 3d 6e 0b 36 bd
       0.005516624 0.10609398 0.058244776 -0.044444494
000040 20 68 8b 3d e4 5b f0 3c ed 5e 99 3b fb f4 26 bd
       0.0680697 0.029340692 0.0046805055 -0.040760975
000050 88 c6 a7 3d 6a f0 7e 3c a4 d2 e1 3d 2c fe 29 3d
       0.08192164 0.015560249 0.11026505 0.041502163
000060 13 58 70 bd d3 29 86 3d b0 67 92 3b a3 66 59 be
       -0.058677744 0.06550946 0.004467927 -0.21230559
000070 10 90 79 3d f5 55 81 3d 7e 97 1c bc d4 df 2d bd
       0.060928404 0.06315223 -0.009557603 -0.042449787
000080 fc 7f 46 bd e4 86 8d bd 96 78 40 bd f3 94 d3 3d
       -0.0484619 -0.06910494 -0.04699 0.10331144
000090 d6 9f c6 3d 9c 64 52 3d bb 75 a0 bd 66 b6 ae 3d
       0.09698455 0.05136548 -0.07834955 0.085308835
0000a0 0f af 20 3b 9e 18 10 3e 57 3d f3 3b db 2b b4 3d
       0.0024518406 0.1407189 0.0074230838 0.08797427
0000b0 0b a2 3e bd d4 d1 83 3e c8 f5 b6 3d 2e 14 11 be
       -0.046541255 0.25746024 0.08933598 -0.14167854
0000c0 58 d4 c0 3d b4 ff 74 bd da bc 1e bc 98 54 07 3e
       0.09415501 -0.05981417 -0.00968858 0.13215864
0000d0 c2 18 78 3d 35 d9 76 bd 63 cd 6f 3d 1f 19 88 bd
       0.060570486 -0.06026574 0.05854548 -0.066454165
0000e0 f6 38 61 bd a0 c1 4f 3d dd 62 3c 3d 39 f6 eb bc
       -0.054985963 0.050721765 0.04599272 -0.028803932
0000f0 0b c9 2e bc 65 05 5e be 7d 78 8c bb 66 e9 94 bd
       -0.01066805 -0.21681745 -0.0042868243 -0.0727108
000100 e0 d3 79 bd 94 6d 04 be 08 e2 34 3e e4 40 17 bd
       -0.060993075 -0.12932426 0.17664349 -0.03692712
000110 d6 d5 41 be d1 f0 1d 3d c4 7a fe bd 40 c4 0d 3e
       -0.18929228 0.03855974 -0.124257594 0.13844395
000120 8d 79 5a 3e aa 32 92 bd 64 da 5b 3d b5 80 c9 bc
       0.2133543 -0.0713857 0.05367507 -0.024597505
000130 79 bd 71 bd 29 55 26 3d 58 c4 f9 bc e5 db a5 bd
       -0.059018586 0.04060856 -0.030489132 -0.08098582
000140 34 d8 42 bd 00 4f 2c bd 37 49 b6 bd bf a7 d9 bd
       -0.04756947 -0.042067528 -0.089006834 -0.10627698
000150 7d ca 09 3d 8f 1b 7b bd cb 03 b8 3d 31 50 02 bc
       0.033640373 -0.06130558 0.089850985 -0.007953689
000160 0d 43 71 bc 0e c1 20 3e cc d1 13 bd d4 77 5c bd
       -0.014725459 0.15698645 -0.03608875 -0.053825215
000170 2a 0a 8c bc 81 3b 00 3e dc f1 29 3d 59 45 87 3d
       -0.01709469 0.12522699 0.04149042 0.06605024
000180 10 8c 4f 3d ce bb 58 3a 04 ed 97 3d 90 9f 25 3e
       0.050670683 0.0008267731 0.07418254 0.1617415
000190 c7 48 15 3d 15 fd 2a be c8 c2 fa 3c c1 4c e8 3d
       0.03644636 -0.16698106 0.030610457 0.11342765
0001a0 64 40 d9 3d 86 91 4d be 6c 80 f7 bd 8e 89 50 3d
       0.10607985 -0.20075044 -0.120850414 0.050912432
0001b0 dc 02 2b bc 30 05 31 bc a1 26 95 bd 66 78 8c bd
       -0.010437693 -0.010804459 -0.072827585 -0.06858902
0001c0 53 fc 0c 3d 45 c1 57 3d 8a f3 a9 3d 20 48 49 bc
       0.034420323 0.05267455 0.082984045 -0.012285262
0001d0 50 0b 3f 3d 3b e5 ca 3c 87 53 20 bd 13 0a 38 3e
       0.046641648 0.024767509 -0.039142158 0.17972593
0001e0 96 df d6 bc fb 5d 16 be 96 43 31 3e d3 d9 2d bd
       -0.026229661 -0.14684288 0.17310938 -0.04244406
0001f0 29 b0 98 bc 28 ba 60 bd 5e d7 04 bd 57 e5 94 3d
       -0.018638687 -0.054865032 -0.032431953 0.072703056
000200 75 ed 66 3d b4 74 60 bd 1c 28 3b 3d c4 9c 83 bd
       0.0563788 -0.054798797 0.04569255 -0.06426385
000210 c4 80 27 bd 3e 3c 57 bd 09 79 85 bd c6 cf 91 bd
       -0.040894285 -0.052547686 -0.06517226 -0.07119708
000220 2d 17 5b 3d cd fe c7 bd fd 4f a1 3d 09 cd f9 3c
       0.0534889 -0.09765396 0.07876585 0.030493276
000230 a3 04 d7 3c f6 b8 2d 3e c0 d7 f7 3d 75 25 0f be
       0.026247328 0.16965088 0.12101698 -0.13979132
000240 3e c6 1e 3d 27 bc c7 3d c1 4a 8a bd fe 64 89 bd
       0.038763277 0.09752684 -0.067525394 -0.06708716
000250 77 fe 9b 3c 5d 2d c9 bd 04 25 f9 3c 64 4a 87 3d
       0.019042237 -0.098231055 0.030413158 0.06605986
000260 35 e4 f6 3c e7 ac 16 bd e3 8d 95 3d 22 29 34 3d
       0.030138114 -0.036785986 0.07302453 0.04398454
000270 99 cf 51 3c d3 dd 82 bc aa 7e 7c bd 01 44 2a bd
       0.012805843 -0.015974915 -0.061644234 -0.04156876
000280 00 5d 97 3d 2e 2c 04 be 47 d8 33 bd 96 8f 36 3c
       0.07390785 -0.12907478 -0.04390743 0.011142632
000290 fc 6c b9 3c 2b 5c fe bb 87 c5 10 3d 9a fc 06 be
       0.022634976 -0.007762452 0.035344627 -0.13182297
0002a0 0c 42 32 3e 14 e7 75 bd 86 c4 d2 3c 2e e0 a3 3d
       0.17408007 -0.060034826 0.025728475 0.08001743
0002b0 81 85 58 bd 9b e6 24 3d 53 23 b1 bd f3 ef 1b bd
       -0.052861694 0.040258985 -0.08649316 -0.03807063
0002c0 ef 86 ba 3d 93 c5 b8 3c c3 6b 6b 3e 53 97 96 bd
       0.09107768 0.022555148 0.22990327 -0.073530816
0002d0 0f e5 9c 3b 22 17 66 bd 7a bf b0 3c d1 d6 9d 3d
       0.004788048 -0.056174405 0.021575678 0.077069886
0002e0 f3 ea 7b 3d 4d 9a 08 bd b0 ef 4b bd 60 32 99 3c
       0.061503362 -0.033350278 -0.04978913 0.018700778
0002f0 4a c2 02 bd b4 a8 ec 3c 31 04 b6 bd ee 80 61 ba
       -0.03192357 0.028889038 -0.08887518 -0.0008602281
000300 5c 43 c3 3d 36 99 89 bd 6f 27 d7 3d 7a 67 b9 3d
       0.09534332 -0.06718676 0.10505568 0.0905294
000310 56 82 fd 3d f2 e9 b8 bd 65 b2 b8 3d 6f 6c 25 bd
       0.12378375 -0.090289965 0.09018401 -0.040386613
000320 81 10 33 3d 58 44 73 bd b6 b3 0e bc 4e 90 1e 3d
       0.04371691 -0.05939135 -0.008709839 0.03871184
000330 4d ae 03 bd ad 3a 22 3d 15 94 87 bd b3 aa a2 bd
       -0.032148648 0.03960674 -0.06620041 -0.079427145
000340 c7 9b 2b bc 41 f7 0d 3e 53 e6 c4 3c ed a8 8f bd
       -0.010474152 0.13863851 0.024035608 -0.07014642
000350 40 71 8d bc c3 3d 80 3e cb 6c 33 3d 3f 72 03 be
       -0.017265916 0.2504712 0.043804925 -0.1283655
000360 a2 aa 31 bd 31 89 83 3d 93 b8 4f bd b3 9c 8d bd
       -0.04337562 0.064226516 -0.050713133 -0.06914654
000370 70 61 8e 3d c9 08 5e bd 8a f4 99 bc 25 e9 6b 3d
       0.069521785 -0.054207597 -0.018793363 0.05759539
000380 07 25 a1 bd 8d 6b ba 3c 19 e7 2b 3c 58 94 44 3c
       -0.078683905 0.022756362 0.01049211 0.0119982585
000390 9a 03 ae 3d db bf 06 bd 2f 74 26 3e 8d 37 be 3d
       0.08496781 -0.03289781 0.16255258 0.09287939
0003a0 9f 98 01 3c b7 d1 8c bb 8c 5f 20 3d cc 31 4f 3d
       0.007909923 -0.004297461 0.03915362 0.0505846
0003b0 d0 84 eb 3b e5 0b 03 ba 69 60 f5 3d 18 09 1f 3e
       0.0071874633 -0.0004999026 0.119812794 0.15530813
0003c0 69 73 f1 bd 90 ff e4 bc 5f d6 ae bd ba 08 9a bd
       -0.11789591 -0.027953893 -0.08536982 -0.07521196
0003d0 52 63 f2 3d b7 48 47 bc 26 08 10 be 2a b4 78 bd
       0.1183535 -0.012163333 -0.14065608 -0.060718693
0003e0 70 d1 28 3e 95 be 21 be 00 9f 15 bd aa 30 45 3d
       0.16486144 -0.15795358 -0.036528587 0.048142113
0003f0 ef bc 16 3e 67 37 9e bd 2d 31 b1 bd cc d4 53 be
       0.1472051 -0.07725411 -0.08651958 -0.20686644

fc4.bias f4 [84]
000000 bb 20 1c 3d 77 ab 59 bd 1a ed 10 3c 11 1d f1 bd
       0.03811715 -0.053142037 0.008845592 -0.11773122
000010 67 e7 1e bd b2 67 b4 3d 72 d2 83 3d 66 27 7b 3b
       -0.0387949 0.08808841 0.06436624 0.0038323044
000020 90 07 86 bc cf 8f b6 3d 7e ea f6 3d 7a 2a 42 3d
       -0.016361028 0.08914148 0.120564446 0.04740379
000030 23 e8 25 bd 9d be ab b9 f1 18 0f 3d 13 4a fb 3d
       -0.040504586 -0.0003275768 0.034935895 0.12269988
000040 5a 3d 19 bd 9d 9f 3e 3c c3 ec b6 bd db f1 c5 3d
       -0.037412025 0.011634734 -0.089318775 0.09665271
000050 9a 17 1b bd 3b b7 0a bc eb dd 8e 3d a5 01 9e 3d
       -0.037864305 -0.008466537 0.06975921 0.077151574
000060 75 93 64 3d c2 18 1f 3c 7b c8 d4 3d db 44 0a 3e
       0.05580469 0.009710493 0.10389801 0.13502829
000070 6d a9 89 bd 36 a8 91 bc fe bf e5 bb fa 57 55 3d
       -0.067217685 -0.017780405 -0.0070114126 0.052085854
000080 b0 f4 be 3d cf 1b ac bd 1d d3 97 bd af e7 bc 3d
       0.09324014 -0.084037416 -0.074133135 0.09223878
000090 53 02 17 3e 55 8d 88 bc 2a 87 7d 3d ee d9 c2 bc
       0.1474698 -0.016668955 0.06189648 -0.023785558
0000a0 5d c0 c1 bc 56 5b f9 3c 83 aa ca 3d f1 59 bf bd
       -0.023651296 0.03043906 0.09895804 -0.09343327
0000b0 3c 08 b9 3c 6d fa 26 3d 73 7e c8 3d c8 ec ac bc
       0.022586934 0.04076617 0.09789743 -0.021109
0000c0 8f 4d 37 bd 7e 6b d3 3d 1e 6e 88 bc 84 fe 8b bd
       -0.0447517 0.10323237 -0.01665407 -0.068356544
0000d0 7d f1 3b 3c 8b bd 16 bd 5c 9c 8f 3d 28 54 4d 3d
       0.0114711495 -0.036801856 0.07012245 0.050129086
0000e0 23 7f 69 bd 7a 76 10 3c 3b f5 93 3d 38 08 88 3d
       -0.057006013 0.0088173095 0.072245084 0.066421926
0000f0 c2 64 1d bb 40 b3 22 bd c2 38 d0 bd 30 f7 28 bd
       -0.0024016355 -0.039721727 -0.10167076 -0.04125136
000100 d6 1c 5c bd bb 6f 77 bd 17 f9 31 bd ec be ef 3c
       -0.053738438 -0.06040929 -0.04345044 0.029265843
000110 f4 8a e8 bd 56 3c d1 bd c8 33 59 3d 59 82 f2 3c
       -0.11354628 -0.10216586 0.053027898 0.02960317
000120 c9 c2 02 bd 40 6f ac bd 7e a4 0b 3c ae f0 8e bd
       -0.031924043 -0.08419657 0.008523105 -0.069795
000130 4f b4 92 bd 09 4c 9e 3d a6 e8 89 3d 49 d1 83 3d
       -0.071632974 0.07729346 0.06733827 0.06436402
000140 ed 50 02 3d 85 87 aa 3c 26 85 7a 3d 27 bd e8 3c
       0.031815458 0.020816574 0.061162136 0.028410507

fc5.weight f4 [10, 84]
000000 08 93 e6 3d 1e dc c5 3d e9 a4 41 be 7b 30 0b 3e
       0.11258513 0.09661125 -0.18910564 0.13592713
000010 41 d8 77 bc 87 be 9e bd 18 d3 23 3d 76 ff 3d 3d
       -0.015127243 -0.07751184 0.039996237 0.046386205
000020 02 4d 28 3d 6d e6 21 3d a5 6a ad 3c 66 b5 07 3e
       0.041089065 0.03952639 0.021169016 0.13252792
000030 ce b2 fb 3d 76 a1 a0 bd 46 d5 e1 3d 72 61 9f bd
       0.12289964 -0.07843296 0.11027007 -0.07782258
000040 c1 fe 70 bd c8 42 c3 bd d7 b0 e4 3d e9 57 c3 bb
       -0.058836702 -0.09534222 0.11166542 -0.0059614074
000050 25 37 ed bd 67 10 91 3d 72 37 6b 3d 43 ce 9d bc
       -0.115827836 0.070832066 0.057425924 -0.019263392
000060 ab cf f2 bc 43 f5 c7 bd 6d 24 ed 3c d7 ea 74 3d
       -0.02964004 -0.09763577 0.028948033 0.059794273
000070 c8 30 c2 3c 0c bf d4 bd df 61 06 3e 5f 49 e4 bc
       0.023704901 -0.10388002 0.13123272 -0.027867017
000080 63 ab d7 bd 4e 48 a3 3d 94 9e d5 bc 91 f5 0a 3e
       -0.10530736 0.079727754 -0.026076593 0.13570239
000090 ff f2 27 be 6c 91 10 bc 16 90 2b be 22 1b 7e 3d
       -0.1640129 -0.008823734 -0.16754183 0.062037595
0000a0 5c b8 51 bc a7 8e 13 bd 79 c0 8b 3d 95 33 aa 3d
       -0.012800302 -0.036024716 0.068238206 0.0831062
0000b0 b0 89 08 3e 11 4e e1 3d 12 d7 b1 bd 95 6c c6 bd
       0.13333774 0.11001218 -0.086835995 -0.09688679
0000c0 30 6c 86 ba c1 6d 48 be 2d f8 05 3d 11 82 3e be
       -0.0010255631 -0.19573118 0.032707382 -0.18604304
0000d0 6d 1f 88 3d 72 f6 f6 3d e8 41 27 3e f0 91 ad 3d
       0.06646619 0.120587245 0.16333735 0.08475101
0000e0 a4 90 2a 3e 30 88 71 3d e8 e6 40 3c 88 16 c6 bd
       0.16656739 0.05896777 0.011773802 -0.09672266
0000f0 78 16 bb bd aa a8 b6 3c 14 0e 86 bd c6 49 7d bc
       -0.09135145 0.022297222 -0.06545654 -0.0154594835
000100 58 ef 24 bd 2c 14 24 3e ad 11 9d bd 12 b3 ef 3d
       -0.04026732 0.1602332 -0.07669387 0.11704077
000110 66 b7 5c bd 55 5f 89 bc 96 6b 80 be a6 66 6e 3d
       -0.05388584 -0.01676909 -0.25082082 0.058203362
000120 22 58 63 bd fb e2 40 3d cc e9 b2 bd 86 c4 c7 3d
       -0.055503972 0.047091465 -0.087359995 0.09754281
000130 43 6b 2b bd 14 1a 40 be 1d 08 c4 b9 92 b4 ba bc
       -0.04185034 -0.18759948 -0.00037390078 -0.02279118
000140 e3 88 3a be 98 39 16 be 7f 77 75 be d9 1b 5e 3d
       -0.1821628 -0.14670408 -0.23971365 0.054225776
000150 72 8a a3 3c c3 cf bb 3d 8f 4b d4 bd 57 a9 90 3d
       0.019963477 0.09170487 -0.10365974 0.07063549
000160 ba b1 2a be 02 c3 34 be 27 e6 38 be a3 25 c8 bb
       -0.1666936 -0.17652515 -0.18056546 -0.0061080023
000170 e2 57 0a 3e 03 89 13 be 9f 75 ec bc 6e 64 b2 bd
       0.13510087 -0.14407735 -0.02886468 -0.08710562
000180 d1 4f b9 bd 82 86 00 3d 2b a4 26 be 60 3a 05 3e
       -0.09048427 0.031378277 -0.16273563 0.1301055
000190 2a 4a a7 bd 5b 49 ff 3d 14 ab 95 bd fb 81 eb 3d
       -0.081684425 0.12465163 -0.07308021 0.11499401
0001a0 14 0c 97 3d 62 6e 08 be d9 95 02 3e 6b f5 40 3d
       0.073753506 -0.13323358 0.12752475 0.04710905
0001b0 e0 a9 09 be 96 9b d8 bb 9e 61 1b 3e b9 d6 73 3d
       -0.13443708 -0.006610344 0.15173957 0.059530947
0001c0 32 2d 0d 3e 13 2c 8c bd 86 9c f3 3c 8c d2 f6 bd
       0.13786772 -0.06844344 0.029737722 -0.120518774
0001d0 d8 47 26 be 8a 18 ae bc 43 ce 66 3b 66 dc 25 bd
       -0.16238344 -0.021251936 0.0035218156 -0.04049339
0001e0 2f be 50 be 88 b5 2e 3e 2d c2 04 3d 62 ad 53 bd
       -0.2038505 0.17061436 0.032411743 -0.051679023
0001f0 65 2d 08 bd c2 b4 11 3d d3 d9 00 be e8 ef 78 3d
       -0.033246417 0.035572775 -0.12583093 0.060775667
000200 1d df 42 3d 9d ae 50 3c a7 32 6a 3b 0a e5 84 bd
       0.04757606 0.012736944 0.0035735758 -0.06488998
000210 76 40 e5 bc 31 1f 03 3e f7 86 08 bc 94 a9 b8 bc
       -0.027984839 0.12804867 -0.008332959 -0.022541799
000220 40 26 37 be 42 2a 97 3d 35 43 f0 bc 6e fe 30 be
       -0.17885685 0.07381107 -0.029328922 -0.17284557
000230 41 ee 27 3e 64 14 45 be 18 27 fb 3d 30 7e c0 bd
       0.1639948 -0.1924606 0.12263316 -0.09399068
000240 89 3b 6f bd ce 4e 0a be bb cd 66 3a e0 69 af 3d
       -0.058406387 -0.13506624 0.000880446 0.08565116
000250 ab 2d 9e 3d 6c 7b 29 be e7 80 f7 bd b1 3c 4e be
       0.07723554 -0.16550988 -0.12085133 -0.2014034
000260 49 e6 42 3d 18 d2 ab 3c 4b ea ce 3d 68 58 88 3d
       0.0475829 0.020974204 0.101032816 0.06657487
000270 69 90 a6 bc 6a ff a3 bc 61 7a 5b be 28 40 ae 3d
       -0.020332532 -0.020019252 -0.21433403 0.085083306
000280 ca a1 a3 ba 3d 58 d2 3d 6f f0 b5 bd 89 e9 b7 bd
       -0.001248413 0.10270736 -0.0888375 -0.0898009
000290 30 24 30 be 66 94 0f 3e c4 2d 1b 3d 08 5d d2 bd
       -0.17201304 0.14021453 0.037885442 -0.102716506
0002a0 00 50 f3 3d 7b 4b 0f 3e 59 ec bb 3c 61 f4 b4 bc
       0.11880493 0.13993637 0.022939848 -0.022089185
0002b0 e3 86 1e 3e cc 09 48 3c 84 ae 49 be d9 25 52 3b
       0.15481143 0.012209367 -0.19695479 0.0032066016
0002c0 16 d1 00 3e 0c ed f7 3d e2 da 39 3d 5d a6 2e be
       0.1257976 0.1210576 0.04537476 -0.1705565
0002d0 30 e3 60 3d e5 4f 54 bc d5 05 27 bc 63 ab 51 bc
       0.054904163 -0.012958501 -0.010194262 -0.012797209
0002e0 88 0e a4 3d de ac c6 bc 02 7e 3f bd 9d d7 44 be
       0.08010584 -0.024252351 -0.04675103 -0.19222875
0002f0 1d 90 98 be 66 5f 03 be d7 02 46 bd c1 c2 07 3e
       -0.2979745 -0.1282936 -0.048342552 0.13257886
000300 2e 3f 93 bd f4 9a 2d be fc 2b d2 3d fb b0 ea 3c
       -0.07189785 -0.16953641 0.102622956 0.028648844
000310 a9 61 62 3c c9 43 f9 bd 8f 05 9f 3c ed 3e 89 3d
       0.013817229 -0.12171132 0.01941183 0.06701455
000320 f5 ea 88 3d 09 69 34 3c 84 cf cc bc fa 3d b2 3c
       0.066854395 0.01101137 -0.025001295 0.021758068
000330 36 c1 66 bd 72 85 56 bd a8 a6 11 be 29 7c 63 3d
       -0.056336604 -0.052373357 -0.1422373 0.05553833
000340 42 fb 03 3d 2e 52 c1 3c 13 1b b0 3d 49 49 2b bd
       0.03222204 0.023598757 0.08598914 -0.041817937
000350 e3 92 dc 3d 1e 8a 9b 3d 70 ca 09 be f3 26 c8 3d
       0.10770204 0.07594703 -0.1345613 0.09773054
000360 1a d0 5a bb ca 6a d2 3c 0c ff 3d be d3 02 d1 bc
       -0.0033388198 0.025685687 -0.18554324 -0.025514042
000370 01 54 ee bc 5b 01 61 be bb 81 3e bd 86 7c 40 bd
       -0.02909279 -0.21973173 -0.04651044 -0.046993755
000380 c7 0f b8 3d 59 c8 15 3e f5 8b e5 3a de 5c 47 be
       0.08987384 0.14627208 0.0017513024 -0.1946902
000390 fa 4b 2d 3c af 30 b7 bd 08 45 6b 3d 3f 96 ef bd
       0.010577196 -0.089448325 0.05743888 -0.11698579
0003a0 51 37 9a bd 25 8e 40 3c 87 aa fb 3d c9 4f a5 3d
       -0.07530082 0.01175264 0.12288385 0.080718584
0003b0 d8 23 4a ba 72 9c c3 3c fc a7 04 be 04 ea 01 3e
       -0.00077110296 0.02387831 -0.12954706 0.12686926
0003c0 ef 99 01 3e c2 61 ee bc 1c 82 2a 3e 28 2e 07 3e
       0.12656377 -0.029099349 0.16651195 0.13201201
0003d0 93 56 b6 3d 12 29 0d 3e e4 d2 0b be e2 db 0a 3e
       0.089032315 0.13785198 -0.13654667 0.13560441
0003e0 93 9a d3 bc f3 e6 38 bb 41 55 1f 3d 5a dc 83 bd
       -0.025830543 -0.0028213828 0.038899664 -0.06438513
0003f0 83 de c1 3c 06 90 3d 3d bd a8 08 be 52 3d 03 bd
       0.023665672 0.04627993 -0.13345619 -0.0320409

fc5.bias f4 [10]
000000 4f a1 41 3c cc e6 00 3d 1f c7 33 bd 4a e5 6e bd
       0.011818244 0.031470105 -0.04389107 -0.058324136
000010 b1 fd 29 3d bd 67 94 3d 33 78 89 3d c6 41 90 bd
       0.041501705 0.07246349 0.06712379 -0.07043795
000020 0a 7b ff 3c ab f0 8d 3d
       0.0311866 0.069306694
