model/lenet5.pth (torch_old, 248640 bytes, 10 tensors)

layers.0.weight f4 [6, 1, 5, 5]
-0.102357805 -0.09294655 0.17320324 0.035635132 -0.21888642 -0.17005716 -0.14252494 0.30400613
0.26481614 -0.08610617 -0.28081736 0.01889135 0.18756725 0.13299467 -0.34407303 0.08419293
0.16797398 0.24975689 0.065720275 -0.2091764 0.014942818 0.117880195 -0.08776846 -0.12700567
0.05838425 0.062314995 -0.22918797 -0.03456362 -0.26272228 -0.05090182 0.022749482 -0.21465126
-0.22693251 -0.06258707 -0.16806248 0.30469713 -0.18156126 -0.2185903 -0.08851437 -0.09287478
0.3692091 0.16077848 -0.1708831 0.09113916 -0.003103598 0.22609697 0.31666955 0.06638472
0.34696987 -0.01948047 -0.013922441 0.056601346 0.32826415 0.14092274 0.3351708 0.049920708
0.1950382 0.34127763 0.10859863 0.27784106 0.17778221 -0.13415924 -0.037833154 0.0011579163
-0.040234867 0.040597484 -0.2693085 -0.23772435 -0.32564378 -0.29948536 0.027621899 -0.024771392
-0.10840067 -0.24240829 -0.13565576 0.23295294 0.045538507 0.03434991 -0.0063154856 0.037318107
0.29273427 0.27795473 -0.1646134 -0.1820648 -0.13551705 0.057038408 0.029872581 0.049178008
-0.11432155 0.083747186 -0.08179744 0.28548792 0.05887582 -0.04586278 -0.24110614 0.20322166
0.29946822 0.02061296 -0.041086588 -0.24739152 -0.017846886 -0.21353734 -0.3269059 0.1453535
0.24329834 -0.33631444 -0.1414591 0.27449048 0.23538966 0.19595529 -0.1580864 -0.0067214714
0.14553286 0.31808436 -0.027299045 -0.034716513 0.2642145 0.16655603 0.062604584 -0.14560893
-0.078196526 0.2071062 0.04090521 -0.0066419696 -0.07968363 -0.08056853 -0.042501364 0.21677822
0.18366045 -0.051240977 0.11642439 -0.030237079 0.09931845 0.05931233 0.25002566 0.04398399
0.1375928 0.068405874 0.20332216 0.23238488 -0.05453554 -0.22902983 -0.08898412 -0.16016611
0.030232262 -0.30257335 -0.08703704 -0.20500122 -0.1393249 -0.20291121
00000000: f8a0 d1bd c35a bebd 315c 313e 25f6 113d
00000010: c323 60be 7723 2ebe 0ff2 11be b1a6 9b3e
00000020: fb95 873e 6f58 b0bd 4bc7 8fbe 08c2 9a3c
00000030: a111 403e c12f 083e 572a b0be 586d ac3d
00000040: 5f01 2c3e 45c0 7f3e 5a98 863d 5732 56be
00000050: b9d2 743c 2c6b f13d f3bf b3bd c60d 02be
00000060: 5324 6f3d 023e 7f3d 40b0 6abe 9592 0dbd
00000070: 8983 86be 6d7e 50bd 1f5d ba3c 8acd 5bbe
00000080: ff60 68be a62d 80bd 9218 2cbe 4301 9c3e
00000090: 32eb 39be 23d6 5fbe 0647 b5bd 2235 bebd
000000a0: fa08 bd3e 1da3 243e fbfb 2ebe 2ba7 ba3d
000000b0: bc65 4bbb f785 673e 8322 a23e b6f4 873d
000000c0: 09a6 b13e 8295 9fbc f31a 64bc d0d6 673d
000000d0: 3d12 a83e 0d4e 103e 829b ab3e a879 4c3d
000000e0: 18b8 473e f1bb ae3e f568 de3d 2f41 8e3e
000000f0: 8a0c 363e 0a61 09be f0f6 1abd 39c5 973a
00000100: 51cd 24bd 8c49 263d cee2 89be 036e 73be
00000110: c8ba a6be 2556 99be 5247 e23c 60ed cabc
00000120: 2c01 debd e139 78be 58e9 0abe 378b 6e3e
00000130: 9686 3a3d 7eb2 0c3d 22f2 cebb dfda 183d
00000140: 44e1 953e 1550 8e3e 6a90 28be 326f 3abe
00000150: fbc4 0abe 1ba1 693d 58b7 f43c e16e 493d
00000160: 6b21 eabd a583 ab3d 6b85 a7bd 792b 923e
00000170: c627 713d 9cda 3bbd 87e4 76be 5719 503e
00000180: e653 993e 83dc a83c 694a 28bd 3454 7dbe
00000190: a233 92bc 88a9 5abe 3660 a7be 8cd7 143e
000001a0: 3323 793e 6831 acbe a8da 10be 048a 8c3e
000001b0: fd09 713e 81a8 483e 67e1 21be ca3f dcbb
000001c0: 9106 153e f4db a23e 3fa2 dfbc e732 0ebd
000001d0: 1f47 873e aa8d 2a3e d536 803d 821a 15be
000001e0: 8025 a0bd a613 543e 398c 273d e1a4 d9bb
000001f0: 2c31 a3bd 1d01 a5bd e915 2ebd 1cfb 5d3e
00000200: 7c11 3c3e 0fe2 51bd e96f ee3d c0b3 f7bc
00000210: 7967 cb3d 7cf1 723d 5d03 803e 8e28 343d
00000220: 21e5 0c3e 6118 8c3d af33 503e 4df6 6d3e
00000230: a960 5fbd cc86 6abe 4e3d b6bd 9602 24be
00000240: a6a9 f73c e5ea 9abe 7a40 b2bd d7eb 51be
00000250: 30ab 0ebe f5c7 4fbe

layers.0.bias f4 [6]
-0.05976764 0.15740305 0.105986506 0.11015941 -0.04051764 -0.10406482
00000000: eace 74bd 442e 213e 740f d93d 429b e13d
00000010: d3f5 25bd f01f d5bd

layers.3.weight f4 [16, 6, 5, 5]
0.085766196 0.05913497 0.11268313 0.007959922 -0.04965432 0.067192934 0.062690295 0.042335138
-0.08626782 -0.097410716 0.1320102 0.033745747 0.08102263 -0.068703935 -0.022060718 0.15834914
0.07208401 -0.115882635 -0.08195206 0.0077905185 0.07714079 -0.008347648 0.0025382866 0.0351937
0.031219656 -0.051032707 0.02271673 0.04618638 0.06651133 -0.014999089 -0.10848128 -0.02247248
0.013439622 -0.063319124 -0.025624122 -0.23289241 0.008407118 0.07112648 0.0738849 -0.008965769
-0.16603936 0.003486426 0.076316185 0.059738893 -0.10347236 -0.19011655 0.09895752 0.083578445
-0.015793877 -0.08700321 -0.047174387 -0.028309602 -0.035731293 0.024716796 0.0151703805 -0.05137948
0.083529085 0.0791287 0.11457712 0.07961118 -0.1571812 -0.021007685 0.09801572 -0.021633042
-0.016395878 -0.10151816 0.015253756 -0.078324825 -0.17197609 -0.024658438 -0.10091032 0.00013406895
-0.012431591 -0.0267693 -0.07885167 0.04811637 0.11592045 0.026249666 0.031571876 -0.09252359
0.096014775 0.19924942 0.09053944 -0.047538348 -0.068882 0.16601083 0.18708429 0.0675097
0.03451243 -0.055181257 0.15736325 0.080794655 0.0765337 0.008654798 -0.1166775 0.13495463
0.17540167 0.12229597 -0.009915642 -0.1557826 0.077647455 0.050393432 0.049372774 -0.11000026
-0.12357614 0.055983078 -0.015364141 -0.028058248 -0.08032119 -0.1315583 0.0930088 0.017741716
0.02457958 -0.11578822 0.0014939167 0.09696746 0.012777773 -0.03834484 0.008725458 -0.011175114
0.062114425 -0.036367476 -0.18201415 0.006601263 -0.15321754 -0.1083817 -0.044684105 -0.022973763
-0.09721479 0.036306042 -0.14489533 -0.13550526 0.042037737 -0.048058357 0.04173805 -0.15075862
-0.12157909 -0.024346791 -0.07545694 -0.003779613 -0.16517244 -0.20540039 -0.08598966 0.044381462
-0.013000665 -0.0066451654 -0.040230323 -0.0686999 -0.05180971 0.11659992 0.006988129 0.06307462
-0.04914996 -0.046238713 -0.038974088 0.011331224 0.16209975 0.029658422 0.037159488 0.043849487
-0.15246727 0.06952894 -0.0018495696 0.08641689 0.08836153 -0.306914 0.0016157649 0.019087084
-0.031635284 -0.06867216 -0.16647959 0.1290105 0.15703143 0.13503017 -0.0030993486 -0.17326187
0.10014517 0.09747615 0.13725494 -0.052649327 -0.1018181 -0.03944744 0.12760182 0.13548101
0.07869557 -0.1763062 -0.27752393 0.05130844 0.11932362 0.1400226 -0.21523674 -0.312344
-0.13899207 0.07485887 0.0031556527 -0.1816025 -0.1932457 -0.06623486 0.05493976 -0.026282871
-0.05814163 -0.025388792 -0.0401311 0.08046751 0.10410267 0.011901062 -0.28980476 -0.14108914
-0.0391277 -0.030604403 -0.0062165433 -0.18391266 -0.08184405 -0.013327513 -0.0889092 -0.043808173
-0.05018787 0.09913769 0.049781714 0.00023206185 -0.10190505 -0.075848065 0.04790822 0.10179706
0.016805973 -0.118381985 0.18571773 0.13139369 0.004780356 0.078983046 -0.20548752 0.03433166
0.16706349 0.071316764 0.026844814 -0.36635488 0.076213986 0.10517555 0.08301699 0.04104323
-0.37257713 0.010982762 0.1674723 0.08325931 0.02769437 -0.22021298 -0.050632562 0.08819366
0.12758192 -0.017672447 -6.830887e-05 -0.07830585 0.043936867 0.03355752 0.02781991 0.012218257
00000000: 30a6 af3d 8337 723d 6ac6 e63d 556a 023c
00000010: 5462 4bbd 739c 893d c563 803d 9c67 2d3d
00000020: 2fad b0bd 457f c7bd af2d 073e fb38 0a3d
00000030: 31ef a53d a6b4 8cbd aeb8 b4bc 4726 223e
00000040: c8a0 933d e053 edbd 7bd6 a7bd 9b47 ff3b
00000050: fefb 9d3d 93c4 08bc 6259 263b 4527 103d
00000060: 5dc0 ff3c ac07 51bd 7018 ba3c ee2d 3d3d
00000070: 1837 883d bdbe 75bc 6f2b debd 3518 b8bc
00000080: dc31 5c3c 75ad 81bd aee9 d1bc 597b 6ebe
00000090: 02be 093c c3aa 913d f750 973d 29e5 12bc
000000a0: 3906 2abe 867c 643b a94b 9c3d c5b0 743d
000000b0: 51e9 d3bd eaad 42be 3eaa ca3d 2d2b ab3d
000000c0: 2962 81bc bd2e b2bd ee39 41bd 8ae9 e7bc
000000d0: fa5a 12bd e17a ca3c 308d 783c 4a73 52bd
000000e0: 4c11 ab3d 3a0e a23d 69a7 ea3d 300b a33d
000000f0: 1cf4 20be 4f18 acbc 77bc c83d c737 b1bc
00000100: a650 86bc c1e8 cfbd e4ea 793c c468 a0bd
00000110: 801a 30be 7e00 cabc 12aa cebd dc94 0c39
00000120: dfad 4bbc 4b4b dbbc fc7c a1bd ac15 453d
00000130: b367 ed3d 8a09 d73c 8351 013d 027d bdbd
00000140: 65a3 c43d 0a08 4c3e be6c b93d 92b7 42bd
00000150: 0212 8dbd befe 293e 0693 3f3e 8742 8a3d
00000160: e85c 0d3d be05 62bd d523 213e ab77 a53d
00000170: b3bd 9c3d dbcc 0d3c 9df4 eebd 8c31 0a3e
00000180: 7f9c 333e 4f76 fa3d 3875 22bc 7985 1fbe
00000190: a105 9f3d 5869 4e3d 1b3b 4a3d d147 e1bd
000001a0: 7d15 fdbd 834e 653d e1b9 7bbc 69da e5bc
000001b0: 707f a4bd 38b7 06be 667b be3d 1357 913c
000001c0: 1e5b c93c 6022 edbd 87cf c33a e096 c63d
000001d0: dd59 513c 7b0f 1dbd 39f5 0e3c d317 37bc
000001e0: b26b 7e3d 10f6 14bd eb61 3abe 684f d83b
000001f0: 0fe5 1cbe 3af7 ddbd ae06 37bd 7933 bcbc
00000200: 8c18 c7bd a5b5 143d 715f 14be e4c1 0abe
00000210: c32f 2c3d d7d8 44bd 84f5 2a3d 7860 1abe
00000220: 75fe f8bd ec72 c7bc 2b89 9abd 62b3 77bb
00000230: f722 29be 7b54 52be 591b b0bd 56c9 353d
00000240: be00 55bc b0bf d9bb 8dc8 24bd 88b2 8cbd
00000250: 6b36 54bd f0cb ee3d adfc e43b 442d 813d
00000260: 7851 49bd ce64 3dbd 4ba3 1fbd 99a6 393c
00000270: 7afd 253e 38f6 f23c 8c34 183d 859b 333d
00000280: 6120 1cbe 3065 8e3d 426d f2ba 57fb b03d
00000290: e4f6 b43d d523 9dbe 13c8 d33a 845c 9c3c
000002a0: 0094 01bd fda3 8cbd a079 2abe 541b 043e
000002b0: d9cc 203e 5945 0a3e 711e 4bbb 8f6b 31be
000002c0: e918 cd3d 93a1 c73d 8f8c 0c3e d2a6 57bd
000002d0: 0286 d0bd a493 21bd 0daa 023e 89bb 0a3e
000002e0: 252b a13d 9d89 34be 9e17 8ebe cc28 523d
000002f0: f15f f43d 1662 0f3e 0567 5cbe 8eeb 9fbe
00000300: f053 0ebe 9b4f 993d 11cf 4e3b 01f6 39be
00000310: 33e2 45be 24a6 87bd 8408 613d 2d4f d7bc
00000320: eb25 6ebd 28fc cfbc 8260 24bd 26cc a43d
00000330: c833 d53d acfc 423c 4a61 94be ac79 10be
00000340: 5e44 20bd 16b6 fabc 25b4 cbbb 9a53 3cbe
00000350: da9d a7bd a45b 5abc 0716 b6bd 3370 33bd
00000360: cc91 4dbd b408 cb3d e9e7 4b3d a155 7339
00000370: 98b3 d0bd 3b56 9bbd 693b 443d fa7a d03d
00000380: aeac 893c 4172 f2bd ca2c 3e3e 118c 063e
00000390: 88a4 9c3b ddc1 a13d 526b 52be 5b9f 0c3d
000003a0: b112 2b3e 860e 923d a8e9 db3c de92 bbbe
000003b0: 1416 9c3d 4766 d73d d004 aa3d f21c 283d
000003c0: 6ec2 bebe 0bf1 333c dc7d 2b3e db83 aa3d
000003d0: 4edf e23c 837f 61be 1764 4fbd e19e b43d
000003e0: d6a4 023e cfc5 90bc 0c41 8fb8 d15e a0bd
000003f0: 25f7 333d 9c73 093d 94e6 e33c 162f 483c

layers.3.bias f4 [16]
0.01676678 0.050476957 0.0027294266 0.010633637 -0.08024547 0.012845796 -0.075100884 -0.033719536
-0.007959543 0.04653072 -0.065631114 -0.0052840468 0.022140866 -0.10941356 -0.013265496 0.06300162
00000000: 7c5a 893c edc0 4e3d 2ee0 323b b538 2e3c
00000010: bd57 a4bd 2c77 523c 7ece 99bd 7f1d 0abd
00000020: be68 02bc ff96 3e3d 9b69 86bd cc25 adbb
00000030: c360 b53c 3714 e0bd 8657 59bc fe06 813d

layers.6.weight f4 [120, 16, 5, 5]
-0.00017078237 0.027891325 -0.05810443 0.00042620872 -0.010816111 -0.06641824 0.0104879 -0.030676778
0.033908423 -0.052771013 -0.08551433 -0.023501044 0.06438961 0.054801185 0.004159292 -0.014415703
-0.037223037 0.054091014 0.07653696 0.034851283 0.035306472 0.010687226 0.035426516 -0.0023184812
-0.028356098 0.024382928 0.014436459 -0.022831839 0.001447679 0.015816806 0.09514742 -0.06790647
0.06731525 -0.051110286 -0.12084961 0.11781492 0.037842985 0.019819785 0.0051305317 -0.05603955
0.014814444 0.069320545 0.0649781 0.044158917 -0.044510715 -0.13423012 -0.08954824 -0.08634556
0.07401643 0.05974733 0.05346404 0.017164376 0.069799244 0.0030656308 0.0042506 0.06859322
0.0133353295 0.03316028 -0.073981985 -0.044973515 -0.04181813 -0.028898424 0.0051762806 0.049192317
-0.045963693 -0.054918483 -0.00017360301 0.06156871 -0.025691012 -0.047895785 0.060952697 0.12354207
-1.7285842e-05 0.031611234 0.041878726 -0.041076947 -0.06296043 0.019245919 0.010601617 0.104166195
0.06355572 0.06614563 -0.055644143 0.004077848 -0.004693697 0.034416676 0.04560406 -0.13221043
0.061177064 -0.04462925 0.038692042 -0.07078133 -0.02441412 0.0008412727 -0.12596785 0.025280276
0.01838655 0.0152150905 0.05160713 -0.0104682045 -0.019418921 -0.051539503 -0.035868175 0.069600955
0.013982232 0.09399136 -0.0009462953 -0.06502543 0.061658263 -0.09683796 0.026417717 -0.097096786
-0.05037676 0.04033402 -0.046511654 -0.10137675 -0.029068977 -0.002319572 0.042685986 -0.027361233
0.04800815 0.07326553 0.082229234 0.0035835921 0.11835629 0.014890948 0.004941712 0.048676286
-0.047468986 0.006540334 -0.070055105 -0.046489883 -0.06427998 0.062163007 -0.04006582 0.027719893
0.041686308 0.0758005 0.016524937 -0.044512488 0.06512477 0.09731938 0.08907156 -0.024724852
0.06860309 0.035391092 0.056910288 0.002685045 0.013729442 0.11872957 -0.009079743 0.024112254
0.09899637 0.11333751 0.015795087 -0.015979605 -0.06884406 0.049517013 0.065515704 0.006299272
-0.036288384 -0.03317901 0.024353238 -0.042907476 0.00081572996 0.019878283 0.023036893 0.024776561
-0.07405378 -0.082233615 0.069976 0.06308829 0.017314421 -0.004272915 -0.05632417 -0.061411288
0.021591665 0.0070645562 0.037571754 0.054049317 -0.06958396 0.010655286 0.03888096 -0.06663157
0.0006054126 0.042456444 0.07355567 0.024053374 -0.026318168 -0.084128186 0.1895383 0.21325642
-0.03406108 0.009348527 -0.04514922 0.020033482 -0.03115366 0.014170432 0.041310895 0.02670575
0.057141606 0.042233743 0.04458833 -0.04306892 0.037162393 -0.028875677 -0.011093743 -0.07902752
-0.021289684 -0.10159338 0.013520098 0.0663135 -0.0064176503 0.010167049 -0.052208375 0.12813835
0.08347532 0.04313837 -0.03092673 0.044161085 -0.01439309 -0.027435744 -0.062626325 0.01178406
0.100868255 -0.016493404 -0.0325751 -0.00035376434 0.042802908 0.010846439 0.014177586 -0.029811963
0.02166157 0.056533907 0.048402637 0.021337304 -0.024791809 -0.040595558 0.07567082 0.0014749878
0.019854927 -0.12730648 -0.10975217 0.04593583 0.03448492 -0.03472305 -0.038425058 -0.032097626
0.0824866 0.091942996 0.08577808 0.019947696 0.07000971 0.011572132 -0.035470545 -0.046492223
00000000: 0b14 33b9 597c e43c e9fe 6dbd c474 df39
00000010: 0f36 31bc 4906 88bd 71d5 2b3c de4d fbbc
00000020: 8fe3 0a3d 6b26 58bd 2322 afbd 4385 c0bc
00000030: b3de 833d 3577 603d ac4a 883b d72f 6cbc
00000040: 2f77 18bd 8a8e 5d3d 69bf 9c3d 38c0 0e3d
00000050: 859d 103d 7a19 2f3c 651b 113d a9f1 17bb
00000060: 0c4b e8bc b5be c73c e686 6c3c d609 bbbc
00000070: 0cc0 bd3a 3f92 813c a7dc c23d 8c12 8bbd
00000080: 94dc 893d 0559 51bd 0080 f7bd f348 f13d
00000090: 3f01 1b3d 1a5d a23c 051e a83b ba89 65bd
000000a0: 48b8 723c eef7 8d3d 3d13 853d fbdf 343d
000000b0: de50 36bd 9f73 09be 1165 b7bd f1d5 b0bd
000000c0: ed95 973d 9eb9 743d 1cfd 5a3d 4e9c 8c3c
000000d0: e8f2 8e3d c0e8 483b 9e48 8b3b 9a7a 8c3d
000000e0: 6d7c 5a3c 13d3 073d de83 97bd 2636 38bd
000000f0: 7d49 2bbd 63bc ecbc ca9d a93b e27d 493d
00000100: 6d44 3cbd 34f2 60bd 3409 36b9 792f 7c3d
00000110: f575 d2bc 5f2e 44bd 89a9 793d a003 fd3d
00000120: 1001 91b7 c87a 013d 0789 2b3d 4d40 28bd
00000130: 66f1 80bd 9ea9 9d3c 68b2 2d3c 1655 d53d
00000140: 8029 823d 5c77 873d 1deb 63bd 789f 853b
00000150: 96cd 99bb 80f8 0c3d 53cb 3a3d 2c62 07be
00000160: cd94 7a3d 29cd 36bd 8c7b 1e3d cdf5 90bd
00000170: 1f00 c8bc db88 5c3a b7fd 00be 9518 cf3c
00000180: 649f 963c b748 793c ff61 533d d582 2bbc
00000190: 6e14 9fbc 161b 53bd 82ea 12bd f28a 8e3d
000001a0: bb15 653c 8b7e c03d cd10 78ba 0d2c 85bd
000001b0: 608d 7c3d fb52 c6bd f869 d83c aeda c6bd
000001c0: dd57 4ebd 4935 253d 0183 3ebd 9d9e cfbd
000001d0: 1022 eebc f603 18bb 80d7 2e3d aa24 e0bc
000001e0: 32a4 443d 3d0c 963d cd67 a83d b3da 6a3b
000001f0: c864 f23d 2af9 733c 16ee a13b c960 473d
00000200: d76e 42bd 4c50 d63b 0d79 8fbd 2d6c 3ebd
00000210: 39a5 83bd a39e 7e3d 0f1c 24bd d414 e33c
00000220: 43bf 2a3d 4b3d 9b3d 4e5f 873c ba52 36bd
00000230: 2360 853d 624f c73d 266b b63d c68b cabc
00000240: c77f 8c3d 40f6 103d c31a 693d 94f7 2f3b
00000250: 74f1 603c 7d28 f33d 34c3 14bc 1087 c53c
00000260: 9cbe ca3d 7f1d e83d b364 813c a9e7 82bc
00000270: 1dfe 8cbd 5ad2 4a3d 192d 863d 206a ce3b
00000280: 21a3 14bd b7e6 07bd 7180 c73c c0bf 2fbd
00000290: b6d6 553a c8d7 a23c deb7 bc3c 37f8 ca3c
000002a0: 82a9 97bd 196a a8bd 944f 8f3d 6f34 813d
000002b0: f9d6 8d3c cf03 8cbb 2cb4 66bd 678a 7bbd
000002c0: 01e1 b03c cb7d e73b d7e4 193d d162 5d3d
000002d0: 0982 8ebd 8293 2e3c a441 1f3d 2276 88bd
000002e0: 8db4 1e3a cfe6 2d3d 5ba4 963d 950b c53c
000002f0: 3399 d7bc 664b acbd 5416 423e e45f 5a3e
00000300: a283 0bbd 902a 193c 63ee 38bd 421d a43c
00000310: f635 ffbc 1a2b 683c 9d35 293d 04c6 da3c
00000320: 510d 6a3d 4afd 2c3d 41a2 363d 0969 30bd
00000330: 9837 183d af8c ecbc 88c2 35bc 2ed9 a1bd
00000340: b467 aebc 3110 d0bd 6783 5d3c 5fcf 873d
00000350: 274b d2bb b293 263c 73d8 55bd b336 033e
00000360: 1cf5 aa3d dcb1 303d 0e5a fdbc 41e2 343d
00000370: ffd0 6bbc edc0 e0bc 3b42 80bd ee11 413c
00000380: 0494 ce3d 2d1d 87bc 786d 05bd 7279 b9b9
00000390: 1a52 2f3d 43b5 313c 1b49 683c 3838 f4bc
000003a0: 9b73 b13c 1990 673d d841 463d 92cb ae3c
000003b0: 3118 cbbc 8747 26bd 4ef9 9a3d 6154 c13a
000003c0: cda6 a23c a15c 02be bfc5 e0bd 3527 3c3d
000003d0: 0f40 0d3d c239 0ebd 9863 1dbd cd78 03bd
000003e0: bcee a83d 9c4c bc3d 6bac af3d 5a69 a33c
000003f0: 4061 8f3d 0a99 3d3c 9049 11bd a16e 3ebd

layers.6.bias f4 [120]
0.03930987 -0.038386725 -0.018853856 -0.05993423 0.012832497 0.0055217408 0.027839256 0.03853754
0.032072358 -0.012113228 0.018069563 0.022299232 0.047498006 0.018603068 0.029818658 -0.0032482904
0.00788285 -0.0060791806 0.01809202 0.0057073496 0.033087194 -0.017781055 -0.012821832 -0.0032922684
0.03395723 -0.01723939 0.036815714 0.028155496 -0.021239292 0.0263974 0.02577539 -0.006579057
0.03795676 -0.028262546 -0.04231463 0.037752386 0.0032541445 -0.023713354 -0.03183667 0.01431332
-0.015481193 -0.008936516 0.0419859 0.049570236 0.032838184 -0.036198646 -0.008655375 0.03761988
0.036814295 -0.009264551 -0.028248928 -0.04116214 -0.03384815 0.008490664 0.007923057 0.049257435
-0.021041289 0.019499097 -0.046956692 0.04170345 0.026974643 0.020055195 -0.06267379 -0.011638618
-0.005852972 0.011449864 -0.04649279 0.05486456 0.038875327 0.02590858 -0.00419138 -0.035552546
-0.06746078 0.013650615 0.03651052 0.00350182 0.05029353 -0.0029214672 0.021114081 -0.036081333
0.00069162296 0.058628626 -0.0026217548 0.014769347 -0.011550964 0.038751837 -0.029764825 0.024195483
0.022658164 -0.009704619 0.05588883 0.046639908 0.00967826 0.039924774 -0.020907776 -0.04962677
0.005654623 -0.019069405 0.0140861105 0.004986469 -0.07165895 0.024761064 -0.03726789 -0.023585914
-0.038758956 -0.017343143 -0.051021226 -0.045859985 -0.016109044 0.034356803 0.07657448 -0.0064798095
0.005630947 0.015559287 0.061125968 -0.002011641 0.037816435 -0.048615254 -0.011085947 -0.0181378
00000000: 6303 213d 663b 1dbd 6773 9abc 987d 75bd
00000010: 653f 523c b8ef b43b 270f e43c 8ad9 1d3d
00000020: 4e5e 033d 9076 46bc 9f06 943c e1ac b63c
00000030: 458d 423d 7665 983c 4246 f43c 45e1 54bb
00000040: 1227 013c dd33 c7bb b735 943c b804 bb3b
00000050: 7086 073d 93a9 91bc a912 52bc 19c3 57bb
00000060: bd16 0b3d 9f39 8dbc 13cc 163d 5ba6 e63c
00000070: 06fe adbc 5c3f d83c e926 d33c 2195 d7bb
00000080: 8c78 1b3d db86 e7bc 1b52 2dbd 3fa2 1a3d
00000090: 7c43 553b 8242 c2bc 2b67 02bd 6a82 6a3c
000000a0: d4a4 7dbc 776a 12bc 68f9 2b3d 290a 4b3d
000000b0: 5581 063d 0845 14bd 46cf 0dbc 4e17 1a3d
000000c0: 96ca 163d 58ca 17bc 4c6a e7bc a299 28bd
000000d0: 5ca4 0abd 6d1c 0b3c b6cf 013c 2ac2 493d
000000e0: c85e acbc 92bc 9f3c a955 40bd 3dd1 2a3d
000000f0: edf9 dc3c cb4a a43c 1e5b 80bd e7af 3ebc
00000100: 4aca bfbb 3698 3b3c 396f 3ebd a9b9 603d
00000110: bc3b 1f3d 3b3e d43c d857 89bb 8c9f 11bd
00000120: e128 8abd d4a6 5f3c 0e8c 153d ca7e 653b
00000130: 9700 4e3d 1676 3fbb 70f7 ac3c 05ca 13bd
00000140: 084e 353a 9224 703d bfd1 2bbb 22fb 713c
00000150: 4140 3dbc 3fba 1e3d 5dd5 f3bc 9b35 c63c
00000160: 9d9d b93c 1f00 1fbc b0eb 643d 7d09 3f3d
00000170: 9191 1e3c 2988 233d c946 abbc 7145 4bbd
00000180: 6a4a b93b 7137 9cbc 6ec9 663c 8965 a33b
00000190: edc1 92bd b7d7 ca3c 37a6 18bd 3f37 c1bc
000001a0: b6c1 1ebd 3513 8ebc a2fb 50bd aed7 3bbd
000001b0: 1df7 83bc b8b9 0c3d 15d3 9c3d 9554 d4bb
000001c0: cf83 b83b 61ec 7e3c 395f 7a3d bcd5 03bb
000001d0: 68e5 1a3d ca20 47bd d5a1 35bc b995 94bc

layers.9.weight f4 [84, 120]
0.0628316 -0.08572337 0.1273792 0.050522022 0.06248113 -0.09169923 0.08896024 0.06099482
-0.061662138 -0.12085335 -0.045012772 -0.07937914 0.08518596 0.12090904 0.045520246 -0.04138556
-0.06459959 -0.0005673057 0.014106886 -0.01765245 0.026074369 -0.08719887 0.0331903 0.14017126
0.08042979 0.03224388 0.1314617 0.03410305 0.03386824 0.13421416 0.0664954 -0.13654228
-0.035192627 0.11071651 0.0404777 -0.025810763 -0.020608805 -0.04896861 -0.09188528 0.010616321
0.03082999 -0.05728578 -0.17043903 0.13025251 0.036092725 0.014491764 0.11022995 0.015250751
-0.0373952 -0.054070987 0.03903336 -0.033040617 0.14007442 0.08457237 0.0999051 0.10752517
0.12680875 -0.020236041 -0.08651695 0.012854941 0.13388146 0.06572173 0.024912365 0.1715614
-0.06888159 -0.07345622 -0.18175463 -0.033282626 0.16478124 0.07174997 0.008157729 -0.19066986
0.06396012 0.061889317 0.05677906 -0.08195391 0.120226964 -0.08593403 0.019623488 -0.0050355177
0.09073905 0.04427799 -0.05596304 0.070462845 -0.02112817 -0.047050692 -0.0046590012 -0.086078286
0.073885694 -0.07439419 -0.0021334796 0.017899303 0.06727928 -0.072515555 -0.02197981 0.051967606
-0.055965703 -0.040635634 -0.04458157 0.067927405 -0.030776741 0.069613375 -0.10529381 0.09723073
0.035659328 -0.03255047 -0.044287518 -0.07978421 0.030907486 0.026685042 -0.017804515 0.076515764
-0.08876065 0.092320785 -0.044122044 0.031164946 0.026703328 0.006876998 0.017812839 0.0849332
0.040228363 -0.06006476 0.32591575 0.07542439 -0.06368573 0.13879162 0.0936668 0.06277734
-0.11856138 0.013407762 -0.10013058 0.011260207 0.1206322 0.108147606 -0.08128727 0.040205635
-0.06815481 0.05293518 0.036612682 -0.07425996 0.1104877 -0.12097903 -0.02097935 -0.02797064
0.010810893 0.031399436 0.07645542 -0.0035179008 0.0046914928 0.078795396 0.008250184 -0.10252661
-0.06432381 0.09729563 0.12565698 -0.00865393 -0.11483907 0.0038273863 -0.0055044894 0.025777657
0.111140795 0.098519094 -0.08325775 0.074248925 0.03393616 -0.09646818 -0.021928359 0.011776266
0.09799454 -0.039045367 -0.04204659 -0.050084393 0.16208042 -0.020089619 0.1058182 0.066806205
-0.012551107 -0.023387285 -0.06764328 0.005292939 0.05022698 0.07236444 -0.03097681 0.03523963
0.094570965 -0.043529768 -0.16410911 -0.060638987 0.11430621 0.04397467 -0.09601854 -0.14889671
-0.0023331183 0.05943491 -0.07355444 -0.08043744 0.047259662 0.016843077 0.0881523 -0.056602605
0.043422412 0.082902454 0.07099171 -0.025212344 -0.06992955 0.09518892 0.03901808 -0.051040605
-0.017273048 -0.019964507 0.09804069 -0.10591656 -0.06511125 0.080164604 -0.009880855 0.013583394
-0.0023389284 0.033980772 0.015947027 -0.014995345 0.08332926 -0.0046762335 -0.039635416 0.047084253
0.019038578 -0.016456878 0.016221294 0.10462535 -0.06351559 0.046994567 -0.09325881 0.024824653
-0.07652966 -0.10869363 -0.08484104 0.06841716 -0.004234468 -0.003075642 0.07493238 0.066381626
0.05168406 -0.11660543 0.20260085 -0.052726634 -0.04644505 -0.11490796 -0.024328899 -0.07572406
0.019483991 -0.016953968 0.12503555 0.13575803 -0.0044393586 -0.026464917 0.098205976 -0.020031154
00000000: dbad 803d bc8f afbd b16f 023e 2ef0 4e3d
00000010: 37ec 7f3d cecc bbbd c930 b63d b4d5 793d
00000020: 7091 7cbd f681 f7bd 505f 38bd 8891 a2bd
00000030: fa75 ae3d 299f f73d 7073 3a3d e883 29bd
00000040: ca4c 84bd 3eb7 14ba 9220 673c df9b 90bc
00000050: ea99 d53c 5295 b2bd 8df2 073d 0e89 0f3e
00000060: 60b8 a43d 2912 043d e59d 063e a4af 0b3d
00000070: 6cb9 0a3d 706f 093e be2e 883d bdd1 0bbe
00000080: 2526 10bd 56bf e23d f2cb 253d 1871 d3bc
00000090: ccd3 a8bc 4f93 48bd 5a2e bcbd 14f0 2d3c
000000a0: 2d8f fc3c 7ea4 6abd 9287 2ebe ea60 053e
000000b0: f7d5 133d dd6e 6d3c 3dc0 e13d 49de 793c
000000c0: b62b 19bd 8a79 5dbd 72e1 1f3d 9955 07bd
000000d0: ab6f 0f3e 4734 ad3d 0c9b cc3d 2836 dc3d
000000e0: 27da 013e 0ec6 a5bc cc2f b1bd 889d 523c
000000f0: 3918 093e 1d99 863d 0415 cc3c cbad 2f3e
00000100: cb11 8dbd 3770 96bd e31d 3abe 5d53 08bd
00000110: 6abc 283e a6f1 923d ffa7 053c f63e 43be
00000120: 86fd 823d a77f 7d3d 2991 683d 74d7 a7bd
00000130: 8e39 f63d 2efe afbd 70c1 a03c fc00 a5bb
00000140: 65d5 b93d d65c 353d 8039 65bd d34e 903d
00000150: fc14 adbc 3ab8 40bd 89aa 98bb d049 b0bd
00000160: 6251 973d fb5b 98bd d9d1 0bbb 8fa1 923c
00000170: b8c9 893d 0983 94bd 010f b4bc fcdb 543d
00000180: 4b3c 65bd 8d71 26bd 2a9b 36bd 861d 8b3d
00000190: 811f fcbc 7591 8e3d 48a4 d7bd e820 c73d
000001a0: 840f 123d a453 05bd d466 35bd e765 a3bd
000001b0: b231 fd3c 979a da3c c6da 91bc 4cb4 9c3d
000001c0: 25c8 b5bd ae12 bd3d 51b9 34bd a14d ff3c
000001d0: f0c0 da3c 7158 e13b 3bec 913c 75f1 ad3d
000001e0: 7fc6 243d 7706 76bd 6ede a63e 1a78 9a3d
000001f0: aa6d 82bd 641f 0e3e 61d4 bf3d 6891 803d
00000200: 4fd0 f2bd 3bac 5b3c 4311 cdbd bb7c 383c
00000210: 040e f73d 7e7c dd3d f179 a6bd aaae 243d
00000220: c094 8bbd 8fd2 583d 2ef7 153d 9b15 98bd
00000230: 6047 e23d dbc3 f7bd e3dc abbc af22 e5bc
00000240: 2c20 313c b29c 003d a994 9c3d 958c 66bb
00000250: 18bb 993b 7b5f a13d c82b 073c 79f9 d1bd
00000260: 34bc 83bd ee42 c73d 39ac 003e 37c9 0dbc
00000270: bf30 ebbd e3d4 7a3b 015f b4bb aa2b d33c
00000280: c99d e33d 61c4 c93d 0a83 aabd d20f 983d
00000290: a500 0b3d 1c91 c5bd 1aa3 b3bc 3df1 403c
000002a0: 5db1 c83d 09ee 1fbd 0c39 2cbd 4b25 4dbd
000002b0: 69f8 253e fc92 a4bc 36b7 d83d b1d1 883d
000002c0: 29a3 4dbc b196 bfbc 8f88 8abd 6470 ad3b
000002d0: ceba 4d3d cf33 943d 14c3 fdbc 6e57 103d
000002e0: 6cae c13d 454c 32bd 380c 28be 9660 78bd
000002f0: 6019 ea3d c91e 343d 5ea5 c4bd 6178 18be
00000300: 3be7 18bb 0572 733d b6a3 96bd 62bc a4bd
00000310: 5993 413d 7efa 893c 3189 b43d 22d8 67bd
00000320: b3db 313d c3c8 a93d 1a64 913d 1e8a cebc
00000330: 3937 8fbd 69f2 c23d 6cd1 1f3d f40f 51bd
00000340: 3580 8dbc 9b8c a3bc 8fc9 c83d c8ea d8bd
00000350: 0c59 85bd 572d a43d 4fe3 21bc e28c 5e3c
00000360: b548 19bb 6c2f 0b3d 57a3 823c 09af 75bc
00000370: 88a8 aa3d 173b 99bb bf58 22bd 6bdb 403d
00000380: cbf6 9b3c 93d0 86bc 85e2 843c d145 d63d
00000390: 7614 82bd 607d 403d 7afe bebd 125d cb3c
000003a0: 95bb 9cbd c49a debd 24c1 adbd 4c1e 8c3d
000003b0: 4bc1 8abb b690 49bb 2676 993d 17f3 873d
000003c0: aab2 533d d4ce eebd 9976 4f3e e2f7 57bd
000003d0: 2a3d 3ebd dd54 ebbd 664d c7bc 3715 9bbd
000003e0: e49c 9f3c 0ce3 8abc 5209 003e 2704 0b3e
000003f0: 0a78 91bb f4cc d8bc 3720 c93d 6018 a4bc

layers.9.bias f4 [84]
-0.05115555 0.040116828 0.13650481 0.09693784 0.03494238 -0.015563332 -0.03848558 0.0903437
-0.08793728 0.09019874 0.08744219 -0.0110397795 -0.057161663 0.0031756226 0.06119831 -0.01393394
0.05116235 0.0961454 -0.09200678 -0.079043254 0.06328878 -0.083321616 0.07279656 -0.048640773
-0.03747904 -0.043086555 -0.05606871 -0.06500981 -0.06734796 -0.06765315 0.029147886 0.06697045
-0.0006041056 0.11258738 -0.004691823 -0.00930922 -0.09357017 -0.021317871 0.11115927 0.00841684
0.08832548 0.097906075 -0.048980765 0.03407536 -0.002127054 0.083356634 -0.07007706 0.017195342
0.03358045 -0.038917102 -0.058281135 0.045687154 0.045986764 0.05921886 0.08293138 0.08026181
0.08214309 0.045537643 0.040723577 -0.009354572 0.08946476 -0.011598754 -0.022467198 0.061934624
-0.09194352 0.082056776 -0.08000162 0.108983144 -0.07559266 0.0022592188 0.08399444 0.064888015
-0.08213545 0.06346272 0.001072005 -0.07398747 0.054906808 -0.002629464 0.05548787 0.06779095
0.006350589 -0.042155158 0.07691625 0.10743163
00000000: 7b88 51bd 8b51 243d ebc7 0b3e 5987 c63d
00000010: be1f 0f3d 58fd 7ebc 0ea3 1dbd 1e06 b93d
00000020: 7618 b4bd 1eba b83d e414 b33d 31e0 34bc
00000030: 5922 6abd 1b1e 503b 14ab 7a3d 2e4b 64bc
00000040: 9d8f 513d e1e7 c43d 0d6e bcbd 6ee1 a1bd
00000050: 8c9d 813d 86a4 aabd 5d16 953d 8c3b 47bd
00000060: 9f83 19bd 877b 30bd 4ea8 65bd dd23 85bd
00000070: baed 89bd bc8d 8abd 8cc7 ee3c ce27 893d
00000080: d75c 1eba 3694 e63d ddbd 99bb b385 18bc
00000090: b8a1 bfbd d1a2 aebc 79a7 e33d c9e6 093c
000000a0: fde3 b43d fb82 c83d 0ea0 48bd 9b92 0b3d
000000b0: 0b66 0bbb e2b6 aa3d 9084 8fbd 3fdd 8c3c
000000c0: a78b 093d 8a67 1fbd 33b8 6ebd 7422 3b3d
000000d0: 9e5c 3c3d 7a8f 723d edd7 a93d 4e60 a43d
000000e0: a33a a83d ae85 3a3d c4cd 263d eb43 19bc
000000f0: 4d39 b73d b308 3ebc 210d b8bc 29af 7d3d
00000100: e24c bcbd 620d a83d e4d7 a3bd 8e32 df3d
00000110: 53d0 9abd 670f 143b 4705 ac3d 02e4 843d
00000120: a136 a8bd bef8 813d 8582 8c3a be86 97bd
00000130: f6e5 603d 1653 2cbb 4047 633d fbd5 8a3d
00000140: 9a18 d03b e3aa 2cbd 4486 9d3d 1d05 dc3d

layers.11.weight f4 [10, 84]
0.009133472 0.06865983 -0.043939363 -0.15280388 -0.055301905 0.07155707 -0.03971476 0.04494137
0.07821889 0.12752472 0.07266604 0.12335657 0.07074013 -0.02288494 -0.14279726 -0.00149571
0.048127707 -0.22029224 -0.11455762 0.10419581 -0.25 0.040634204 0.14671178 -0.114292845
-0.14444976 -0.11978865 0.13964687 0.0948159 -0.17604741 0.011056243 0.046057183 -0.06323682
0.023277732 0.022727795 -0.013581301 -0.0027409128 -0.045814652 -0.17394035 -0.21792124 -0.008672444
-0.16766603 -0.08355732 -0.23163821 -0.076166 0.055500437 -0.08279658 0.08878868 -0.10939547
-0.099313304 0.16541867 0.11256646 0.051892627 0.085238054 -0.07249034 -0.11140142 -0.12668014
0.015320574 0.0785201 0.092199236 0.04844348 -0.14040044 0.02387891 0.120751835 0.1105101
-0.03733574 0.06782899 0.12606764 -0.11498587 0.0033250297 -0.14034839 -0.0802398 0.11631289
-0.0854344 -0.11342399 0.092856996 0.07605375 -0.008547643 0.016563594 0.035212055 -0.013880656
0.16541867 0.03222507 -0.035127163 -0.05581739 0.12201162 -0.05541275 0.12468624 -0.05914524
-0.07316473 -0.17736715 0.1227809 -0.07675303 -0.17460461 0.12879947 0.11170529 -0.026825137
-0.014554475 0.032226343 0.10867239 -0.16428298 0.16482644 0.073884755 0.06819678 -0.12240607
0.114641294 0.014333852 0.1888161 -0.22564484 -0.02651733 -0.1636705 -0.19116543 -0.060471665
-0.046646085 -0.12537266 0.09135185 0.05999455 0.021462178 -0.012002666 -0.19411431 0.050132874
0.080051646 0.14033227 0.01710369 0.05850586 -0.07239628 0.030597217 -0.14912301 0.006596928
-0.115472734 0.040209547 -0.048380706 0.08965918 -0.10970619 -0.13204008 0.090426646 0.0110109085
0.16977899 -0.17890623 -0.08290567 -0.11144372 -0.22635394 0.01762659 0.093852736 0.072057694
0.08811414 0.08284638 -0.17462142 -0.10158823 0.04900963 -0.105967626 -0.0662414 0.063784786
-0.025328 -0.18542793 0.09840258 0.20340194 -0.023545254 0.1293765 0.033212367 0.023668276
0.0673961 0.012274321 0.16950062 0.020040361 -0.059453398 -0.10161446 0.0662143 0.1716496
0.086951315 0.15315595 -0.06660899 0.13293894 0.025638415 0.050395332 -0.137532 0.006379382
0.038557224 0.09562923 -0.08421263 0.045378506 -0.009306795 -0.0075166947 0.13530006 -0.055005353
0.019246198 -0.18065795 -0.056684 -0.05643018 -0.1884992 0.0022904172 0.10246965 -0.041577052
-0.055347353 0.09062792 0.10049877 -0.14504243 -0.19469601 0.05657886 0.046260275 0.053985313
0.1749111 -0.11707658 0.12807055 -0.04962045 0.020047044 0.12352688 -0.0413809 0.077553526
0.0960046 -0.16092739 0.083628125 0.05602376 0.09567366 0.13383837 0.029112643 0.036480352
-0.0788602 -0.04713018 0.12377283 -0.21080597 -0.060910944 0.018496728 -0.15699439 -0.13808365
0.07676315 -0.04854195 -0.08543869 0.116364494 -0.2768046 0.01907293 -0.03977304 0.14084509
-0.022283405 -0.08174841 -0.05171555 0.0772317 -0.00012154426 -0.12284693 -0.06605308 -0.14824393
0.057451107 0.087990746 0.079901084 0.12519974 -0.24559176 -0.109115005 0.066606306 -0.19350861
-0.012757842 -0.1658315 -0.023942746 0.0990535 -0.121919915 -0.070995785 -4.6143265e-05 0.09562928
00000000: 8fa4 153c 869d 8c3d c3f9 33bd 9f78 1cbe
00000010: 4084 62bd 838c 923d f2ab 22bd 7114 383d
00000020: 3a31 a03d d795 023e efd1 943d 5fa2 fc3d
00000030: 34e0 903d 3379 bbbc 7239 12be b30b c4ba
00000040: 8f21 453d 4a94 61be 2f9d eabd 9d64 d53d
00000050: 0000 80be 0d70 263d 9d3b 163e 5e12 eabd
00000060: a3ea 13be c053 f5bd 97ff 0e3e d72e c23d
00000070: c645 34be 3f25 353c 75a6 3c3d 4e82 81bd
00000080: f1b0 be3c a42f ba3c 1b84 5ebc e3a0 33bb
00000090: 25a8 3bbd 6b1d 32be bf26 5fbe de16 0ebc
000000a0: a5b0 2bbe 1a20 abbd 9132 6dbe ebfc 9bbd
000000b0: 6d54 633d 4191 a9bd d7d6 b53d bb0a e0bd
000000c0: c664 cbbd 8363 293e 3f89 e63d 5d8d 543d
000000d0: 4a91 ae3d d175 94bd 6d26 e4bd 70b8 01be
000000e0: 2503 7b3c 25cf a03d f4d2 bc3d ac6c 463d
000000f0: 22c5 0fbe b49d c33c bd4c f73d 1f53 e23d
00000100: 5ced 18bd ede9 8a3d e017 013e b67d ebbd
00000110: bee8 593b 7db7 0fbe c454 a4bd 7435 ee3d
00000120: 3bf8 aebd d64a e8bd cf2b be3d 12c2 9b3d
00000130: 6a0b 0cbc 60b0 873c 843a 103d b16b 63bc
00000140: 8363 293e 6ffe 033d 80e1 0fbd c7a0 64bd
00000150: 3ae1 f93d 7bf8 62bd 805b ff3d 4742 72bd
00000160: 64d7 95bd bc9f 35be 8d74 fb3d b130 9dbd
00000170: 8dcb 32be 02e4 033e bec5 e43d 64c0 dbbc
00000180: e575 6ebc c5ff 033d a18f de3d cc39 28be
00000190: 43c8 283e e450 973d c1aa 8b3d 09b0 fabd
000001a0: 0ec9 ea3d 88d8 6a3c 0259 413e 710f 67be
000001b0: df3a d9bc 3d99 27be dfc0 43be 23b1 77bd
000001c0: f70f 3fbd b161 00be ae16 bb3d d8bc 753d
000001d0: 73d1 af3c d4a6 44bc e7c5 46be 2158 4d3d
000001e0: 1ef2 a33d 43b3 0f3e 0a1d 8c3c d7a3 6f3d
000001f0: 8044 94bd 04a7 fa3c b4b3 18be 0b2b d83b
00000200: f87c ecbd c4b2 243d d92a 46bd 3b9f b73d
00000210: a4ad e0bd 8435 07be 9b31 b93d 1967 343c
00000220: 8bda 2d3e 3233 37be 73ca a9bd 9b3c e4bd
00000230: 54c9 67be a365 903c dd35 c03d fc92 933d
00000240: 3075 b43d 5dab a93d f5cf 32be 7d0d d0bd
00000250: 52be 483d 8e05 d9bd 92a9 87bd 99a1 823d
00000260: aa7c cfbc d2e0 3dbe 4b87 c93d 9948 503e
00000270: fae1 c0bc 467b 043e b109 083d f9e3 c13c
00000280: f706 8a3d 3c1a 493c 9291 2d3e af2b a43c
00000290: 6885 73bd 3e1b d0bd 5d9b 873d eac4 2f3e
000002a0: 8813 b23d ead4 1c3e 4b6a 88bd 2521 083e
000002b0: a707 d23c 566b 4e3d 30d5 0cbe 230a d13b
000002c0: 2eee 1d3d 42d9 c33d ac77 acbd d0de 393d
000002d0: 877b 18bc 9b4e f6bb 198c 0a3e 4b4d 61bd
000002e0: 34aa 9d3c 66fe 38be 7b2d 68bd 5523 67bd
000002f0: ef05 41be d31a 163b 9cdb d13d b34c 2abd
00000300: e8b3 62bd 229b b93d 4dd2 cd3d 0186 14be
00000310: 645e 47be 3cbf 673d 6a7b 3d3d b41f 5d3d
00000320: e51b 333e d9c5 efbd ed24 033e d03e 4bbd
00000330: b339 a43c a9fb fc3d 057f 29bd 62d4 9e3d
00000340: 0f9e c43d 26ca 24be 3945 ab3d 2c79 653d
00000350: 8df0 c33d ed0c 093e a37d ee3c 6c6c 153d
00000360: 7581 a1bd 930b 41bd 9c7c fd3d 85dd 57be
00000370: c17d 79bd 7386 973c 23c3 20be cd65 0dbe
00000380: 0036 9d3d ecd3 46bd 7bfa aebd 8250 ee3d
00000390: 55b9 8dbe d53e 9c3c 0ee9 22bd b239 103e
000003a0: b08b b6bc b66b a7bd afd3 53bd a72b 9e3d
000003b0: 94e5 feb8 2c97 fbbd d646 87bd 42cd 17be
000003c0: da51 6b3d 7e34 b43d 2ea3 a33d 5c34 003e
000003d0: 687c 7bbe b077 dfbd e368 883d 1f27 46be
000003e0: 4506 51bc bccf 29be 9423 c4bc 90dc ca3d
000003f0: 26b1 f9bd 3d66 91bd f489 41b8 49d9 c33d

layers.11.bias f4 [10]
0.04177383 0.038035296 -0.117363706 0.014887365 -0.09496096 -0.046021886 0.018326199 0.047133595
-0.08180476 -0.06690629
00000000: 091b 2b3d e6ca 1b3d 625c f0bd 22ea 733c
00000010: e47a c2bd 7281 3cbd d320 963c 280f 413d
00000020: 4189 a7bd 2a06 89bd
