model/lenet5.pth (torch_old, 248631 bytes, 10 tensors)

layers.0.weight f4 [6, 1, 5, 5]
0.25394705 0.28708783 0.08288801 -0.012680829 -0.048027344 -0.021768576 0.18172356 0.22221006
-0.27215183 0.006262578 0.31528744 0.06833786 -0.1316468 -0.3275959 -0.30808818 0.08443478
0.076653786 0.14997956 -0.26875257 -0.051115926 0.1931947 0.0657678 -0.051112983 0.0977274
-0.14674988 0.2914633 0.34162113 0.10177993 0.25710976 0.26557243 -0.116769 -0.046827074
-0.034577798 -0.08459212 -0.02936446 -0.08251861 -0.14286825 -0.032421317 -0.05274141 -0.28423
-0.3446879 -0.09305743 -0.30896324 -0.111151695 -0.25924733 -0.17005192 -0.017015526 -0.17032833
-0.21827821 -0.009410467 0.018919878 0.19780731 0.04000734 -0.16879535 -0.33372465 -0.11456598
-0.054781012 -0.091804326 -0.38719246 -0.16224533 0.028414961 -0.3179891 -0.38751605 -0.404583
-0.04909301 -0.26796812 -0.26950714 -0.2971956 0.08096451 0.18352687 -0.23277819 -0.23528093
-0.08184065 0.3301303 0.3489782 0.26550522 0.12667026 0.0050108954 -0.1258687 0.0078107165
-0.07530422 0.039817024 -0.047788106 0.16453923 0.020230334 -0.19009319 -0.1456187 -0.17619954
0.0333168 -0.18118125 0.1536187 0.08870074 0.14932355 0.099844135 0.19896981 0.18066366
0.24846005 0.10871139 0.22158809 0.24286048 -0.10202615 -0.2631269 0.0065913824 -0.1220665
0.15948084 -0.23557307 -0.080940776 -0.023235053 -0.099312164 0.22039284 -0.22927152 -0.21729876
-0.054256603 0.0759201 0.17187081 -0.15290171 0.029999238 0.17046253 0.05907505 0.28935018
-0.010215892 0.31988722 0.31108767 0.15238406 0.033215415 0.01683534 -0.40039295 0.07224935
0.0045099175 0.023537934 -0.2882542 -0.23559849 0.12493892 0.100150876 0.099282645 -0.03912068
-0.4433448 0.015054638 0.22848037 -0.014143468 -0.30110675 -0.2730008 0.13665292 0.2436071
0.1648225 -0.21406889 -0.108379856 -0.027051317 0.13703725 -0.00112652
00000000: 5905 823e 2dfd 923e 30c1 a93d 40c3 4fbc
00000010: 52b8 44bd 0354 b2bc be15 3a3e 098b 633e
00000020: 7c57 8bbe 5036 cd3b 5b6d a13e b8f4 8b3d
00000030: 6bce 06be a6ba a7be bcbd 9dbe 24ec ac3d
00000040: a9fc 9c3d 3e94 193e f099 89be ef5e 51bd
00000050: d5d4 453e 45b1 863d d95b 51bd 4e25 c83d
00000060: 9a45 16be ad3a 953e f7e8 ae3e ff71 d03d
00000070: e4a3 833e 1cf9 873e 9624 efbd bfcd 3fbd
00000080: 73a1 0dbd a23e adbd bc8d f0bc 84ff a8bd
00000090: 0e4c 12be 37cc 04bd 6007 58bd 9886 91be
000000a0: ef7a b0be e594 bebd 6e30 9ebe 80a3 e3bd
000000b0: 11bc 84be 1722 2ebe 2564 8bbc 8d6a 2ebe
000000c0: 5384 5fbe 5c2e 1abc dcfd 9a3c 008e 4a3e
000000d0: bdde 233d b0d8 2cbe f5dd aabe 92a1 eabd
000000e0: 0e62 60bd e803 bcbd 173e c6be a423 26be
000000f0: 7ec6 e83c 78cf a2be 8168 c6be 8125 cfbe
00000100: c115 49bd 1e33 89be d7fc 89be 062a 98be
00000110: b9d0 a53d 78ee 3b3e 685d 6ebe 7ced 70be
00000120: 129c a7bd d706 a93e 45ad b23e 4df0 873e
00000130: d9b5 013e 7032 a43b b9e3 00be 0af1 ff3b
00000140: 1939 9abd 2d17 233d 76bd 43bd f97c 283e
00000150: 16ba a53c caa7 42be 121d 15be a76d 34be
00000160: 3277 083d 9487 39be 384e 1d3e bca8 b53d
00000170: 46e8 183e 157b cc3d bebe 4b3e e5ff 383e
00000180: 506c 7e3e 14a4 de3d fde7 623e 6bb0 783e
00000190: 16f3 d0bd 92b8 86be 86fc d73b 00fe f9bd
000001a0: f24e 233e 113a 71be 47c4 a5bd 7057 bebc
000001b0: 2d64 cbbd a9ae 613e 27c6 6abe 9183 5ebe
000001c0: 2c3c 5ebd ff7b 9b3d e7fe 2f3e 4492 1cbe
000001d0: f6c0 f53c bb8d 2e3e aef8 713d b525 943e
000001e0: 8f60 27bc 42c8 a33e e246 9f3e 910a 1c3e
000001f0: e30c 083d 44ea 893c 4e00 cdbe 78f7 933d
00000200: eec7 933b a0d2 c03c 0e96 93be bb40 71be
00000210: fadf ff3d e71b cd3d b354 cb3d 023d 20bd
00000220: 17fe e2be baa7 763c c2f6 693e 01ba 67bc
00000230: aa2a 9abe c3c6 8bbe beee 0b3e 2474 793e
00000240: 3bc7 283e e034 5bbe 42f6 ddbd b99a ddbc
00000250: 7e53 0c3e bda7 93ba

layers.0.bias f4 [6]
-0.07809511 0.25140756 0.1354911 0.0602047 0.14342502 0.015759667
00000000: 54f0 9fbd 7eb8 803e 2ebe 0a3e 3499 763d
00000010: 02de 123e 6b1a 813c

layers.3.weight f4 [16, 6, 5, 5]
-0.047092646 -0.115275055 -0.067868814 0.051376674 -0.084718205 0.06604932 0.055518366 -0.025019988
-0.09892162 -0.079215914 0.09437266 0.005843496 -0.052270215 0.088308245 -0.039684784 0.06487132
0.04827999 -0.010813336 -0.037367597 -0.056154653 0.07998019 0.092087284 0.05553802 -0.027163384
0.08030889 0.14392273 0.14130954 0.008368074 0.10861709 0.024172274 0.060898844 0.108244576
0.15699731 0.031509247 0.14259098 -0.06431289 -0.11491233 -0.13908249 -0.15517268 0.010921204
-0.07994176 0.02561413 -0.06488207 -0.07246377 -0.017621994 0.09598002 0.136984 0.008510618
0.07830314 0.026294315 0.07257713 0.09142845 0.061854538 0.09245296 -0.0088760825 0.07255652
0.07303378 0.08992411 0.020030903 -0.08261234 -0.026891667 -0.039456926 -0.006049336 0.08059371
-0.018549073 -0.065150574 -0.1261799 -0.053701248 -0.056962408 -0.06391673 -0.15509385 -0.19609441
-0.09917175 -0.06308499 -0.16026287 -0.123349056 -0.05343639 -0.16122814 -0.10415137 -0.06972177
0.06428304 -0.0063487506 -0.069868945 -0.09055972 0.016924774 0.061296184 0.13637474 0.14797147
0.09151386 0.13911307 0.118817456 0.14181113 -0.0026943195 0.019571755 0.017469767 0.04106593
-0.01451902 0.08702063 0.06387075 0.07846678 0.0018139158 -0.028295305 -0.048543256 0.034509722
0.06879503 0.034679074 0.05951923 -0.0073332856 0.0013289826 -0.04087799 -0.027285952 -0.054596763
0.10417431 0.06363507 0.12368856 -0.016981091 -0.03660606 0.03159186 -0.05966277 -0.051595062
-0.069447376 -0.17816576 -0.083078355 -0.12707822 -0.13472153 0.030752493 0.061712448 0.060097337
-0.02483554 0.07495322 -0.029302422 0.034063246 0.011406687 -0.0010556338 -0.0029140157 -0.06279669
-0.045609113 0.08025917 -0.11998488 -0.10012177 0.06416935 0.038843084 0.11781098 0.00060257857
-0.060226128 0.093445994 -0.092389435 -0.09957786 -0.104250744 -0.10642052 -0.02081043 -0.07647888
0.103287645 0.08062399 0.025278956 -0.07514485 -0.008226046 0.00751013 0.17694916 -0.04265111
-0.15243751 -0.010542003 0.18518159 0.0892952 -0.12141128 -0.06932966 0.021421889 0.07748155
0.108225025 -0.09254054 -0.09193738 0.04284077 0.060820006 -0.1186685 -0.08835539 0.06588372
-0.0034023346 -0.11081023 -0.01855385 -0.13418283 -0.047226697 -0.1781202 -0.091679625 -0.06320833
-0.05660858 -0.13961264 -0.13645706 -0.005477866 0.051459868 -0.007942606 -0.005714936 -0.004258656
0.031865362 -0.07377539 0.004321129 0.12796928 0.046237685 0.0027913188 -0.048875425 -0.14321461
0.08492614 0.06800223 0.13980356 -0.04824289 -0.011875884 0.14028989 0.17282282 0.0041532447
-0.11304325 0.021687513 0.08056947 0.03464555 0.061639883 0.07963051 0.05080294 0.044313602
-0.07851943 0.115813695 -0.0298211 -0.010730517 0.10284497 -0.0015893892 0.040606957 -0.06266607
-0.09008206 -0.013007989 -0.030231414 0.034269623 -0.007887244 -0.09160746 -0.054233674 0.008015266
-0.114828736 -0.15399423 -0.0829104 -0.0877751 -0.07568238 -0.18885832 -0.22161923 -0.10142293
-0.08810624 -0.14823462 -0.17890023 -0.17200069 -0.055124685 -0.07288765 -0.042943276 -0.0690712
0.011974664 -0.03979824 0.07032781 0.003941761 0.016878448 0.02052 -0.17262648 0.094525956
00000000: 38e4 40bd 5415 ecbd cefe 8abd 5970 523d
00000010: bd80 adbd de44 873d 3a67 633d b8f6 ccbc
00000020: 6b97 cabd f43b a2bd 7446 c13d cc7a bf3b
00000030: 4b19 56bd f4da b43d 838c 22bd 41db 843d
00000040: 3dc1 453d 6b2a 31bc c40e 19bd 6c02 66bd
00000050: a7cc a33d 4298 bc3d d67b 633d bf85 debc
00000060: fd78 a43d 7b60 133e 73b3 103e 3f1a 093c
00000070: a372 de3d ef04 c63c 1171 793d 55af dd3d
00000080: e7c3 203e d70f 013d 5f03 123e 7ab6 83bd
00000090: 2857 ebbd a46b 0ebe 96e5 1ebe daee 323c
000000a0: 81b8 a3bd b9d4 d13c e4e0 84bd e367 94bd
000000b0: 005c 90bc 2c91 c43d 8945 0c3e 1e70 0b3c
000000c0: 665d a03d 2d67 d73c 51a3 943d d73e bb3d
000000d0: 2f5b 7d3d fa57 bd3d fd6c 11bc 8398 943d
000000e0: bc92 953d 222a b83d d917 a43c a930 a9bd
000000f0: ea4b dcbc 969d 21bd 8239 c6bb 510e a53d
00000100: 3af4 97bc aa6d 85bd 4e35 01be d7f5 5bbd
00000110: 6a51 69bd c6e6 82bd ecd0 1ebe f9cc 48be
00000120: 8f1a cbbd b432 81bd f31b 24be 6e9e fcbd
00000130: 1ee0 5abd fd18 25be 504d d5bd 4aca 8ebd
00000140: d4a6 833d 2e09 d0bb 7317 8fbd 6077 b9bd
00000150: d3a5 8a3c b511 7b3d d2a5 0b3e d585 173e
00000160: 9e6b bb3d a873 0e3e 9156 f33d f036 113e
00000170: 2e93 30bb f254 a03c c21c 8f3c c034 283d
00000180: 2fe1 6dbc df37 b23d abce 823d 31b3 a03d
00000190: eac0 ed3a 8ecb e7bc 4bd5 46bd 115a 0d3d
000001a0: 69e4 8c3d a50b 0e3d 70ca 733d 0f4c f0bb
000001b0: 4231 ae3a ae6f 27bd ca86 dfbc dba0 5fbd
000001c0: 5759 d53d 1b53 823d 6e50 fd3d ee1b 8bbc
000001d0: 3cf0 15bd 7766 013d f360 74bd 5855 53bd
000001e0: 6d3a 8ebd 1671 36be fc24 aabd cb20 02be
000001f0: 71f4 09be a7ec fb3c 31c6 7c3d a028 763d
00000200: e773 cbbc 1381 993d a20b f0bc e785 0b3d
00000210: 1de3 3a3c 315d 8aba 12f9 3ebb 8d9b 80bd
00000220: 9fd0 3abd eb5e a43d a2ba f5bd a40c cdbd
00000230: 386b 833d ed19 1f3d e246 f13d 5df6 1d3a
00000240: acaf 76bd 9d60 bf3d ac36 bdbd 7aef cbbd
00000250: 6a81 d5bd 00f3 d9bd a37a aabc f6a0 9cbd
00000260: 7988 d33d 311e a53d d015 cf3c 8be5 99bd
00000270: 8ac6 06bc 8917 f63b 2932 353e eeb2 2ebd
00000280: 9418 1cbe 5eb8 2cbc 3ea0 3d3e 67e0 b63d
00000290: 7aa6 f8bd b5fc 8dbd f57c af3c a6ae 9e3d
000002a0: 15a5 dd3d e585 bdbd aa49 bcbd ce79 2f3d
000002b0: 661e 793d 7808 f3bd acf3 b4bd 0bee 863d
000002c0: b4f9 5ebb 79f0 e2bd 3efe 97bc 3967 09be
000002d0: c870 41bd 2465 36be 87c2 bbbd 5e73 81bd
000002e0: 66de 67bd 9ef6 0ebe 66bb 0bbe ac7f b3bb
000002f0: 95c7 523d b421 02bc 5c44 bbbb 328c 8bbb
00000300: 4185 023d 8d17 97bd 4298 8d3b 610a 033e
00000310: ba63 3d3d 8fee 363b 9931 48bd daa6 12be
00000320: c2ed ad3d c144 8b3d aa28 0f3e 569a 45bd
00000330: 1193 42bc 27a8 0f3e 77f8 303e f117 883b
00000340: 3883 e7bd 03aa b13c 9b01 a53d 7ee8 0d3d
00000350: 1a7a 7c3d 5215 a33d be16 503d 2e82 353d
00000360: cbce a0bd bb2f ed3d 614b f4bc 0dcf 2fbc
00000370: 62a0 d23d 0d53 d0ba 7b53 263d 1257 80bd
00000380: f17c b8bd 761f 55bc dfa7 f7bc 4e5e 0c3d
00000390: 8039 01bc b19c bbbd 2124 5ebd 7652 033c
000003a0: 542b ebbd aab0 1dbe eecc a9bd 6ec3 b3bd
000003b0: 5dff 9abd 1364 41be 27f0 62be d3b6 cfbd
000003c0: 0b71 b4bd d1ca 17be 9f31 37be f320 30be
000003d0: 6cca 61bd 1f46 95bd 4ae5 2fbd 3475 8dbd
000003e0: 6231 443c 7b03 23bd 0708 903d e329 813b
000003f0: ac44 8a3c 8f19 a83c ffc4 30be d396 c13d

layers.3.bias f4 [16]
-0.012280447 0.041338686 0.033173393 -0.03831739 -0.07102761 -0.0045405147 -0.020287078 0.017425548
0.004025614 0.045175508 0.006955581 0.0032823312 0.059794802 -0.031960815 -0.021068687 0.029013969
00000000: ee33 49bc c152 293d d3e0 073d b2f2 1cbd
00000010: ec76 91bd 99c8 94bb 1631 a6bc 06c0 8e3c
00000020: 4ce9 833b f409 393d a4eb e33b 611c 573b
00000030: 65eb 743d 58e9 02bd 3d98 acbc b4ae ed3c

layers.7.weight f4 [120, 400]
-0.0024737306 0.010316162 -0.03540448 -0.011189523 -0.03244134 0.026183372 -0.041365724 0.013678549
0.025232548 0.025613448 -0.014079907 -0.029641837 0.035461728 0.040084105 0.017279183 -0.0091254935
0.007026171 0.042864658 -0.031275738 -0.048504055 -0.02048376 -0.025017077 0.00432602 -0.046908427
0.006425618 -0.0016948103 0.034192335 0.013184418 -0.024716659 -0.036891006 -0.0043472894 -0.05561644
0.033378884 0.034075778 -0.035252556 0.0020314427 -0.012240705 -0.041578054 -0.025749303 -0.007689183
0.03256428 0.04171336 0.004493188 0.0130440965 0.008851943 0.009466756 -0.022491908 -0.024509763
0.013930827 -0.016146593 -0.0504815 -0.042148907 -0.02895052 0.028510273 -0.04771481 -0.04726294
0.042013433 0.04199143 0.026875287 -0.05457824 -0.009598206 -0.05464519 -0.034172192 -0.05416876
0.01565463 -0.045813486 -0.0023609502 0.024044322 0.017836517 0.029204447 -0.039088264 -0.04922814
0.037029654 -0.026461696 -0.046649147 0.014866597 0.027245788 -0.007599809 -0.023390982 -0.023087556
0.00070891186 -0.045687165 0.018266162 0.042968813 -0.02960804 0.012768981 -0.047842246 -0.025253596
-0.034962386 0.0013448931 0.013952305 -0.032138318 0.04030146 0.025580434 0.0046280664 0.013921458
-0.031006036 0.023532424 0.013645238 0.039884485 -0.02364066 0.0048526567 0.031341564 -0.026891379
0.027236758 0.024390163 0.03453203 -0.010903789 -0.03506403 0.026705299 -0.031796362 0.037220955
0.036502235 -0.005735746 -0.041046623 -0.049993373 -0.045157216 0.039057307 0.014398846 0.037398838
0.041831274 0.02216122 -0.052415367 -0.014157692 -0.036404867 -0.02466855 -0.018719915 0.02439932
0.020622075 0.012546643 -0.0053106 -0.05638381 -0.018645734 -0.035879966 0.008079699 -0.0043199947
-0.034352817 0.03901014 0.0061852844 -0.032427926 0.015508665 -0.014170904 0.041918155 0.014547987
0.013668844 -0.047960788 0.033505198 -0.00094111473 -0.010796683 -0.05009707 -0.0047845687 0.03579608
0.03623606 0.01914398 0.021387786 0.0011066565 -0.0035102984 -0.035105657 -0.006967933 0.003001981
-0.0028770326 -0.052299753 -0.038215257 0.03790107 -0.048696376 0.011632575 0.010365208 -0.01114196
-0.027531873 0.012638952 -0.0059332824 0.022630153 -0.018667823 -0.044548113 -0.0076701143 -0.051333852
0.036889438 0.007726879 -0.02990489 -0.052723203 -0.054530583 0.039474558 0.013298209 -0.037712526
-0.038895395 -0.045566857 -0.020814164 -0.0146285705 0.031968486 0.029015498 0.01826411 0.007040469
-0.047549874 -0.0032605364 -0.033281446 0.029488893 -0.009542721 0.020400116 -0.016739767 -0.015570524
-0.019746544 -0.0071700127 -0.051612657 -0.034103394 0.014296083 -0.01761549 0.0071661547 0.012971169
0.0040312423 0.011913908 0.017778412 0.009569293 -0.024624739 -0.030329961 0.03607334 0.033576943
0.00782456 0.041114043 0.012653139 -0.040463496 0.016676242 -0.033145647 -0.0045229928 0.0103422105
0.017113829 -0.016937839 -0.02560657 -0.019511823 -0.055506214 -0.010892922 -0.047933552 -0.032686926
-0.021079985 -0.037514817 -0.012590674 0.016761923 -0.004515849 -0.005278769 -0.0013695833 -0.0051520746
0.015474223 -0.034749757 -0.03264278 0.04285508 -0.0357843 0.013000785 0.012150473 -0.0021700554
0.038434498 -0.05099664 -0.002963502 0.036376443 0.009943318 0.0060890988 -0.007292889 -0.019675797
00000000: 501e 22bb 1f05 293c 4a04 11bd 4354 37bc
00000010: 36e1 04bd 837e d63c 1b6f 29bd fe1b 603c
00000020: 7db4 ce3c 4bd3 d13c 69af 66bc 70d3 f2bc
00000030: 5140 113d 3b2f 243d 138d 8d3c 1883 15bc
00000040: cb3b e63b da92 2f3d fd1a 00bd 30ac 46bd
00000050: 8fcd a7bc 9df0 ccbc 49c1 8d3b 0d23 40bd
00000060: fe8d d23b 6624 deba 430d 0c3d 7503 583c
00000070: 977a cabc 061b 17bd b573 8ebb 10ce 63bd
00000080: 4cb8 083d 0b93 0b3d fc64 10bd f421 053b
00000090: 3d8d 48bc c04d 2abd 34f0 d2bc 8bf5 fbbb
000000a0: 1f62 053d a1db 2a3d 983b 933b e8b6 553c
000000b0: bd07 113c 741a 1b3c f340 b8bc b3c8 c8bc
000000c0: 203e 643c dc45 84bc b0c5 4ebd 55a4 2cbd
000000d0: a429 edbc 608e e93c 9b70 43bd c996 41bd
000000e0: 4716 2c3d 35ff 2b3d 9029 dc3c 6f8d 5fbd
000000f0: cb41 1dbc a2d3 5fbd 24f8 0bbd 10e0 5dbd
00000100: 233e 803c eca6 3bbd 2cba 1abb 99f8 c43c
00000110: e31d 923c 2a3e ef3c 041b 20bd 72a3 49bd
00000120: 68ac 173d 33c6 d8bc 2d13 3fbd 0793 733c
00000130: 8f32 df3c d207 f9bb 729e bfbc 1d22 bdbc
00000140: 45d6 393a 7722 3bbd eba2 953c 1100 303d
00000150: 8f8c f2bc fd34 513c 3bf6 43bd a1e0 cebc
00000160: b834 0fbd 2047 b03a 3598 643c 78a3 03bd
00000170: 2513 253d 0f8e d13c 09a7 973b d416 643c
00000180: 5f00 febc 12c7 c03c 4790 5f3c ea5d 233d
00000190: 0faa c1bc 0903 9f3b 0360 003d 4f4b dcbc
000001a0: 9f1f df3c e1cd c73c 7571 0d3d cea5 32bc
000001b0: 4d9f 0fbd 12c5 da3c e73c 02bd 0075 183d
000001c0: 5e83 153d edf2 bbbb 8120 28bd dac5 4cbd
000001d0: c6f6 38bd 8efa 1f3d 23e9 6b3c 862f 193d
000001e0: 4557 2b3d 728b b53c 7fb1 56bd aaf5 67bc
000001f0: 451d 15bd b315 cabc 825a 99bc 15e1 c73c
00000200: a0ef a83c 6f90 4d3c 8b04 aebb b6f2 66bd
00000210: f0be 98bc dff6 12bd b760 043c be8e 8dbb
00000220: 8ab5 0cbd 19c9 1f3d edad ca3b 25d3 04bd
00000230: 0e18 7e3c 142d 68bc 5fb2 2b3d ae5a 6e3c
00000240: 49f3 5f3c 8872 44bd bf3c 093d 24b5 76ba
00000250: 92e4 30bc 9632 4dbd dfc7 9cbb e99e 123d
00000260: 436c 143d d6d3 9c3c 7035 af3c 3b0d 913a
00000270: 090d 66bb f3ca 0fbd 4253 e4bb e2bc 443b
00000280: 998c 3cbb 4438 56bd 9a87 1cbd 273e 1b3d
00000290: da75 47bd 8e96 3e3c d5d2 293c c48c 36bc
000002a0: 868a e1bc 9b13 4f3c fb6b c2bb df62 b93c
000002b0: 43ed 98bc 1578 36bd 9555 fbbb 7243 52bd
000002c0: 6119 173d c231 fd3b 1afb f4bc 49f4 57bd
000002d0: 765b 5fbd 13b0 213d bbe0 593c 7378 1abd
000002e0: c750 1fbd 50a4 3abd 7782 aabc acac 6fbc
000002f0: 63f1 023d e9b1 ed3c 9d9e 953c bcb3 e63b
00000300: a8c3 42bd b9ae 55bb 2052 08bd b192 f13c
00000310: 1359 1cbc 251e a73c d621 89bc 831b 7fbc
00000320: 81c3 a1bc 6df2 eabb cb67 53bd 00b0 0bbd
00000330: 1e3a 6a3c 5c4e 90bc 10d2 ea3b 0785 543c
00000340: 8318 843b 8d32 433c 08a4 913c 86c8 1c3c
00000350: d2b9 c9bc 8a76 f8bc a3c1 133d fa87 093d
00000360: 9532 003c 3367 283d 1d4f 4f3c 0dbd 25bd
00000370: 9d9c 883c bbc3 07bd 9d35 94bb 6072 293c
00000380: 4d32 8c3c 39c1 8abc dfc4 d1bc 42d7 9fbc
00000390: 7c5a 63bd 3a78 32bc f955 44bd bae2 05bd
000003a0: efaf acbc 23a9 19bd 1d49 4ebc 4d50 893c
000003b0: b0f9 93bb 86f9 acbb 9783 b3ba bcd2 a8bb
000003c0: 9887 7d3c c355 0ebd 70b4 05bd cf88 2f3d
000003d0: 8f92 12bd 3f01 553c c712 473c 7d37 0ebb
000003e0: 7e6d 1d3d dae1 50bd 5037 42bb 77ff 143d
000003f0: 4ce9 223c 1087 c73b 30f9 eebb 232f a1bc

layers.7.bias f4 [120]
-0.053865384 -0.05834424 -7.598601e-05 -0.019421563 0.01944386 0.042282403 0.069622226 0.038827788
0.04564847 -0.02092627 0.002265576 0.026445385 0.033874802 0.05601192 0.07002098 -0.057145935
-0.058370028 -0.04071966 0.024270594 0.0007304078 0.0035344104 -0.015733903 0.04624221 -0.0030012638
-0.016887806 0.045796942 0.011802152 0.02013442 -0.048753366 0.04673745 -0.027582526 -0.0035666246
0.027206687 0.04940455 -0.0050224476 -0.019686261 0.038369954 -0.0015669097 -0.032925542 0.023382258
0.051319826 -0.022880087 0.103909425 0.037789494 -0.025449863 -0.014865659 -0.07253375 0.0017301224
0.014492371 0.037808005 -0.069090575 0.0016166692 -0.029902741 0.07442358 0.026417209 0.025634563
-0.014359422 -0.02903368 0.037672352 -0.043329924 0.029856687 -0.009023208 -0.011097339 0.029480472
0.003298735 -0.016961794 -0.0489072 0.05035404 0.0017263268 -0.008902675 0.043670453 0.017143046
0.042365264 0.013469117 0.010986231 0.028920919 -0.0053986604 -0.0319057 0.032176938 0.022003805
0.052016262 0.011591713 -0.044539876 0.0068243924 -0.020708838 -0.0067605483 0.0018217702 0.038971156
0.037834242 0.030096037 0.050544266 0.017405782 -0.029337281 0.011228885 0.03944844 0.067700714
-0.0049207443 -0.05266034 0.018990975 -0.081896655 -0.028772047 -0.01687223 -0.019902341 -0.03781469
0.012958868 0.05196173 0.043913234 -0.037803154 -0.011163227 0.025502639 -0.03066395 0.012686892
-0.010720153 0.052724496 0.061547536 -0.01477273 -0.04299095 0.005339542 0.016688112 0.0029347916
00000000: f3a1 5cbd 5ffa 6ebd ae5a 9fb8 f819 9fbc
00000010: bb48 9f3c 5030 2d3d 1996 8e3d e309 1f3d
00000020: e4f9 3a3d 926d abbc 0f7a 143b fea3 d83c
00000030: 4ec0 0a3d c16c 653d 2967 8f3d db11 6abd
00000040: 6915 6fbd a9c9 26bd 20d3 c63c d678 3f3a
00000050: 91a1 673b 63e4 80bc 7968 3d3d dab0 44bb
00000060: 4c58 8abc 9395 3b3d d05d 413c f0f0 a43c
00000070: 9cb1 47bd c56f 3f3d c0f4 e1bc 08be 69bb
00000080: 8fe0 de3c 6d5c 4a3d 5893 a4bb 1545 a1bc
00000090: d029 1d3d c460 cdba efdc 06bd 268c bf3c
000000a0: bd34 523d 056f bbbc 77ce d43d 28c9 1a3d
000000b0: 3b7c d0bc 188f 73bc 938c 94bd 46c5 e23a
000000c0: 6971 6d3c 91dc 1a3d 5c7f 8dbd 6be6 d33a
000000d0: 98f6 f4bc 646b 983d e768 d83c 93ff d13c
000000e0: c843 6bbc 0ad8 edbc 534e 1a3d b87a 31bd
000000f0: 0396 f43c 14d6 13bc 9dd1 35bc 0881 f13c
00000100: 972f 583b 76f3 8abc eb52 48bd 0a40 4e3d
00000110: ea45 e23a 86dc 11bc cadf 323d 936f 8c3c
00000120: 3387 2d3d 92ad 5c3c 98ff 333c 90eb ec3c
00000130: 3fe7 b0bb 8daf 02bd f7cb 033d 5341 b43c
00000140: 010f 553d 2beb 3d3c 726f 36bd 279f df3b
00000150: 95a5 a9bc 9787 ddbb 77c8 ee3a 38a0 1f3d
00000160: 14f8 1a3d f78b f63c 8107 4f3d 9296 8e3c
00000170: bd54 f0bc 5bf9 373c b094 213d aca6 8a3d
00000180: 323e a1bb 5eb2 57bd f692 9b3c 6fb9 a7bd
00000190: 5bb3 ebbc a237 8abc 3c0a a3bc 94e3 1abd
000001a0: 6f51 543c d3d5 543d 5dde 333d 7bd7 1abd
000001b0: f8e5 36bc e9ea d03c f732 fbbc afdc 4f3c
000001c0: 95a3 2fbc a4f5 573d 4519 7c3d 5209 72bc
000001d0: 4717 30bd 53f7 ae3b 82b5 883c a255 403b

layers.9.weight f4 [84, 120]
-0.08117172 0.14998832 -0.1683883 -0.05236653 0.055156797 0.042008054 -0.030632664 -0.13731308
-0.067136854 -0.085280135 0.012456157 -0.026267063 -0.05743899 0.011954957 -0.022924043 0.060054697
0.06912133 -0.10193825 -0.04085224 -0.0086513255 -0.059647232 0.14453459 0.14008094 0.07740832
0.02953476 0.11666099 -0.02203238 0.10213678 0.015212096 0.055950504 0.11683131 -0.033707976
-0.008734971 -0.006731338 -0.112095766 0.092013165 -0.07238903 -0.03507967 0.066369876 -0.18287882
-0.008622494 0.12866925 0.10110866 0.13051942 -0.018004093 -0.08149929 0.0547677 -0.039846133
-0.044717405 0.060008135 0.03980483 -0.05968645 0.058391243 -0.09045189 -0.09837972 -0.074663945
-0.057572313 -0.08629856 0.08244143 -0.06330204 -0.046492554 0.08529154 0.16803293 0.0021220944
0.08685637 -0.07317872 -0.0062482827 -0.057262536 0.03985136 0.2765042 -0.039376006 0.07318889
0.013259989 0.078782074 0.110788986 -0.012633762 -0.037651997 0.0021303229 0.083784066 -0.04420717
-0.066836566 0.0055403225 0.058702238 0.1096898 -0.030555984 0.081268 0.12022674 0.032702412
0.05255371 0.050153956 0.103491135 -0.080199376 0.24411996 0.007351814 0.015970685 -0.044612534
-0.0024355897 0.0626849 0.05653026 0.03942757 0.08240948 -0.09169478 0.058275238 -0.030364145
0.039502446 -0.050760254 0.10087688 0.01748293 0.09547138 -0.030606689 -0.027728543 -0.07679055
0.055942222 -0.0640741 0.036063947 -0.08218057 -0.00761735 -0.048295315 0.11852552 0.16477439
0.016002411 0.05886209 0.0151399 -0.09884387 -0.06847447 -0.009054504 -0.058915127 -0.19233058
0.052075796 -0.005313377 -0.06496455 0.058096614 0.019866468 0.0025547885 0.013221091 -0.064083315
0.06368124 0.0056083626 0.0960067 -0.006006877 -0.036137633 -0.0030438993 0.052111816 0.008175902
0.11618261 -0.07399943 0.06250103 0.10551758 -0.003609087 0.07494638 -0.09578852 -0.026023272
0.023086756 0.07993437 -0.070021525 0.1177198 -0.0990848 0.051534746 -0.049854357 0.035207983
0.018841475 0.02618877 0.106627464 0.081920326 -0.04990686 0.05457354 -0.04143079 -0.0063848402
0.0923836 0.0041614505 0.021059362 -0.07882932 0.065157555 -0.13805965 -0.06301972 0.0912205
-0.010512275 0.013350644 0.14580214 0.049812317 -0.05263841 -0.07091557 0.10320029 -0.04137497
-0.008878572 -0.072704986 0.029087937 0.006879976 0.03851216 0.008011014 -0.04778496 -0.03164436
-0.03040152 -0.019133978 -0.07189255 -0.08154609 0.047407895 -0.016325118 -0.020175245 -0.0077368515
0.08157184 -0.06497143 0.005497725 -0.048203167 -0.018906416 0.004750261 -0.103647135 0.03916152
0.02725704 0.035091393 -0.118938066 -0.054114114 -0.2018681 -0.08417757 0.008280172 -0.05245219
-0.112896755 -0.045710824 0.024568405 0.060623858 0.109162204 -0.089383945 -0.005098686 -0.05548686
0.12835898 0.049128674 -0.13380606 -0.053901672 0.0734158 0.08368816 0.027523838 -0.0033691002
-0.070784435 0.05347981 -0.07830207 -0.07220024 0.09525137 -0.04635565 0.14458817 -0.0032719518
-0.05382564 0.049932703 0.038591407 0.048669245 0.026914015 0.08869803 -0.04621486 -0.042536363
0.016911056 -0.08545852 -0.03764896 0.0056147403 -0.027469553 0.062683806 0.0034384695 -0.062509105
00000000: 5c3d a6bd 8a96 193e fc6d 2cbe 497e 56bd
00000010: 18ec 613d a310 2c3d 5af1 fabc cd9b 0cbe
00000020: 0c7f 89bd 5aa7 aebd e914 4c3c 062e d7bc
00000030: 2545 6bbd b9de 433c 34cb bbbc eafb 753d
00000040: 7c8f 8d3d 00c5 d0bd ae54 27bd 4abe 0dbc
00000050: a850 74bd e000 143e 6171 0f3e 4188 9e3d
00000060: e2f2 f13c f5eb ee3d 407d b4bc 172d d13d
00000070: 283c 793c 5b2c 653d 4145 ef3d 6011 0abd
00000080: 201d 0fbc 8e92 dcbb 7792 e5bd 6671 bc3d
00000090: b340 94bd b3af 0fbd eeec 873d 9644 3bbe
000000a0: 5c45 0dbc dfc1 033e 0f12 cf3d e2a6 053e
000000b0: 527d 93bc 1ae9 a6bd 1954 603d b335 23bd
000000c0: 9929 37bd 17cb 753d 640a 233d c779 74bd
000000d0: a82b 6f3d d73e b9bd 4e7b c9bd 69e9 98bd
000000e0: f2d0 6bbd 4dbd b0bd 0dd7 a83d 80a4 81bd
000000f0: fa6e 3ebd 55ad ae3d d310 2c3e d612 0b3b
00000100: c1e1 b13d bade 95bd 65be ccbb 1f8c 6abd
00000110: 2e3b 233d f591 8d3e bc48 21bd 0fe4 953d
00000120: 6d40 593c 7f58 a13d 56e5 e23d d7fd 4ebc
00000130: fb38 1abd e39c 0b3b fb96 ab3d 9412 35bd
00000140: 9ce1 88bd 988b b53b c271 703d 0ca5 e03d
00000150: 8b50 fabc d66f a63d 7039 f63d f7f2 053d
00000160: 8f42 573d 3c6e 4d3d 29f3 d33d 923f a4bd
00000170: 95fa 793e 7ce7 f03b f4d4 823c a2bb 36bd
00000180: 6a9e 1fbb f160 803d 468c 673d ce7e 213d
00000190: 4dc6 a83d 79ca bbbd 04b2 6e3d 3abe f8bc
000001a0: 51cd 213d fce9 4fbd 8a98 ce3d 5d38 8f3c
000001b0: 8086 c33d e1ba fabc f826 e3bc 5d44 9dbd
000001c0: ac23 653d 4839 83bd cab7 133d 494e a8bd
000001d0: f79a f9bb 4fd1 45bd 82bd f23d 9eba 283e
000001e0: 7d17 833c 6019 713d 580d 783c a86e cabd
000001f0: 583c 8cbd 5859 14bc fd50 71bd 4ff2 44be
00000200: 6e4d 553d d61b aebb 220c 85bd b7f6 6d3d
00000210: 01bf a23c 3d6e 273b 469d 583c 1d3e 83bd
00000220: 4f6b 823d 5bc6 b73b 299f c43d 56d5 c4bb
00000230: 0e05 14bd 287c 47bb 3373 553d 38f4 053c
00000240: 26f1 ed3d 038d 97bd 8a00 803d 9a19 d83d
00000250: 6f86 6cbb 7d7d 993d c62c c4bd c22e d5bc
00000260: 7020 bd3c a2b4 a33d 7267 8fbd 1417 f13d
00000270: f9ec cabd 1916 533d 1534 4cbd 3f36 103d
00000280: 7059 9a3c d589 d63c 805f da3d d8c5 a73d
00000290: 236b 4cbd 8188 5f3d 55b3 29bd ec37 d1bb
000002a0: 9d33 bd3d c75c 883b af84 ac3c 4471 a1bd
000002b0: 5371 853d 825f 0dbe 7c10 81bd d0d1 ba3d
000002c0: ad3b 2cbc a9bc 5a3c 284d 153e 0008 4c3d
000002d0: 609b 57bd 2f3c 91bd ac5a d33d cd78 29bd
000002e0: 6e77 11bc 5ae6 94bd d349 ee3c 6c71 e13b
000002f0: edbe 1d3d a140 033c 2aba 43bd 849d 01bd
00000300: 9c0c f9bc dcbe 9cbc 673c 93bd a301 a7bd
00000310: c82e 423d 41bc 85bc 8e46 a5bc 6a85 fdbb
00000320: 230f a73d be0f 85bd 4326 b43b af70 45bd
00000330: a1e1 9abc 14a8 9b3b f344 d4bd d467 203d
00000340: 284a df3c febb 0f3d cd95 f3bd c3a6 5dbd
00000350: 83b6 4ebe 4a65 acbd 8fa9 073c 1cd8 56bd
00000360: 6a36 e7bd 463b 3bbd ae43 c93c b950 783d
00000370: 6f90 df3d ee0e b7bd e112 a7bb 3146 63bd
00000380: 8970 033e 263b 493d 7504 09be 00c8 5cbd
00000390: 065b 963d b364 ab3d ac79 e13c 1fcc 5cbb
000003a0: 6ef7 90bd a50d 5b3d d65c a0bd b8dd 93bd
000003b0: 2613 c33d 6cdf 3dbd ec0e 143e 3e6e 56bb
000003c0: 4678 5cbd 3c86 4c3d 0612 1e3d 6759 473d
000003d0: c87a dc3c 50a7 b53d cb4b 3dbd 9c3a 2ebd
000003e0: 0e89 8a3c e004 afbd cc35 1abd dbfb b73b
000003f0: d407 e1bc 5e60 803d f257 613b c604 80bd

layers.9.bias f4 [84]
0.089865886 -0.07480653 -0.02867872 -0.0074209822 -0.019219277 -0.091195635 0.09254261 -0.078473754
-0.02675751 0.03878276 -0.09684977 0.058887936 -0.03677219 0.04425053 -0.051657792 0.055185102
-0.0129750315 -0.029987829 0.030593332 0.026817165 0.07879912 0.019928882 -0.013353406 0.009337161
-0.030681286 0.0586444 -0.03164409 -0.08732634 0.13242777 -0.048361465 -0.022637377 0.10773893
0.051040016 0.023038903 0.11795789 0.09460086 -0.054218702 -0.017367145 -0.028989684 0.09726915
0.054153536 -0.028192926 -0.0017741699 0.07403114 -0.027372101 0.07802928 0.12501083 -0.037526853
-0.0659106 0.031647693 0.007919162 0.021429459 0.019860847 -0.024081392 -0.015725741 0.09591621
0.023425939 0.09575182 -0.05102612 -0.0814013 -0.017595371 -0.0880252 0.036337785 0.048175078
0.0023257856 -0.001793876 -0.0050075976 0.11050046 -0.07924786 -0.032400776 0.03924981 0.07947048
-0.074973196 0.031378917 -0.08914242 0.06526614 -0.04665911 0.06656574 0.061272625 -0.056125402
0.061263382 -0.032621756 0.06377897 0.09258289
00000000: 9b0b b83d 2a34 99bd a3ef eabc b62b f3bb
00000010: bf71 9dbc c7c4 babd fb86 bd3d d9b6 a0bd
00000020: 9132 dbbc acda 1e3d 2c59 c6bd 7a34 713d
00000030: 709e 16bd 0b40 353d 1f97 53bd c609 623d
00000040: 3a95 54bc 09a9 f5bc de9e fa3c acaf db3c
00000050: 6f61 a13d e541 a33c 3fc8 5abc e4fa 183c
00000060: 5257 fbbc 1c35 703d 3c9d 01bd 27d8 b2bd
00000070: 259b 073e ac16 46bd 0572 b9bc 3aa6 dc3d
00000080: 560f 513d 15bc bc3c e893 f13d 18be c13d
00000090: 6e14 5ebd 8b45 8ebc c67b edbc 0c35 c73d
000000a0: 19d0 5d3d daf4 e6bc 438b e8ba a39d 973d
000000b0: 753b e0bc d1cd 9f3d d702 003e c2b5 19bd
000000c0: 23fc 86bd 03a1 013d 5fbf 013c d58c af3c
000000d0: 37b3 a23c 5746 c5bc 45d3 80bc b86f c43d
000000e0: c1e7 bf3c 8819 c43d c400 51bd bab5 a6bd
000000f0: 2b24 90bc 8e46 b4bd eed6 143d 3b53 453d
00000100: 356c 183b 7e20 ebba c616 a4bb 114e e23d
00000110: b44c a2bd adb6 04bd 69c4 203d 6bc1 a23d
00000120: 8c8b 99bd 2e87 003d 4d90 b6bd 41aa 853d
00000130: 9f1d 3fbd 9e53 883d 01f9 7a3d c0e3 65bd
00000140: 50ef 7a3d 649e 05bd 8c9e 823d 199c bd3d

layers.11.weight f4 [10, 84]
0.08770144 -0.0823142 0.023081241 -0.07632824 0.111456126 0.09121757 0.069259495 -0.12517162
-0.06426036 0.058322012 0.063658305 0.0011218276 0.115225114 -0.07790458 0.10960037 0.07217196
-0.03544928 0.12140372 -0.1529222 -0.19141556 0.068598315 -0.0727376 0.08147588 0.06889433
0.04362819 0.1426652 -0.08918057 -0.023767836 0.04228036 0.0015442506 -0.20468885 -0.0006082703
0.107070185 -0.04882663 0.008210879 -0.11800883 0.012115696 -0.11181773 0.0004360376 0.09085794
0.08645043 0.018647002 -0.11781495 -0.022560481 -0.067263424 -0.17655309 0.04775738 -0.11225872
0.045338877 0.03696046 -0.08467296 -0.076611765 -0.10625867 -0.17852718 0.1368455 0.03369565
0.0895975 -0.049590193 -0.08216749 -0.10387699 0.12889591 -0.06810309 -0.14804527 0.06612468
0.040401246 0.05929832 -0.041490033 -0.023550104 -0.09041986 -0.13456166 0.12664631 0.06578775
-0.13268834 -0.07182437 -0.21902992 -0.033447333 -0.10018262 -0.029155161 -0.13907838 -0.029639224
-0.040365066 -0.04184063 -0.12932874 -0.0307447 0.11282867 0.044514243 -0.05889238 0.14542082
0.08454461 0.11116869 0.029058628 -0.009389341 -0.03907438 0.088285856 0.026362162 -0.085077666
0.060451522 -0.14292982 -0.13563734 -0.12857954 -0.042420387 0.11493015 0.09901689 0.16293558
0.032659918 0.07136863 -0.16437584 0.053535867 -0.11262235 -0.17195047 -0.15154614 -0.06651879
-0.12663211 0.106451966 -0.04094397 -0.01262001 -0.08644215 0.1347819 -0.2144155 -0.1474359
-0.013948788 -0.17992567 0.03367539 0.0075585935 -0.14010541 -0.01053146 -0.062366214 0.059209324
0.02385568 0.082175285 -0.0952976 -0.07451522 0.019267771 -0.092814505 0.07817089 0.14956829
0.10825439 -0.08615155 -0.15597492 0.014994312 -0.1704533 0.073724784 0.14717665 -0.1136203
0.058822937 -0.0048592025 -0.16904955 -0.15559842 -0.112222984 0.023190932 0.04717095 0.039609563
-0.01257446 0.046724446 0.06910846 0.0643736 -0.053412817 0.09956579 0.09537039 -0.04675204
0.07137056 0.10678688 -0.11135867 -0.03324412 0.006508113 -0.18398397 -0.06733368 -0.07841023
-0.09502365 -0.072943546 0.09596411 0.11187203 -0.056799892 0.04920295 0.011118371 -0.14147772
-0.06450123 -0.08726767 -0.05756504 0.12332994 -0.044046868 -0.036927264 -0.06636397 -0.122023754
-0.028693896 0.09283162 -0.18831538 -0.20871025 -0.1497863 -0.07451165 -0.073860675 0.098075464
0.0064478093 -0.10226938 -0.09420744 0.10213855 -0.071693465 -0.11788857 -0.21862695 0.008648375
-0.014239931 0.037803773 0.05091509 0.028709656 -0.06588553 -0.033458002 0.010769492 0.12137799
0.099596344 0.048915073 0.038051806 0.052784316 0.07497205 -0.043303426 -0.06681602 -0.08598101
0.13078505 -0.034425627 -0.101993136 -0.16442887 0.10726012 -0.07437332 0.076774724 0.031195445
-0.050423156 0.10722889 0.047807816 -0.008997118 0.061927386 0.072269715 0.16156003 0.04978702
0.06931845 0.08064032 -0.0109180985 0.02546689 0.09704574 0.11957299 0.07457252 0.033905003
0.14200437 -0.12738815 0.10200164 -0.0846369 -0.06572794 0.0062550437 0.12443991 0.06299895
-0.12987371 0.04774921 -0.0031869116 -0.049272973 -0.10645271 0.11896061 0.061612185 0.123906694
00000000: d09c b33d 5994 a8bd df14 bd3c fb51 9cbd
00000010: 1c43 e43d 47d0 ba3d ecd7 8d3d fd2c 00be
00000020: f09a 83bd 10e3 6e3d 495f 823d 4a0a 933a
00000030: 25fb eb3d 708c 9fbd 2976 e03d e4ce 933d
00000040: 4433 11bd 83a2 f83d a397 1cbe 7102 44be
00000050: 467d 8c3d 73f7 94bd d4dc a63d 7818 8d3d
00000060: 79b3 323d d416 123e 4da4 b6bd c4b4 c2bc
00000070: 2c2e 2d3d 7468 ca3a f499 51be 5474 1fba
00000080: 9d47 db3d 6ffe 47bd ec86 063c 9dae f1bd
00000090: ea80 463c b200 e5bd fa9b e439 ba13 ba3d
000000a0: ec0c b13d 99c1 983c f748 f1bd c2d0 b8bc
000000b0: 68c1 89bd 55ca 34be 3e9d 433d e6e7 e5bd
000000c0: 42b5 393d da63 173d 0469 adbd a1e6 9cbd
000000d0: 259e d9bd d4cf 36be 3a21 0c3e 7304 0a3d
000000e0: e57e b73d 161f 4bbd 6e47 a8bd 76bd d4bd
000000f0: 4afd 033e a279 8bbd 2e99 17be 606c 873d
00000100: c77b 253d cce2 723d 74f1 29bd 26ec c0bc
00000110: 0c2e b9bd 88ca 09be 92af 013e babb 863d
00000120: 74df 07be a818 93bd 6149 60be 1200 09bd
00000130: 8c2c cdbd ced6 eebc 906a 0ebe f5cd f2bc
00000140: d755 25bd 1561 2bbd c16e 04be 4fdc fbbc
00000150: b812 e73d 9154 363d 2339 71bd 32e9 143e
00000160: b925 ad3d 69ac e33d 5c0c ee3c c0d5 19bc
00000170: 750c 20bd 37cf b43d 76f5 d73c 333d aebd
00000180: 049c 773d 325c 12be 84e4 0abe 5baa 03be
00000190: 00c1 2dbd 8060 eb3d 5ec9 ca3d 96d8 263e
000001a0: 68c6 053d b729 923d 2452 28be 6d48 5b3d
000001b0: 8ca6 e6bd c913 30be e92e 1bbe 013b 88bd
000001c0: d9ab 01be 7d03 da3d ddb4 27bd 29c4 4ebc
000001d0: 9508 b1bd 4404 0a3e bd8f 5bbe 70f9 16be
000001e0: 7589 64bc 6f3e 38be 35ef 093d 14ae f73b
000001f0: cb77 0fbe 258c 2cbc b773 7fbd 7a85 723d
00000200: fd6c c33c 844b a83d 632b c3bd 709b 98bd
00000210: 72d7 9d3c 8815 bebd 0f18 a03d 6e28 193e
00000220: 7ab4 dd3d 3970 b0bd e4b7 1fbe b4aa 753c
00000230: 4f8b 2ebe 05fd 963d 7ab5 163e c3b1 e8bd
00000240: 52f0 703d f239 9fbb 531b 2dbe 3155 1fbe
00000250: 2ad5 e5bd e9fa bd3c 5336 413d a33d 223d
00000260: 1c05 4ebc 2262 3f3d bc88 8d3d 4ed6 833d
00000270: 66c7 5abd 26e9 cb3d 8d51 c33d 117f 3fbd
00000280: ba2a 923d 14b3 da3d 0410 e4bd fd2a 08bd
00000290: 0242 d53b 4b66 3cbe 3ee6 89bd 8b95 a0bd
000002a0: c29b c2bd 6d63 95bd d588 c43d 2a1d e53d
000002b0: 01a7 68bd 0889 493d d429 363c 89df 10be
000002c0: 3919 84bd 64b9 b2bd 52c9 6bbd 6894 fc3d
000002d0: 7d6a 34bd 0b41 17bd d5e9 87bd 97e7 f9bd
000002e0: 760f ebbc 811e be3d bfd5 40be 24b8 55be
000002f0: 9461 19be 9099 98bd 4444 97bd cadb c83d
00000300: 2548 d33b 9c72 d1bd d5ef c0bd 042e d13d
00000310: 06d4 92bd 906f f1bd bedf 5fbe eab1 0d3c
00000320: 994e 69bc 21d8 1a3d 578c 503d 8330 eb3c
00000330: feee 86bd 420b 09bd 8672 303c 0695 f83d
00000340: 2bf9 cb3d 2c5b 483d 36dc 1b3d 5e34 583d
00000350: f28a 993d ef5e 31bd d6d6 88bd d016 b0bd
00000360: 84ec 053e e301 0dbd c7e1 d0bd 0b60 28be
00000370: 32ab db3d 0a51 98bd 113c 9d3d 978d ff3c
00000380: 8388 4ebd d29a db3d 21d2 433d a668 13bc
00000390: 92a7 7d3d 2502 943d fe6f 253e 79ed 4b3d
000003a0: d5f6 8d3d c126 a53d d3e1 32bc f09f d03c
000003b0: ebbf c63d afe2 f43d 7ab9 983d f9df 0a3d
000003c0: 9869 113e 0a72 02be 3ce6 d03d 1c56 adbd
000003d0: 5f9c 86bd 1cf7 cc3b 5ada fe3d 9805 813d
000003e0: 9dfd 04be ad94 433d 81db 50bb 75d2 49bd
000003f0: e103 dabd 9fa1 f33d 0f5d 7c3d cbc2 fd3d

layers.11.bias f4 [10]
-0.001943445 -0.039254237 -0.089331426 0.0112032015 0.024376802 -0.039370324 0.012611548 -0.09883942
0.036532104 -0.10438384
00000000: 31bb feba 0dc9 20bd 65f3 b6bd a28d 373c
00000010: dcb1 c73c c742 21bd aba0 4e3c 526c cabd
00000020: b0a2 153d 32c7 d5bd
