model/lenet5.pth (torch_old, 248631 bytes, 10 tensors)

layers.0.weight f4 [6, 1, 5, 5]
0.14961915 0.14448383 -0.11268061 0.1622505 0.067285255 -0.12695728 -0.34137625 0.025714615
-0.086829714 0.28041187 -0.46908408 -0.20441042 0.093714856 0.26439625 0.2941049 -0.26565143
-0.13956094 0.033052877 0.35136092 0.066723354 -0.013082488 0.17125633 0.3440034 0.19705622
-0.15671337 -0.01237464 -0.10667 -0.07038106 -0.1356883 -0.21560961 -0.234805 -0.236185
-0.23138815 -0.38479838 -0.2883884 -0.14080176 -0.23909086 -0.41812173 -0.35257044 0.110234216
-0.41760936 -0.32160726 -0.071583994 0.26136297 0.2894345 -0.3413807 -0.00984155 0.33147717
0.4262375 0.39660782 0.36273414 0.1931757 0.090135105 0.104273774 0.35767028 0.29703063
-0.030508187 0.04617456 0.22014117 0.39844275 0.14729856 0.03978057 -0.2015597 -0.2205864
0.31931832 -0.03945762 -0.353276 -0.5049127 -0.50341105 0.06394914 -0.059066895 -0.19885261
-0.27564132 -0.32361585 -0.10682043 -0.119285695 0.16318555 0.25324622 0.25478086 -0.12586308
0.14081943 0.047088973 -0.14276694 0.22399473 0.12653005 0.027358884 0.027128614 0.21405806
-0.02416943 0.106537946 -0.11074481 0.07224568 0.25827867 0.19571967 0.05155296 -0.037993237
0.18537842 0.14137307 -0.043720167 -0.14770263 0.005341793 -0.25694346 0.00060314924 -0.49199593
-0.21403284 -0.06363492 0.13204457 0.07989617 -0.30175638 -0.047598425 0.16518603 0.10892987
0.06264667 0.14027388 -0.13312055 0.19231361 0.19317313 0.3615145 0.3308354 0.27844536
-0.0005925232 -0.1800181 0.13193434 -0.036174405 0.017124891 0.21426111 0.18735652 0.194088
-0.20957172 0.05750611 -0.061019402 -0.25982624 -0.31148234 -0.3489281 0.09916459 0.06836714
-0.2601178 -0.38125643 0.039953116 -0.11589891 0.20802781 0.19328082 0.16073488 0.17285784
0.22886173 0.21318531 0.21198274 0.12858295 0.13443337 -0.02977729
00000000: c335 193e 92f3 133e 17c5 e6bd ff24 263e
00000010: dacc 893d 1701 02be dec8 aebe 75a7 d23c
00000020: c7d3 b1bd 2592 8f3e ca2b f0be f750 51be
00000030: 93ed bf3d f25e 873e eb94 963e 7703 88be
00000040: 10e9 0ebe 7462 073d 94e5 b33e 41a6 883d
00000050: ef57 56bc d25d 2f3e 3721 b03e 1bc9 493e
00000060: 7879 20be 01bf 4abc cd75 dabd f223 90bd
00000070: e0f1 0abe c4c8 5cbe b970 70be 7bda 71be
00000080: 04f1 6cbe 4b04 c5be a5a7 93be 562e 10be
00000090: 3cd4 74be 0d14 d6be 1d84 b4be 7ac2 e13d
000000a0: e5d0 d5be b5a9 a4be a19a 92bd 5ed1 853e
000000b0: c230 943e 73c9 aebe 743e 21bc 60b7 a93e
000000c0: cd3b da3e 2e10 cb3e 4ab8 b93e dacf 453e
000000d0: c198 b83d 7d8d d53d 8f20 b73e 6614 983e
000000e0: 4eec f9bc 8921 3d3d b06c 613e b000 cc3e
000000f0: 6fd5 163e f3f0 223d aa65 4ebe 67e1 61be
00000100: b17d a33e 509e 21bd 98e0 b4be f541 01bf
00000110: 8cdf 00bf c4f7 823d 21f0 71bd 05a0 4bbe
00000120: dc20 8dbe fab0 a5be abc4 dabd 0f4c f4bd
00000130: 1d1a 273e 7da9 813e a372 823e 40e2 00be
00000140: f832 103e 5ee0 403d 7f31 12be e05e 653e
00000150: 1891 013e bd1f e03c d43c de3c 0932 5b3e
00000160: f8fe c5bc 9130 da3d 2dce e2bd 8bf5 933d
00000170: 1a3d 843e bd6a 483e 3229 533d cc9e 1bbd
00000180: d7d3 3d3e 1ac4 103e eb13 33bd 5c3f 17be
00000190: 350a af3b 188e 83be a91c 1e3a e4e6 fbbe
000001a0: 6d2b 5bbe 0653 82bd b136 073e 9aa0 a33d
000001b0: d07f 9abe 91f6 42bd 8726 293e a016 df3d
000001c0: e64c 803d f5a3 0f3e c150 08be dced 443e
000001d0: 2dcf 453e 6e18 b93e 4263 a93e 6490 8e3e
000001e0: 8f53 1bba aa56 38be cc19 073e 9d2b 14bd
000001f0: 8049 8c3c 4467 5b3e 63da 3f3e 01bf 463e
00000200: f899 56be 878b 6b3d 7bef 79bd f207 85be
00000210: 9d7a 9fbe b4a6 b2be ce16 cb3d 1204 8c3d
00000220: 292e 85be 0b34 c3be e1a5 233d 685c edbd
00000230: 3e05 553e 68eb 453e af97 243e a501 313e
00000240: bb5a 6a3e 404d 5a3e 0112 593e 40ab 033e
00000250: e7a8 093e 81ef f3bc

layers.0.bias f4 [6]
0.009716797 -0.21286543 0.10382661 0.1090128 0.24417008 -0.079070665
00000000: 3333 1f3c 65f9 59be 0ca3 d43d 1a42 df3d
00000010: b907 7a3e cdef a1bd

layers.3.weight f4 [16, 6, 5, 5]
0.06526414 -0.0006004876 0.092153475 0.051385973 -0.15305367 -0.15634334 0.017420609 -0.032631624
-0.08655501 -0.006069422 -0.07309027 -0.1599448 -0.1394128 -0.107349575 0.12844801 0.034510177
-0.23053001 -0.026126934 0.12432428 0.16251789 0.14467983 -0.02582284 0.0063979044 0.07338206
0.06876192 -0.080171525 -0.057952285 -0.0048462697 0.10409077 -0.20160078 -0.06536365 -0.26257122
-0.25449517 -0.16840698 -0.09496183 -0.053476878 0.08302577 -0.0047907047 0.23825817 0.325244
0.07323437 0.017185325 0.05172168 0.09780802 0.22381061 0.12552382 -0.038696337 0.009291926
-0.042599536 -0.053666137 0.006293541 -0.049792357 0.020661622 0.045427117 0.076774284 0.26217854
0.07463341 0.24810499 0.17960806 0.07675029 0.0070372275 -0.05994665 -0.02231931 -0.12651275
-0.31512552 -0.13319774 -0.21690443 -0.0870795 -0.075144865 0.057412777 -0.22129953 -0.18872446
0.038909357 -0.049822956 -0.04787129 0.16611463 0.15456235 0.08268019 0.06517003 -0.01606101
0.0937452 -0.002901105 0.033976644 0.041911997 -0.13947502 -0.0661025 -0.07228089 -0.15382932
-0.18671748 0.014794414 -0.11277191 0.014302627 -0.122206345 -0.116041526 0.059291672 -0.013659294
-0.072729126 -0.16311021 0.021198764 -0.040378653 0.14911915 0.2332498 0.17700617 0.11349383
0.13308764 0.025106905 -0.020857684 -0.11017999 -0.3449032 -0.2958156 -0.01206068 -0.04104899
-0.16057688 -0.214828 -0.11351514 0.015143188 0.026554154 0.009301009 -0.12280097 -0.06163878
0.020790989 -0.04721876 -0.10580935 -0.16027714 -0.08281817 0.07760672 0.07330538 0.16482934
0.070286475 -0.19016281 -0.09117805 -0.016111389 -0.062032856 -0.030857906 -0.11084341 0.16758995
0.072543964 0.025025219 0.07345567 0.17817882 -0.1250521 -0.00048487133 -0.08251071 -0.17333953
-0.03601682 -0.022277227 0.00061687676 -0.0011331897 -0.2273007 -0.09434629 -0.10868051 0.019949634
0.035466727 0.075645775 -0.06628304 0.026206885 -0.03089737 -0.08193567 -0.13098371 -0.045415383
-0.15041208 -0.20479442 -0.06604626 0.08006989 0.08994249 -0.020031193 -0.040189013 -0.039493483
-0.006644708 0.068470016 0.05503994 0.08244595 -0.13226755 -0.10243197 -0.1252697 0.01631015
0.03523907 0.061120376 0.040941395 -0.11362047 -0.07709215 -0.12698065 -0.18805274 -0.07044714
-0.2577687 0.10504038 0.02587497 0.0061984975 0.017319309 -0.123224325 0.13609652 0.058320094
0.0433026 0.018111957 0.09272621 -0.12205396 -0.12172002 -0.1699745 -0.062292177 0.058860295
0.06974327 -0.09570283 -0.108857706 -0.05525535 0.055156555 -0.14798214 0.11940747 0.1830891
0.03208526 0.113962375 -0.009157288 0.119815215 0.050875064 -0.002027854 -0.14598244 -0.06847903
-0.29770848 -0.3521612 -0.19423324 -0.08414372 -0.019449612 0.014908291 -0.04660913 -0.016453585
0.04040358 0.046970557 -0.02854711 0.03472528 0.08349595 0.08669745 0.012776359 -0.010849103
-0.1464779 -0.12312206 -0.0474037 -0.055072866 -0.06136886 -0.09185627 -0.087720215 0.055308983
0.06322905 -0.06472205 0.026629109 0.008245337 -0.003962397 -0.048522353 0.09330085 0.09797088
0.09526471 0.057834815 0.0074594463 0.103025645 0.036866404 0.12416059 0.021448439 0.05011621
00000000: 35a9 853d 0a6a 1dba f6ba bc3d 197a 523d
00000010: 1aba 1cbe 7818 20be aab5 8e3c bda8 05bd
00000020: c143 b1bd 00e2 c6bb 5ab0 95bd 92c8 23be
00000030: 3bc2 0ebe 18da dbbd e087 033e 8b5a 0d3d
00000040: 0f10 6cbe 2708 d6bc ba9d fe3d 176b 263e
00000050: f326 143e 6c8a d3bc 83a5 d13b 5549 963d
00000060: 0dd3 8c3d f830 a4bd 605f 6dbd 75cd 9ebb
00000070: 8b2d d53d 6f70 4ebe 61dd 85bd bc6f 86be
00000080: 314d 82be e172 2cbe 597b c2bd 920a 5bbd
00000090: 6a09 aa3d 58fb 9cbb f3f9 733e 6286 a63e
000000a0: e7fb 953d 3dc8 8c3c 1dda 533d 924f c83d
000000b0: 9c2e 653e 5189 003e 0d80 1ebd 2a3d 183c
000000c0: da7c 2ebd 06d1 5bbd 0c3a ce3b 12f3 4bbd
000000d0: 9042 a93c c911 3a3d d63b 9d3d 443c 863e
000000e0: 67d9 983d 3c0f 7e3e 2deb 373e 422f 9d3d
000000f0: 8b98 e63b 9e8a 75bd fcd6 b6bc 8f8c 01be
00000100: 2258 a1be fd64 08be 321c 5ebe bd56 b2bd
00000110: 8de5 99bd a929 6b3d 589c 62be fc40 41be
00000120: 6b5f 1f3d 2813 4cbd b014 44bd f419 2a3e
00000130: 9845 1e3e 3b54 a93d dd77 853d 6192 83bc
00000140: 7cfd bf3d 7720 3ebb 182b 0b3d eaab 2b3d
00000150: 8ad2 0ebe bf60 87bd 0108 94bd 6f85 1dbe
00000160: de32 3fbe 4564 723c f6f4 e6bd 9155 6a3c
00000170: 5247 fabd 2ea7 edbd d3db 723d 3bcb 5fbc
00000180: 02f3 94bd 5d06 27be 08a9 ad3c 1664 25bd
00000190: b1b2 183e 09d9 6e3e 1b41 353e 746f e83d
000001a0: 2048 083e ffac cd3c bcdd aabc 0ca6 e1bd
000001b0: 2797 b0be 2475 97be 299a 45bc fc22 28bd
000001c0: 446e 24be dffb 5bbe a07a e8bd 221b 783c
000001d0: 1988 d93c 4263 183c 137f fbbd f278 7cbd
000001e0: dd51 aa3c 7568 41bd 93b2 d8bd b11f 24be
000001f0: 939c a9bd 46f0 9e3d 2221 963d 06c9 283e
00000200: 5bf2 8f3d 0aba 42be 8fbb babd 08fc 83bc
00000210: 2a16 7ebd b8c9 fcbc df01 e3bd b39c 2b3e
00000220: ee91 943d b001 cd3c ed6f 963d 8274 363e
00000230: a80d 00be 5436 feb9 60fb a8bd eb7f 31be
00000240: 6086 13bd bb7e b6bc e6b5 213a 8987 94ba
00000250: 84c1 68be a138 c1bd e393 debd 6a6d a33c
00000260: 8f45 113d 2cec 9a3d 67bf 87bd d2af d63c
00000270: 7b1c fdbc e3cd a7bd 9820 06be 7b05 3abd
00000280: a005 1abe a1b5 51be 4343 87bd affb a33d
00000290: c533 b83d 7518 a4bc 3c9d 24bd ebc3 21bd
000002a0: dabb d9bb 023a 8c3d 8f71 613d 6cd9 a83d
000002b0: 2571 07be dac7 d1bd b346 00be dd9c 853c
000002c0: d856 103d 5c59 7a3d 2ab2 273d d9b1 e8bd
000002d0: 7de2 9dbd 3707 02be e690 40be 9746 90bd
000002e0: 42fa 83be 691f d73d bff7 d33c c41c cb3b
000002f0: 39e1 8d3c 095d fcbd e35c 0b3e 0de1 6e3d
00000300: 115e 313d 875f 943c 3de7 bd3d 6df7 f9bd
00000310: 5948 f9bd cc0d 2ebe 1526 7fbd 7e17 713d
00000320: 8fd5 8e3d d8ff c3bd caf0 debd 6f53 62bd
00000330: d7eb 613d a188 17be e78b f43d b67b 3b3e
00000340: d56b 033d 1b65 e93d 7308 16bc ae61 f53d
00000350: 5f62 503d bfe5 04bb 6c7c 15be bc3e 8cbd
00000360: 3f6d 98be 794e b4be 14e5 46be 8b53 acbd
00000370: cb54 9fbc e841 743c 37e9 3ebd abc9 86bc
00000380: 397e 253d 3364 403d a1db e9bc 183c 0e3d
00000390: edff aa3d 6f8e b13d ef53 513c 70c0 31bc
000003a0: 4dfe 15be 6b27 fcbd 622a 42bd 1694 61bd
000003b0: ea5d 7bbd 241f bcbd a8a6 b3bd ac8b 623d
000003c0: 3b7e 813d ff8c 84bd 4a25 da3c 7317 073c
000003d0: ffd6 81bb 60bf 46bd 8414 bf3d f5a4 c83d
000003e0: 251a c33d 33e4 6c3d 5f6e f43b 1cff d23d
000003f0: 3a01 173d e847 fe3d a3b4 af3c a846 4d3d

layers.3.bias f4 [16]
-0.00902819 0.039695557 -0.11304764 0.051042218 0.10391005 -0.06893764 -0.018844863 -0.019640371
-0.04324241 0.06533398 -0.062853634 -0.0059699607 0.016311273 -0.027269758 -0.09308065 0.04064008
00000000: f9ea 13bc cf97 223d 8585 e7bd a511 513d
00000010: cbce d43d 2d2f 8dbd 8b60 9abc d8e4 a0bc
00000020: f41e 31bd d2cd 853d 68b9 80bd a99f c3bb
00000030: 389f 853c d464 dfbc 11a1 bebd 3676 263d

layers.7.weight f4 [120, 400]
0.017526284 -0.047715537 -0.010938312 0.017317595 -0.0057028 -0.030185916 -0.0600179 0.027041592
0.032459278 -0.027963758 0.056688063 0.022220407 0.047671907 -0.044077978 -0.023981623 0.06253637
0.0896957 0.10459791 -0.009638658 0.06320501 -0.0027463045 -0.0268496 -0.004544016 -0.01054312
0.04140585 0.029994613 0.011563126 -0.04639053 -0.06088954 -0.05125433 0.08548895 -0.0436817
-0.059550088 -0.015736798 -0.14373702 0.11943031 0.0043976996 0.021872198 0.04613017 0.028124252
-0.06247292 -0.08308505 -0.017247815 0.023846777 0.08915377 -0.07502469 -0.04828486 0.05895211
0.077373065 0.03780097 0.07748776 -0.058453985 -0.08204194 -0.06214149 -0.009129513 0.09372649
0.10349674 0.03648487 -0.053711984 -0.084492 0.0038341659 -0.07419959 -0.05432937 -0.06174739
0.0348686 -0.15651357 -0.07954789 -0.006599225 0.025929887 -0.023037601 -0.21135974 -0.05601781
0.06364333 0.027975973 0.09377238 -0.07928076 -0.11587389 -0.01785116 -0.025208658 -0.02359698
-0.020035967 0.0015633464 -0.016694805 -0.0034449878 0.073322244 -0.016629603 -0.0075961854 -0.025442386
-0.05990229 0.05396329 0.020737823 -0.05218303 0.048285298 -0.01781307 0.05599622 0.08857702
0.06809488 -0.028488923 -0.07302941 0.050069164 -0.03544408 0.033541717 -0.048176557 -0.001903115
-0.122346126 0.12722337 -0.021930443 -0.016751762 0.004119437 -0.056212243 -0.057920497 -0.040534917
-0.048110683 -0.006513647 -0.016032454 -0.017919105 -0.008190112 0.045142885 0.02625185 0.025760982
-0.051863953 0.009875955 -0.042743 -0.029150622 0.0487724 -0.012302811 0.0038129152 0.05525064
0.027547568 -0.00042183042 -0.026156066 0.09603299 -0.019536033 0.038141888 0.014703433 0.01650767
0.053745177 0.06327705 -0.028714783 -0.07687342 0.072902665 -0.03174236 -0.038939875 -0.041273046
-0.03740262 -0.07148084 -0.06828159 -0.05461379 -0.052120414 0.106658936 0.08338191 0.104549974
0.066439055 0.022258947 0.004508674 -0.0007804671 0.062443398 0.08373135 0.017776156 -0.0024884653
-0.090115055 -0.013365133 0.06441036 -0.035992384 0.03742064 -0.09653411 0.063552625 0.055414993
-0.001059705 -0.0063885865 0.16272159 0.15240374 -0.041371215 -0.10500679 -0.09584043 0.0045012217
-0.08283726 -0.021001942 -0.023251992 -0.0020477532 -0.009695341 -0.12007164 0.00668903 0.0216742
-0.032826193 0.045765754 0.039740626 0.019376902 -0.017459309 0.037758026 -0.0016024917 0.02809083
0.015877333 -0.03898672 0.064042926 0.08772096 -0.02223434 -0.052383054 0.05087182 0.066855736
0.057231084 -0.028182134 0.008999858 0.048810862 0.19448423 0.02152682 -0.029618405 -0.014463543
0.08351594 0.15946709 -0.054207414 -0.059461452 0.089469776 0.12957652 0.0780634 -0.09730874
-0.00923251 0.021290062 0.013850653 -0.07633944 0.08546767 -0.013493591 -0.008687398 0.03667292
-0.21481301 0.110703 -0.072088435 -0.02682612 0.0611478 0.06767436 0.028042765 -0.018424643
0.09765249 -0.02030798 -0.003586173 0.072120726 0.013358498 0.09032904 -0.04810694 -0.020994537
0.10230014 0.07379752 0.027633442 -0.05097773 -0.00079093105 0.14851876 0.08580355 -0.013157739
-0.04488227 0.0069518574 -0.03639019 -0.0074679204 -0.023338536 -0.025334712 0.0034733603 0.094868556
00000000: 4893 8f3c 5e71 43bd 9b36 33bc a1dd 8d3c
00000010: 8ede babb 7448 f7bc 54d5 75bd 5486 dd3c
00000020: 05f4 043d 4014 e5bc be31 683d 9207 b63c
00000030: 9e43 433d 1c8b 34bd 1c75 c4bc 1113 803d
00000040: 61b2 b73d 6e37 d63d 76eb 1dbc a171 813d
00000050: 58fb 33bb b1f3 dbbc f8e5 94bb 0dbd 2cbc
00000060: 2e99 293d 43b7 f53c 4473 3d3c ff03 3ebd
00000070: 4f67 79bd 0ff0 51bd d514 af3d 95eb 32bd
00000080: cbea 73bd 75ea 80bc cc2f 13be e197 f43d
00000090: 941a 903b 532d b33c fdf2 3c3d d564 e63c
000000a0: 9be3 7fbd 7f28 aabd 4a4b 8dbc 515a c33c
000000b0: 4096 b63d 8ba6 99bd 58c6 45bd c577 713d
000000c0: c575 9e3d 31d5 1a3d e7b1 9e3d 726d 6fbd
000000d0: 9b05 a8bd 1388 7ebd f493 15bc adf3 bf3d
000000e0: 19f6 d33d 2971 153d 1901 5cbd 240a adbd
000000f0: a146 7b3b f4f5 97bd 7988 5ebd d5ea 7cbd
00000100: 61d2 0e3d 1845 20be 01ea a2bd 503e d8bb
00000110: ea6a d43c 5ab9 bcbc b06e 58be ee72 65bd
00000120: 6f57 823d de2d e53c bc0b c03d f35d a2bd
00000130: 4a4f edbd 993c 92bc 6382 cebc 744e c1bc
00000140: 7822 a4bc 33e9 cc3a 8bc3 88bc 4ec5 61bb
00000150: f929 963d ce3a 88bc 6ce9 f8bb 8d6c d0bc
00000160: 1b5c 75bd 9c08 5d3d 5ee2 a93c dfbd 55bd
00000170: cec6 453d b7ec 91bc 4b5c 653d de67 b53d
00000180: 5475 8b3d 9a61 e9bc 7190 95bd 5315 4d3d
00000190: d02d 11bd 0a63 093d c854 45bd f171 f9ba
000001a0: 9b90 fabd d846 023e 79a7 b3bc fe3a 89bc
000001b0: 58fc 863b cf3e 66bd 0b3e 6dbd f107 26bd
000001c0: b50f 45bd 6e70 d5bb 7e56 83bc 16cb 92bc
000001d0: d22f 06bc bfe7 383d 1f0e d73c b208 d33c
000001e0: 4c6f 54bd c2ce 213c 4913 2fbd 49cd eebc
000001f0: 91c5 473d bb91 49bc 1ae2 793b 7f4e 623d
00000200: 70ab e13c 1f29 ddb9 3f45 d6bc f2ac c43d
00000210: 080a a0bc ab3a 1c3d abe6 703c 183b 873c
00000220: e723 5c3d 6697 813d 443b ebbc d06f 9dbd
00000230: fe4d 953d 4704 02bd 6b7f 1fbd ed0d 29bd
00000240: 7d33 19bd 8c64 92bd 38d7 8bbd b6b2 5fbd
00000250: 377c 55bd 0070 da3d 23c4 aa3d 4c1e d63d
00000260: 3311 883d 6558 b63c 80bd 933b 4398 4cba
00000270: a6c4 7f3d 587b ab3d 4d9f 913c 8515 23bb
00000280: 3e8e b8bd 6ef9 5abc 94e9 833d c06c 13bd
00000290: 6346 193d adb3 c5bd e127 823d d5fa 623d
000002a0: cde5 8aba 5957 d1bb 7da0 263e ba0f 1c3e
000002b0: dd74 29bd cd0d d7bd fd47 c4bd fc7e 933b
000002c0: 95a6 a9bd 440c acbc f67a bebc 9933 06bb
000002d0: 35d9 1ebc 1fe8 f5bd a72f db3b 188e b13c
000002e0: c274 06bd df74 3b3d 11c7 223d 4fbc 9e3c
000002f0: d306 8fbc 29a8 1a3d b30a d2ba be1e e63c
00000300: 2e11 823c 8ab0 1fbd f028 833d 0ca7 b33d
00000310: ca24 b6bc 9d8f 56bd f85e 503d a9eb 883d
00000320: 246b 6a3d 38de e6bc 2474 133c e6ed 473d
00000330: e026 473e 0359 b03c 4ca2 f2bc 7ff8 6cbc
00000340: 680a ab3d 574b 233e 9808 5ebd da8d 73bd
00000350: ee3b b73d b5af 043e b4df 9f3d ce49 c7bd
00000360: f443 17bc 7f68 ae3c d9ed 623c da57 9cbd
00000370: ac09 af3d 3914 5dbc 9755 0ebc 5836 163d
00000380: f1f7 5bbe 41b8 e23d 1aa3 93bd 74c2 dbbc
00000390: 1e76 7a3d db98 8a3d f1b9 e53c 47ef 96bc
000003a0: 07fe c73d ec5c a6bc 0006 6bbb 08b4 933d
000003b0: 9add 5a3c 6ffe b83d c80b 45bd bcfc abbc
000003c0: bc82 d13d 2723 973d 875f e23c 06ce 50bd
000003d0: 7c56 4fba 4d15 183e c6b9 af3d 8f93 57bc
000003e0: 79d6 37bd 68cc e33b e10d 15bd 75b5 f4bb
000003f0: 7530 bfbc be8a cfbc 51a1 633b 724a c23d

layers.7.bias f4 [120]
0.033611234 -0.010196426 0.062798634 0.013977457 0.037446618 -0.010642719 0.0010161878 0.043896243
-0.06788372 -0.010760153 0.04043728 -0.0095367385 0.034479883 0.03392584 0.108672075 -0.05751492
-0.062075313 0.07846672 -0.008478963 -0.0042285025 0.011826106 0.019535996 0.0071385116 0.0448749
0.028571475 -0.03176199 0.041753456 -0.052152507 0.0770998 0.0068638134 0.03808744 0.08048355
0.020583354 -0.04085568 -0.0014217558 -0.056229003 0.04688862 -0.083599724 -0.01005534 -0.012838941
0.05253909 -0.057512175 -0.032876063 0.020393264 -0.029238287 -0.07144105 -0.038147338 0.07978806
-0.028810358 -0.047649894 0.059535682 -0.032115165 -0.0025160408 -0.0052193664 0.05875844 -0.02700725
0.059345108 0.04085378 -0.017216003 0.047961753 0.012555945 -0.020756608 -0.034654 -0.00078116683
-0.008065415 0.083268955 0.043250784 -0.009475875 -0.034327075 0.03637053 -0.0034664772 0.020877207
-0.011142869 0.06734821 -0.027880091 -0.08141859 0.049729254 0.019750463 -0.028531812 0.054774374
-0.032315005 -0.027863711 -0.052090902 0.06667935 -0.015931975 0.0061453013 -0.0012508553 -0.06773184
0.03491721 0.001373566 0.03268583 -0.04472678 0.022870572 -0.0010107801 -0.02281276 -0.084263794
-0.0039598797 0.01381317 0.013293458 -0.051809646 0.005163381 -0.081691496 0.015245556 -0.042775616
0.021677066 -0.044800337 -0.048834868 0.030542046 0.051139023 -0.012201335 0.06402299 -0.014747974
0.1270459 -0.006730977 0.04581125 0.021356085 -0.06656947 -0.017023142 0.04438 -0.0076026395
00000000: efab 093d e90e 27bc 929c 803d b401 653c
00000010: a061 193d cd5e 2ebc 9b31 853a 8ccc 333d
00000020: 9f06 8bbd 5a4b 30bc 90a1 253d fb3f 1cbc
00000030: c73a 0d3d d2f5 0a3d 778f de3d c494 6bbd
00000040: af42 7ebd 29b3 a03d 59eb 0abc 408f 8abb
00000050: 49c2 413c f409 a03c 2dea e93b bece 373d
00000060: ba0e ea3c dc18 02bd ac05 2b3d de9d 55bd
00000070: 80e6 9d3d d7e9 e03b 9301 1c3d 8fd4 a43d
00000080: 6c9e a83c 4958 27bd 355a baba 6250 66bd
00000090: 480e 403d 5536 abbd 27bf 24bc 6c5a 52bc
000000a0: 3b33 573d e391 6bbd 0da9 06bd c60f a73c
000000b0: 2285 efbc af4f 92bd 6240 1cbd ec67 a33d
000000c0: b303 ecbc 892c 43bd b0db 733d 318b 03bd
000000d0: 29e4 24bb 3807 abbb b1ac 703d 4f3e ddbc
000000e0: db13 733d 4b56 273d 9308 8dbc 8b73 443d
000000f0: 73b7 4d3c c309 aabc 5af1 0dbd 38c7 4cba
00000100: cd24 04bc ea88 aa3d bc27 313d b340 1bbc
00000110: 8c9a 0cbd 44f9 143d d62d 63bb ad06 ab3c
00000120: 9490 36bc dced 893d ca64 e4bc cabe a6bd
00000130: e7b0 4b3d b9cb a13c 8cbb e9bc 185b 603d
00000140: bd5c 04bd 7042 e4bc 455d 55bd 2f8f 883d
00000150: c683 82bc 865e c93b bdf3 a3ba feb6 8abd
00000160: 5905 0f3d 3a09 b43a 94e1 053d 6e33 37bd
00000170: 115b bb3c 277c 84ba d3e1 babc 7f92 acbd
00000180: e1c1 81bb a250 623c cecc 593c 5a36 54bd
00000190: 9431 a93b df4d a7bd 7fc8 793c 7c35 2fbd
000001a0: 1a94 b13c 8f80 37bd 1207 48bd 5033 fa3c
000001b0: 2777 513d 1ce8 47bc 7c1e 833d 7da1 71bc
000001c0: 5218 023e 878f dcbb 94a4 3b3d f5f2 ae3c
000001d0: 9355 88bd 1e74 8bbc cec7 353d 901f f9bb

layers.9.weight f4 [84, 120]
0.03782557 0.072587356 0.10360045 0.022548184 -0.05329748 0.057049893 0.1360558 -0.14701296
0.120238714 0.12814562 -0.03802991 0.01580783 0.00097057974 -0.0024019436 -0.08618151 0.06385514
0.04586476 0.05537109 -0.11806146 -0.08171074 -0.047068596 0.09116103 0.027545942 0.11905067
-0.09618604 0.09780168 -0.040000007 -0.08089309 0.045655698 0.05373766 0.098303184 -0.06333302
0.03784996 -0.03458638 0.0510298 0.023919493 -0.05156815 0.054123923 0.0020555276 -0.06698594
-0.10054945 -0.057906583 0.09911205 -0.06315717 -0.09596102 -0.029363768 0.06312713 0.0026168518
0.030701546 -0.030477952 -0.01889686 0.05828505 0.14042532 0.1216192 0.11540557 0.09294135
0.047244236 0.113859095 0.05002174 0.033250317 0.26677108 -0.09369808 -0.00028310128 0.07263944
0.021614917 -0.027479138 0.034112386 0.1027289 -0.062306058 -0.11354222 -0.069801815 -0.10581515
-0.015185526 0.11230819 -0.14167342 -0.0553121 -0.09331059 0.042337157 0.0643759 -0.039480627
-0.002842586 0.012825771 -0.087905385 0.118789226 -0.061805785 -0.06403365 0.030384624 -0.034554474
-0.0752067 0.13206148 -0.0063564763 0.097169794 -0.08876032 -0.0013554259 0.18781269 0.069044776
0.082920246 0.007762254 0.0010382382 -0.025918841 0.3085581 0.10771832 -0.028481629 -0.035379678
-0.026030578 0.0008356655 -0.060987666 -0.06634231 -0.05740932 -0.050510056 -0.10131657 -0.027633734
-0.019807927 0.008898768 0.0556791 0.0793825 0.05737929 -0.0241887 0.07311367 -0.046852343
-0.046832744 -0.04107865 0.012819016 -0.053290073 -0.009950911 -0.05401359 0.079627365 -0.08999206
0.01351134 0.06835922 0.030103294 0.084024616 -0.123202704 0.109396435 0.04576472 -0.015619116
0.010797245 0.08107784 -0.028076814 0.008147838 -0.065771684 0.09700592 -0.17824177 -0.004856857
-0.0130941905 0.06778801 -0.029900532 -0.030880071 0.07269133 -0.019986339 0.030514332 -0.14232339
0.042130772 0.050112337 0.0044171927 -0.043809112 -0.0048633977 0.042935073 -0.029474577 -0.037231896
0.043906998 0.045927122 0.032524623 -0.09517725 -0.04855166 -0.058756422 -0.04010118 -0.037483264
0.008445202 0.04107592 -0.1221249 0.0998402 0.1594073 0.10149211 0.069744356 0.11594373
-0.016486596 0.010272276 -0.11307006 0.04001031 -0.095468074 0.0007468908 0.050451223 -0.017892309
0.043063205 -0.065263905 -0.167447 0.021726351 -7.666153e-05 0.02626904 -0.03895581 0.04127017
-0.046175897 0.119761765 -0.15419744 0.09486887 0.07662795 0.095976315 -0.07084407 0.028829481
0.026014647 0.032290906 -0.013366186 -0.049373884 0.11155339 -0.1190627 -0.034127496 0.010982636
-0.07476148 0.02654641 0.13731505 0.12246089 0.036242988 0.029077075 0.06880865 0.23363031
0.073217325 -0.06546611 -0.055919286 0.108831584 0.28316107 0.13753864 0.06444765 -0.06437752
-0.08429476 0.07652391 0.07726884 -0.2141881 -0.1420369 0.10596337 -0.068231456 -0.03485846
0.06699185 0.038656324 -0.042405523 0.116163604 0.14794154 -0.06347377 -0.01245299 0.022066899
-0.055855412 0.20997132 -0.08725924 -0.04871869 -0.004488555 0.06258361 0.056094356 -0.04021515
-0.07378934 0.07048589 0.10827246 0.121334 0.06598675 -0.05786529 0.04338312 0.013662332
00000000: fcee 1a3d aea8 943d 792c d43d f8b6 b83c
00000010: 754e 5abd 26ad 693d 3652 0b3e 918a 16be
00000020: b73f f63d 9b38 033e 40c5 1bbd 6c7f 813c
00000030: 816e 7e3a ed69 1dbb ee7f b0bd 7cc6 823d
00000040: b0dc 3b3d cccc 623d 35ca f1bd f657 a7bd
00000050: 00cb 40bd a2b2 ba3d 07a8 e13c d6d0 f33d
00000060: 30fd c4bd 3f4c c83d 0cd7 23bd 47ab a5bd
00000070: 7801 3b3d 051c 5c3d 2e53 c93d beb4 81bd
00000080: 8f08 1b3d 73aa 0dbd a004 513d d0f2 c33c
00000090: 2039 53bd 0cb1 5d3d 08b6 063b ed2f 89bd
000000a0: dfec cdbd 742f 6dbd 42fb ca3d 8c58 81bd
000000b0: 3687 c4bd 498c f0bc cc48 813d 7d7f 2b3b
000000c0: cf81 fb3c e6ac f9bc 96cd 9abc 4ebc 6e3d
000000d0: a8cb 0f3e 7d13 f93d c159 ec3d 0958 be3d
000000e0: 2c83 413d f52e e93d 99e3 4c3d 7c31 083d
000000f0: 3896 883e c7e4 bfbd 366d 94b9 fdc3 943d
00000100: c411 b13c ee1b e1bc 6eb9 0b3d 8863 d23d
00000110: a334 7fbd d388 e8bd 41f4 8ebd 9db5 d8bd
00000120: b6cc 78bc d601 e63d d612 11be f18e 62bd
00000130: 9f19 bfbd ba69 2d3d 83d7 833d 70b6 21bd
00000140: ae4a 3abb 2f23 523c bd07 b4bd c447 f33d
00000150: 1028 7dbd 1324 83bd 2de9 f83c fe88 0dbd
00000160: f805 9abd 203b 073e fd49 d0bb f500 c73d
00000170: f8c7 b5bd 8ca8 b1ba f851 403e 5967 8d3d
00000180: 17d2 a93d 825a fe3b 7e15 883a c053 d4bc
00000190: 54fb 9d3e 6c9b dc3d 4e52 e9bc 48ea 10bd
000001a0: 143e d5bc 9010 5b3a 34ce 79bd 7ade 87bd
000001b0: 0926 6bbd a2e3 4ebd 107f cfbd 2460 e2bc
000001c0: 3c44 a2bc 23cc 113c c50f 643d 4b93 a23d
000001d0: 8c06 6b3d 6127 c6bc 9fbc 953d 3ee8 3fbd
000001e0: b1d3 3fbd 1642 28bd da06 523c b146 5abd
000001f0: 2509 23bc 5b3d 5dbd ac13 a33d c24d b8bd
00000200: ab5e 5d3c ebff 8b3d 2f9b f63c 1915 ac3d
00000210: b351 fcbd 3d0b e03d c973 3b3d 52e7 7fbc
00000220: eee6 303c 230c a63d 5901 e6bc 827e 053c
00000230: 4eb3 86bd 0aab c63d 0385 36be 4526 9fbb
00000240: 0489 56bc 71d4 8a3d f6f1 f4bc 34f8 fcbc
00000250: 31df 943d 64ba a3bc 31f9 f93c 39bd 11be
00000260: 5191 2c3d 9842 4d3d 19be 903b 2f71 33bd
00000270: 235d 9fbb b0dc 2f3d ab74 f1bc 7980 18bd
00000280: d3d7 333d 141e 3c3d 8a38 053d 4aec c2bd
00000290: 1bde 46bd 93aa 70bd 2341 24bd 0d88 19bd
000002a0: bf5d 0a3c 393f 283d 9f1c fabd 0579 cc3d
000002b0: ab3b 233e 18db cf3d 21d6 8e3d e873 ed3d
000002c0: e60e 87bc 0c4d 283c 4791 e7bd dae1 233d
000002d0: c484 c3bd feca 433a f1a5 4e3d e492 92bc
000002e0: 0b63 303d 15a9 85bd 3a77 2bbe 76fb b13c
000002f0: 58c5 a0b8 2b32 d73c 2190 1fbd e90a 293d
00000300: f022 3dbd a845 f53d efe5 1dbe 9c4a c23d
00000310: 1def 9c3d 3b8f c43d b216 91bd ce2b ec3c
00000320: ab1c d53c 7843 043d d9fd 5abc 453c 4abd
00000330: 1b76 e43d 25d7 f3bd 46c9 0bbd 84f0 333c
00000340: 8c1c 99bd db77 d93c 519c 0c3e c6cc fa3d
00000350: 8773 143d 0c33 ee3c 8deb 8c3d c93c 6f3e
00000360: f7f2 953d 1913 86bd 9f0b 65bd 18e3 de3d
00000370: 7dfa 903e eed6 0c3e 21fd 833d 5cd8 83bd
00000380: bba2 acbd 91b8 9c3d 203f 9e3d 2054 5bbe
00000390: 1f72 11be 5303 d93d efbc 8bbd bfc7 0ebd
000003a0: 0633 893d 1856 1e3d 6ab1 2dbd 2fe7 ed3d
000003b0: fd7d 173e 89fe 81bd a007 4cbc a4c5 b43c
000003c0: a5c8 64bd b902 573e f9b4 b2bd 408d 47bd
000003d0: ba14 93bb d62b 803d 32c3 653d a4b8 24bd
000003e0: de1e 97bd e85a 903d f4bd dd3d f67d f83d
000003f0: 1024 873d 2804 6dbd 80b2 313d f9d7 5f3c

layers.9.bias f4 [84]
0.07629003 0.04192561 0.0013316408 -0.09559487 -0.055513363 0.14113507 -0.030574596 0.069404855
0.10883626 0.018221237 0.002908748 0.098548524 0.14862032 -0.022360083 0.016285919 -0.06581166
-0.08116655 0.002290702 0.06383329 0.027802978 0.08048421 -0.010929666 -0.039268214 -0.0067513627
0.015981374 -0.018309556 -0.0037137836 -0.064326204 0.051924363 -0.06333444 -0.016210107 0.0063378843
-0.115026444 0.0062058764 -0.043794245 0.07000543 0.059647962 0.05783568 0.046701882 0.025611123
-0.07324884 0.010962286 0.12946177 0.01862598 -0.039017648 0.1122983 0.09099536 0.07175513
-0.118104726 0.0025135227 0.03794203 0.1653615 0.019200033 -0.03949152 -0.040292293 0.1757225
0.022661865 0.0039970684 -0.009776009 -0.0055188476 -0.036547158 -0.05320919 0.035032507 -0.055033106
-0.050674904 -0.03898792 -0.05750009 0.03824496 -0.10168404 0.09780352 -0.038786743 0.11630328
0.028700784 -0.029898452 0.060494944 -0.12651117 -0.08901627 -0.022271745 0.05607327 -0.0888501
0.02072596 -0.012255904 0.08140836 -0.0058560856
00000000: f23d 9c3d 30ba 2b3d 738a ae3a 3ec7 c3bd
00000010: fb61 63bd b685 103e 9377 fabc 2224 8e3d
00000020: 8ce5 de3d b444 953c b2a0 3e3b cfd3 c93d
00000030: ed2f 183e 7e2c b7bc 0c6a 853c 43c8 86bd
00000040: a63a a6bd 9a1f 163b 07bb 823d 12c3 e33c
00000050: e8d4 a43d 5812 33bc b5d7 20bd 893a ddbb
00000060: 5feb 823c ecfd 95bc f362 73bb 75bd 83bd
00000070: a4ae 543d 7db5 81bd 0fcb 84bc 07ae cf3b
00000080: fc92 ebbd aa5a cb3b 9861 33bd 025f 8f3d
00000090: 6c51 743d 1be5 6c3d 794a 3f3d 6bce d13c
000000a0: 7d03 96bd 299b 333c a091 043e 8395 983c
000000b0: f8d0 1fbd a7fc e53d c65b ba3d 5bf4 923d
000000c0: e4e0 f1bd eab9 243b 1a69 1b3d 8654 293e
000000d0: 6349 9d3c dcc1 21bd 8809 25bd 99f0 333e
000000e0: 60a5 b93c d7f9 823b 8e2b 20bc 73d7 b4bb
000000f0: 79b2 15bd e1f1 59bd 3f7e 0f3d 656a 61bd
00000100: 7d90 4fbd ccb1 1fbd 3785 6bbd bfa6 1c3d
00000110: b93f d0bd 364d c83d d9de 1ebd 6a30 ee3d
00000120: e81d eb3c 99ed f4bc 8cc9 773d 258c 01be
00000130: 2a4e b6bd 3c73 b6bc 16ad 653d 0bf7 b5bd
00000140: 7dc9 a93c fdcc 48bc 6db9 a63d 68e4 bfbb

layers.11.weight f4 [10, 84]
0.06302567 -0.12518248 0.08895876 -0.124132216 -0.027285645 0.13882919 0.14049485 -0.053983495
0.054882143 -0.026187263 -0.16345295 0.12755063 0.086512856 -0.17051032 -0.011154493 -0.02778343
-0.0488032 -0.14886111 -0.14828847 -0.13951018 0.11094738 -0.049422257 -0.087601036 -0.033852305
-0.18606581 -0.17697857 -0.20424697 0.059970833 -0.046994947 -0.06863618 -0.0069931294 0.039279066
-0.13412337 -0.08531778 -0.023064405 0.014321265 -0.13798292 -0.12407275 -0.055263724 0.060117368
-0.10701057 0.004325066 -0.119837 -0.06638736 0.24851534 -0.14056621 0.083833896 0.010360906
-0.058379203 -0.0481085 0.08078587 -0.13153206 0.08588638 0.040246263 0.06933561 0.112427264
0.03848725 -0.056322537 -0.11713658 0.1302069 0.048489947 0.02333078 -0.08858405 0.031322435
0.06560314 0.00898058 0.06464015 -0.10060968 0.021947049 0.035536118 -0.05828268 -0.062354103
-0.09530616 -0.16981 0.07134306 -0.040124215 0.098729245 -0.09551023 0.1337775 0.046086952
-0.13840367 0.074412435 0.13038929 -0.14413464 0.10971325 0.1345831 -0.17748481 -0.03865742
-0.05334316 -0.07720975 -0.2583938 -0.037760194 0.07643309 -0.22077404 -0.10333686 -0.07698151
0.08394219 -0.06649805 -0.11315693 -0.20793778 0.030694623 0.15985261 -0.07809471 0.04321332
-0.16509995 0.09947265 0.1282667 -0.0789306 -0.16880131 -0.107248455 0.09316831 0.03057307
0.10004421 -0.03809188 0.052766945 -0.07727262 0.12056825 0.024461227 -0.082979225 0.049557593
0.0986357 0.064393714 0.03506027 -0.2215639 -0.12019559 -0.028306449 -0.16494037 0.087690786
-0.1469798 -0.056002248 0.15977831 -0.10781777 -0.113203354 -0.052143466 -0.16847354 0.027178684
-0.22029765 0.09266487 -0.07439216 0.111093424 -0.13055909 -0.034713097 0.13268943 0.016830413
-0.14442676 -0.035192877 0.098053716 0.14327037 0.0089078685 0.030007986 0.07922893 -0.0049272412
0.14124998 -0.15884918 -0.015594861 -0.046667572 0.08969779 0.04360057 -0.07063546 -0.10238894
0.07145153 -0.0025574057 0.117388375 -0.03694669 -0.15611249 -0.16062982 0.11261275 -0.14083065
0.07606753 0.028134326 0.1081881 0.02201293 0.07618237 -0.062415376 -0.14350507 -0.17878342
0.026728012 0.06071605 0.067726694 -0.20366998 -0.17050642 -0.004315388 0.08297677 0.0437881
-0.06410587 -0.08996123 -0.11502992 -0.07528931 0.11095093 0.099054284 0.08311674 -0.1385033
0.15785031 0.066935115 0.12738091 -0.15284094 0.13648596 0.08090048 0.0136354435 0.056557212
0.07587997 0.12980308 -0.08672998 0.058432687 -0.08072477 -0.25056353 -0.2199984 0.053939912
0.02484629 0.089240424 -0.22794355 -0.11173497 -0.12994523 -0.03493206 -0.071809165 0.06931547
0.101971224 -0.032990918 0.04568816 -0.06425538 -0.0985616 -0.103348054 0.053384557 -0.029262647
0.0815475 -0.025101097 0.13380395 -0.27077892 -0.042093005 0.06977893 -0.052463718 0.034268975
0.17471057 -0.039147165 0.016041394 -0.1462106 -0.07660965 0.02241699 -0.060387913 -0.20624891
0.050369944 -0.0009540829 0.06162928 -0.049596738 0.088245146 -0.13489139 -0.14468552 0.029863479
-0.116132066 -0.1495114 -0.1813031 0.0758525 -0.024943553 0.14416717 -0.026194813 0.035789046
00000000: 9a13 813d d62f 00be 0330 b63d 0839 febd
00000010: 2586 dfbc 3d29 0e3e e2dd 0f3e cc1d 5dbd
00000020: 19cc 603d ac86 d6bc 3660 27be a29c 023e
00000030: a72d b13d 429a 2ebe 56c1 36bc 139a e3bc
00000040: dde5 47bd 0c6f 18be efd8 17be c2db 0ebe
00000050: 6138 e33d fe6e 4abd 2c68 b3bd b7a8 0abd
00000060: 0988 3ebe df39 35be 1e26 51be faa3 753d
00000070: c67d 40bd 2091 8cbd 9f26 e5bb 16e3 203d
00000080: a357 09be 17bb aebd 90f1 bcbc bda3 6a3c
00000090: 654b 0dbe db19 febd 375c 62bd a13d 763d
000000a0: 5c28 dbbd 49b9 8d3b 1a6d f5bd 19f6 87bd
000000b0: ce7a 7e3e 97f0 0fbe 1bb1 ab3d cac0 293c
000000c0: 081f 6fbd 6b0d 45bd 1073 a53d 57b0 06be
000000d0: 33e5 af3d 44d9 243d d4ff 8d3d 4440 e63d
000000e0: cfa4 1d3d 76b2 66bd 4ee5 efbd f554 053e
000000f0: 659d 463d 3120 bf3c 8e6b b5bd f44b 003d
00000100: f05a 863d 4823 133c 0e62 843d 730c cebd
00000110: 4cca b33c 528e 113d d2b9 6ebd 0467 7fbd
00000120: e02f c3bd ace2 2dbe 4f1c 923d 4a59 24bd
00000130: 8f32 ca3d de9a c3bd f8fc 083e acc5 3c3d
00000140: b1b9 0dbe 8c65 983d c584 053e 0898 13be
00000150: 57b1 e03d 27d0 093e 94be 35be 3e57 1ebd
00000160: 5b7e 5abd 2520 9ebd 314c 84be 6faa 1abd
00000170: f488 9c3d 9712 62be 47a2 d3bd 7ba8 9dbd
00000180: e2e9 ab3d 2130 88bd d2be e7bd a4ed 54be
00000190: 4a73 fb3c 67b0 233e 1ff0 9fbd 7300 313d
000001a0: f60f 29be 51b8 cb3d 5958 033e 5ea6 a1bd
000001b0: 40da 2cbe 14a5 dbbd 07cf be3d 6074 fa3c
000001c0: fbe3 cc3d 3b06 1cbd 2722 583d 1b41 9ebd
000001d0: 7dec f63d e962 c83c 03f1 a9bd e7fc 4a3d
000001e0: 8401 ca3d dae0 833d 5c9b 0f3d a6e1 62be
000001f0: 1b29 f6bd ede2 e7bc 21e6 28be 3a97 b33d
00000200: df81 16be 9d62 65bd ed9c 233e 90cf dcbd
00000210: 29d7 e7bd 6394 55bd 5484 2cbe d5a5 de3c
00000220: b595 61be 14c7 bd3d eb5a 98bd f384 e33d
00000230: 48b1 05be 522f 0ebd bddf 073e efdf 893c
00000240: 9ce4 13be 6826 10bd 63d0 c83d 78b5 123e
00000250: 4ff2 113c 4fd3 f53c c742 a23d b274 a1bb
00000260: d6a3 103e 5ca9 22be 9681 7fbc 7f26 3fbd
00000270: 7ab3 b73d 8396 323d 53a9 90bd 4bb1 d1bd
00000280: 2e55 923d 269a 27bb 5169 f03d 6a55 17bd
00000290: f4db 1fbe 257c 24be 83a1 e63d e935 10be
000002a0: 4bc9 9b3d f579 e63c b991 dd3d 7654 b43c
000002b0: 8105 9c3d 44a7 7fbd fef2 12be 0013 37be
000002c0: b4f4 da3c 65b1 783d 4bb4 8a3d dd8e 50be
000002d0: 3c99 2ebe 1968 8dbb baef a93d 275b 333d
000002e0: f049 83bd 983d b8bd cf94 ebbd 4831 9abd
000002f0: 3e3a e33d f9dc ca3d 1c39 aa3d cfd3 0dbe
00000300: 83a3 213e 4715 893d 2470 023e 5682 1cbe
00000310: fac2 0b3e 27af a53d 3267 5f3c 89a8 673d
00000320: f566 9b3d 19eb 043e 7d9f b1bd 1d57 6f3d
00000330: 0753 a5bd dd49 80be 4347 61be 19f0 5c3d
00000340: 728a cb3c afc3 b63d 096a 69be 4ed5 e4bd
00000350: 5d10 05be eb14 0fbd af10 93bd 45f5 8d3d
00000360: 4ad6 d03d 7c21 07bd 8223 3b3d 5398 83bd
00000370: aada c9bd 25a8 d3bd c4a9 5a3d 38b8 efbc
00000380: 6002 a73d d1a0 cdbc e703 093e 89a3 8abe
00000390: b769 2cbd 41e8 8e3d 32e4 56bd a05d 0c3d
000003a0: 54e7 323e c758 20bd 3e69 833c 3bb8 15be
000003b0: 85e5 9cbd d6a3 b73c 5159 77bd ea32 53be
000003c0: b750 4e3d 6b1b 7aba fc6e 7c3d f325 4bbd
000003d0: dfb9 b43d f820 0abe 7128 14be 41a4 f43c
000003e0: a6d6 edbd 8419 19be 85a7 39be 8e58 9b3d
000003f0: 6c56 ccbc 8fa0 133e 8196 d6bc 8997 123d

layers.11.bias f4 [10]
-0.0028649936 -0.04663709 -0.10658796 0.027915498 -0.107833706 -0.0011066302 -0.13083296 -0.03786669
-0.025318779 0.037584737
00000000: 9ec2 3bbb 8906 3fbd ca4a dabd 0baf e43c
00000010: ebd7 dcbd 590c 91ba 13f9 05be 1a1a 1bbd
00000020: 5469 cfbc 74f2 193d
